numerical_model_best_3.pth (torch, 245010 bytes, 13 tensors)

fc_numerical.0.weight f4 [256, 163]
0	0x3f86dda7	1.0536393
1	0xbe849387	-0.25893804
2	0xbeeb30a9	-0.45935562
3	0xbe8f6809	-0.2800906
4	0xbf00e79b	-0.503534
5	0xbe480646	-0.19533643
6	0x3da1312e	0.078707084
7	0xbcd39a3a	-0.025830377
8	0x3db587d5	0.088637985
9	0x3dab436a	0.083624676
10	0xbc79978a	-0.015233884
11	0xbdce6618	-0.100780666
12	0xbe327546	-0.17427549
13	0xbd749bbe	-0.05971884
14	0x3e252c7b	0.16130249
15	0x3dad80ef	0.08471858
16	0x3df20320	0.11817002
17	0xbd1f7ce8	-0.03893748
18	0xbf2aaa6f	-0.6666631
19	0xbe29d4ac	-0.16585034
20	0xbe9fafcf	-0.3118882
21	0xbe8a3836	-0.2699601
22	0xbf461215	-0.7737134
23	0x3d19c46d	0.03754084
24	0xbdaa4c9e	-0.08315395
25	0xbe142feb	-0.14471404
26	0xbe02bc09	-0.12767042
27	0xbdcf68bf	-0.101274006
28	0xbe83bb81	-0.25728992
29	0x3d0d3f74	0.03448434
30	0x3e932bd0	0.28744364
31	0xbf24a355	-0.64311725
32	0x3e85acf8	0.26108527
33	0xbeb2a4fd	-0.348915
34	0x3e9245b5	0.28568807
35	0xbf12c012	-0.57324326
36	0x3cc2c90d	0.02377751
37	0x3e56c030	0.20971751
38	0x3e0f43eb	0.13990752
39	0xbe606ae5	-0.21915777
40	0x3dcc34b9	0.099709935
41	0xbe2622bf	-0.16224192
42	0x3e91e0e0	0.28491879
43	0xbeb4d0f5	-0.35315672
44	0xbe846850	-0.25860834
45	0xbf0f6e1c	-0.5602739
46	0xbef43b29	-0.47701386
47	0xbea07ff9	-0.31347635
48	0xbeed4e46	-0.4634878
49	0xbdca3a60	-0.098744154
50	0x3de6333d	0.11240242
51	0x3d862664	0.06550291
52	0x3d5744bf	0.052555796
53	0xbbd28e17	-0.00642563
54	0x3cccd722	0.025004927
55	0x3ea93085	0.3304483
56	0x3e1e2135	0.15442355
57	0x3e110579	0.14162244
58	0x3dc1c018	0.09460467
59	0x3e6d104e	0.23150751
60	0xbd15f82a	-0.03661362
61	0x3e821d7d	0.25413123
62	0xbe1f4ed1	-0.1555741
63	0xbe9ef7a7	-0.3104832
64	0xbec5299b	-0.38508305
65	0xbe1c5140	-0.1526537
66	0xbe208b0b	-0.1567804
67	0xbd7aee9f	-0.061262723
68	0xbd07293b	-0.032998305
69	0xbe3ac9e4	-0.18241078
70	0xbe7bea0b	-0.24600999
71	0xbc8d4ae2	-0.017247621
72	0xbe2b5da2	-0.16734937
73	0xbec5cd06	-0.38632983
74	0xbeb3672a	-0.35039645
75	0xbea37864	-0.31927788
76	0xbf29fb32	-0.6639892
77	0x3c2e25c6	0.010629123
78	0x3ded5963	0.11589315
79	0xbe4cc39e	-0.19996497
80	0xbd277f2b	-0.04089276
81	0x3d2726a5	0.04080834
82	0xbe49f7bd	-0.19723411
83	0xbe8ee89e	-0.27911848
84	0xbe86ab9a	-0.26302797
85	0xbe801f69	-0.25023964
86	0xbeda5226	-0.426408
87	0xbde762ce	-0.112981424
88	0x3d5cc4a6	0.053898476
89	0xbe4e117c	-0.20123857
90	0xbda1cd71	-0.07900513
91	0x3da44b44	0.08022168
92	0xbd7354cb	-0.059407037
93	0x3be1ef49	0.00689498
94	0xbe23e8eb	-0.1600682
95	0xbdf96e8f	-0.121792905
96	0xbd7593ee	-0.05995553
97	0xbd78aaa6	-0.060709618
98	0x3ee07553	0.4383951
99	0xbe36f282	-0.17865947
100	0xbe10ded2	-0.14147499
101	0x3d1693bf	0.036761995
102	0xbe9efa68	-0.3105042
103	0x3ee29d01	0.4426041
104	0xbeada461	-0.33914474
105	0xbe0acbbd	-0.13554282
106	0xbe7ec729	-0.24880661
107	0xbe42843e	-0.18995759
108	0xbdba65e1	-0.09101463
109	0xbe84de2b	-0.2595075
110	0xbd891538	-0.066935
111	0xbeba908e	-0.3643841
112	0xbeb785db	-0.3584431
113	0xbe3995e0	-0.18123579
114	0xbf3bc7a2	-0.7335149
115	0xbf16846e	-0.5879582
116	0xbeb44b5d	-0.35213748
117	0xbcc306e1	-0.023806991
118	0xbece0181	-0.40235522
119	0xbf0da3b3	-0.5532791
120	0xbeee96ae	-0.46599334
121	0xbf213955	-0.62978107
122	0x3d2292c0	0.039690733
123	0xbe82e9da	-0.2556904
124	0xbeeb43f6	-0.45950288
125	0xbe5c27aa	-0.21499506
126	0xbe2fab8c	-0.17155284
127	0x3cc039fc	0.02346515
128	0xb9400680	-0.00018312968
129	0xbe6806fd	-0.22658916
130	0xbe7d17a8	-0.24716055
131	0x3dbf669a	0.093457416
132	0x3e90a131	0.2824798
133	0x3edcd96a	0.43134624
134	0x3da7754b	0.08176669
135	0x3e130b3d	0.14359756
136	0x3e950778	0.2910726
137	0x3ebf2d6f	0.3733935
138	0x3e471d19	0.19444694
139	0xbe080437	-0.13282858
140	0xbe927071	-0.2860141
141	0xbe78a2b4	-0.24280816
142	0xbda1a275	-0.07892314
143	0x3d9751f9	0.07388682
144	0x3e2a0521	0.16603519
145	0x3da697bb	0.08134409
146	0x3e0c5a20	0.13706255
147	0x3e0924d3	0.13392954
148	0x3e1953a5	0.14973314
149	0x3e81c293	0.2534376
150	0x3e1f6035	0.15564044
151	0x3e4e5145	0.2014819
152	0x3d44d93f	0.048058745
153	0xbe74824a	-0.23877826
154	0xbce57b1b	-0.028012803
155	0x3e077bea	0.13230863
156	0x3ebb5774	0.3659016
157	0x3e83638d	0.2566189
158	0x3e908d24	0.28232682
159	0x3dd932cb	0.10605391
160	0x3e541398	0.207106
161	0x3e4dfc7e	0.2011585
162	0x3e8c4fb0	0.27404547
163	0x3dcda8f5	0.100419916
164	0xbea29db1	-0.31760934
165	0xbf017e26	-0.5058311
166	0x3e339375	0.17536719
167	0x3e0e6c76	0.13908562
168	0x3b9a8de5	0.004716622
169	0x3f061c18	0.5238662
170	0x3f076bd7	0.52898926
171	0x3f132196	0.57473123
172	0x3f3653fb	0.71221894
173	0x3f10ccdd	0.56562597
174	0x3f282066	0.65674436
175	0xbcc79b92	-0.024366174
176	0x3e57d410	0.21076989
177	0x3de3c562	0.11121632
178	0x3e307fac	0.17236203
179	0x3d295694	0.041342333
180	0x3e1b005e	0.15136859
181	0x3eaf100d	0.34191933
182	0x3e9bdcfb	0.30442032
183	0x3e3478ee	0.17624256
184	0x3ebce02a	0.36889774
185	0x3e35227b	0.17688935
186	0x3eb19741	0.3468571
187	0x3e0b6afe	0.13615033
188	0xbd4384e4	-0.047734156
189	0x3f214f78	0.63011885
190	0x3f042105	0.51612884
191	0x3e91a2d8	0.28444552
192	0xbcda789d	-0.026668841
193	0xbea3a238	-0.319597
194	0xbe2a285c	-0.16616958
195	0xbe093576	-0.133993
196	0xbe57ef85	-0.21087463
197	0xbdf7daee	-0.121023044
198	0xbe2c0b7a	-0.16801253
199	0xbdd23c2b	-0.102653824
200	0x3ed689ae	0.41901916
201	0xbe6ee5ab	-0.23329799
202	0x3e498047	0.1967784
203	0xbdb85a1e	-0.090015635
204	0x3ebaf035	0.36511388
205	0xbea41f68	-0.3205521
206	0x3e633a39	0.22190179
207	0x3edca38e	0.43093532
208	0x3ec9e81f	0.39434907
209	0x3ed04efc	0.4068526
210	0x3ed007b7	0.40630886
211	0x3ed87781	0.42278674
212	0x3edb7d4f	0.4286904
213	0x3e7a9509	0.24470915
214	0xbe46cff3	-0.19415264
215	0xbe09be00	-0.13451385
216	0x3df96a7b	0.12178513
217	0x3d65ede3	0.05613507
218	0xbf3b7e67	-0.7323975
219	0xbf0a55f2	-0.5403739
220	0xbf30187e	-0.6878737
221	0xbf1b8967	-0.60756534
222	0xbf18d028	-0.5969262
223	0xbeb8077c	-0.3594321
224	0xbe89803a	-0.26855642
225	0x3ee4313e	0.4456882
226	0x3ebc6a89	0.3680003
227	0x3ef75ffb	0.48315415
228	0xbe4841ef	-0.19556402
229	0x3eb5c6d9	0.3550327
230	0xbb801f6e	-0.0039099967
231	0x3e331046	0.17486677
232	0x3e112b4c	0.14176673
233	0x3e18e302	0.14930347
234	0x3e95b219	0.2923744
235	0x3e78a71d	0.24282499
236	0xbdb33dd3	-0.087520264
237	0x3ed3e11a	0.41382676
238	0x3ec08910	0.3760457
239	0x3e9d359d	0.30704966
240	0x3e02181a	0.12704507
241	0xbf36093e	-0.7110785
242	0x3dc9f68c	0.09861478
243	0x3db3d6ce	0.08781205
244	0xbd98d9a8	-0.0746339
245	0x3e31a79c	0.17349094
246	0x3e317b4b	0.17332189
247	0x3e3c859f	0.18410347
248	0x3d94c00f	0.07263195
249	0x3f0f86ff	0.5606536
250	0xbbaf3b74	-0.0053476635
251	0x3e484c72	0.19560412
252	0x3c88dd8e	0.016707208
253	0x3bb81224	0.005617397
254	0x3e4e8d65	0.20171125
255	0x3d645fe4	0.05575551

fc_numerical.0.bias f4 [256]
0	0x3f3cec1e	0.73797786
1	0xbf2c09c1	-0.67202383
2	0xbe7e5a34	-0.24839097
3	0xbbda1c16	-0.00665618
4	0xbf45f325	-0.77324134
5	0xbf6ff7ef	-0.9373769
6	0xbeeee1f3	-0.4665676
7	0x3f00a6a9	0.50254303
8	0xbea4a5b0	-0.3215766
9	0xbdbbd16d	-0.09170804
10	0x3e53dc1b	0.20689432
11	0xc01d49e7	-2.4576356
12	0xbead8306	-0.33889025
13	0xbd1cecaa	-0.038311638
14	0xbf05d2b9	-0.5227466
15	0xbf87ebc9	-1.0618831
16	0xbd488789	-0.04895738
17	0x3e87057f	0.2637138
18	0xbe3b6efd	-0.18304057
19	0xbf64c96b	-0.8936984
20	0xbe8803a5	-0.2656528
21	0xbfe0d46f	-1.756483
22	0xbf5ab972	-0.8543922
23	0x3da64206	0.08118062
24	0xbf217a45	-0.63077193
25	0xbf4aba4a	-0.79190505
26	0xbe47e7ff	-0.19522093
27	0x3e20406d	0.15649576
28	0xbedbc2f1	-0.42922166
29	0xbed5bdbc	-0.41746318
30	0xbf07dcc4	-0.53071237
31	0xbdb5174b	-0.088423334
32	0x3e362610	0.17787957
33	0xbec4d21c	-0.3844155
34	0x3ecc3b74	0.3988911
35	0xbe805d8c	-0.2507137
36	0xbf0d1f6b	-0.55126065
37	0xbe045d36	-0.12926182
38	0xbe2418c7	-0.16025077
39	0xbd24122c	-0.040056393
40	0xbd550e20	-0.052015424
41	0xbf1af8ff	-0.6053619
42	0xbdb492c1	-0.088170536
43	0x3d5df6cb	0.05419044
44	0xbf40b3f5	-0.7527459
45	0xbd916d51	-0.071009286
46	0x3ee4616d	0.4460558
47	0x3ebeebc7	0.3728926
48	0xbd617625	-0.055044312
49	0xbf220ab5	-0.6329759
50	0x3e1df502	0.15425494
51	0x3e948e9e	0.29015058
52	0xbd1a5f26	-0.037688397
53	0x3dcaca25	0.09901837
54	0xbe9ed97e	-0.31025308
55	0xbf079c36	-0.52972734
56	0xbee1e0a0	-0.44116688
57	0xc0088233	-2.1329467
58	0xbd7e6ea3	-0.06211723
59	0x3e036727	0.12832318
60	0xbf070421	-0.52740675
61	0xbe559eaa	-0.20861307
62	0xbf5162a7	-0.81791157
63	0x3eb7d560	0.3590498
64	0xbf2b47f0	-0.6690664
65	0x3d9d0209	0.07666404
66	0x3e1a9196	0.15094599
67	0x3e902d60	0.28159618
68	0xbec6c4db	-0.38822064
69	0xbe70c347	-0.23511992
70	0xbf4b96a1	-0.79526716
71	0xbf66f56d	-0.9021824
72	0xbea205d6	-0.31645077
73	0x3e240322	0.1601682
74	0xbeb87cc8	-0.360327
75	0xbf3a09fb	-0.7267148
76	0xbf6cfa6b	-0.9256961
77	0xbf671f05	-0.9028171
78	0xbf2a5476	-0.6653513
79	0xbf2d7de4	-0.6777022
80	0xbdcfdf62	-0.10150029
81	0x3dfa7a7b	0.122303925
82	0x3c38cfd8	0.011280023
83	0x3ee69d06	0.45041674
84	0x3f16ee66	0.5895752
85	0xbe5e9122	-0.21735051
86	0xbf197d85	-0.5995715
87	0xbfb50020	-1.4140663
88	0x3eb0d4e7	0.34537432
89	0xbf536d85	-0.8258899
90	0xbe18e16a	-0.14929739
91	0xbf6c3d5b	-0.9228112
92	0x3f127332	0.57207024
93	0xbd9efb01	-0.07762719
94	0x3f0477a4	0.5174506
95	0xbe97c873	-0.29645118
96	0xbf732180	-0.9497299
97	0x3e2c7681	0.1684208
98	0xbe36d8f1	-0.17856194
99	0xbf183cce	-0.5946778
100	0xbfea144a	-1.8287442
101	0xbeea2143	-0.45728502
102	0xbf219340	-0.6311531
103	0x3e9b8036	0.30371255
104	0xbeb923fa	-0.3616026
105	0xbf3af294	-0.73026395
106	0xbf750c75	-0.9572213
107	0x3eea36d8	0.45744967
108	0xbf17f442	-0.5935708
109	0xbe1284e6	-0.14308509
110	0xbf28e3ff	-0.65972894
111	0xbf067fbe	-0.5253867
112	0xbd257bb7	-0.040401187
113	0xbed29c95	-0.41135088
114	0x3d8d5b78	0.06902212
115	0xbec1965a	-0.37810022
116	0xbf29b2bd	-0.6628836
117	0xbf45c3d2	-0.77251923
118	0xbe0a5583	-0.13509183
119	0x3eef021a	0.4668129
120	0x3ed30012	0.4121099
121	0xbe1f19e2	-0.15537217
122	0xbfa84c3b	-1.3148264
123	0xbd35d720	-0.044394612
124	0xbcaf9078	-0.021431193
125	0xbf6148d1	-0.88001734
126	0xbebf855b	-0.3740643
127	0x3ea8dea0	0.3298235
128	0xbe08f9fd	-0.13376613
129	0x3e805bf4	0.25070155
130	0xbf85ecb6	-1.0462863
131	0xbc438094	-0.011932511
132	0x3ed6cbd5	0.41952386
133	0x3d8344e8	0.06409627
134	0xbe6e9da8	-0.23302329
135	0xbf430517	-0.7617964
136	0x3e0acbbb	0.1355428
137	0xbf9b973f	-1.2155532
138	0x3e06fb18	0.13181722
139	0xbe048ea8	-0.12945044
140	0xbda2db68	-0.07952005
141	0xbc32d0e2	-0.010914059
142	0xbe8f5d3e	-0.28000826
143	0xbf0d64ba	-0.5523182
144	0x3e3c87f2	0.18411234
145	0x3d968244	0.07349065
146	0xbe1c0744	-0.15237147
147	0xbe8a8dd9	-0.27061346
148	0xbe4fbc10	-0.20286584
149	0x3d231d58	0.039822906
150	0x3e76e0a4	0.24109131
151	0xbea50a28	-0.3223431
152	0x3cb41be2	0.021985952
153	0xbead9ce6	-0.33908767
154	0xbf7e409a	-0.99317324
155	0xbe911e9d	-0.2834367
156	0x3d5e0b97	0.05421027
157	0xbf3c5baf	-0.735774
158	0x3e85bd5c	0.26121032
159	0xbf762c4b	-0.96161336
160	0xbef8ca80	-0.48591995
161	0xbe80096e	-0.25007194
162	0xbe721380	-0.23640251
163	0x3e720f5c	0.23638672
164	0xbec9358a	-0.3929866
165	0x3e3dbb47	0.18528472
166	0xbe27aa65	-0.16373594
167	0xbf8ecac4	-1.1155629
168	0xbecbc788	-0.39800668
169	0xbf64fe91	-0.8945094
170	0xbf539f9a	-0.8266541
171	0xbf297d0a	-0.6620642
172	0xbe4cf97e	-0.20017049
173	0x3e6a7bdf	0.22898816
174	0xbec0adf4	-0.37632716
175	0x3e94f091	0.29089788
176	0xbed7c9b1	-0.42146066
177	0xbe8c9169	-0.2745469
178	0xbde49df2	-0.11162938
179	0xbd508b6f	-0.050914224
180	0x3eaa4af8	0.33260322
181	0x3e889b7c	0.26681125
182	0xbf2e241c	-0.6802385
183	0xbdbc356d	-0.09189878
184	0xbeaa92b9	-0.33315066
185	0x3dbe9fb2	0.09307803
186	0x3c14ef42	0.009090247
187	0x3e946fdc	0.28991592
188	0xbf3ce99d	-0.73793966
189	0x3ea56873	0.3230625
190	0xbf0692aa	-0.5256754
191	0x3ea11b23	0.31466016
192	0xbef6ea0d	-0.48225442
193	0x3d09f187	0.033677604
194	0xbe32d3b0	-0.17463565
195	0xbf300508	-0.6875768
196	0xbd3914ed	-0.045185972
197	0x3cf1532c	0.029458605
198	0x3cae7336	0.021295171
199	0xbe7433a0	-0.23847818
200	0xbe19f696	-0.15035471
201	0xbe2b5708	-0.16732419
202	0xbe9e98b5	-0.3097588
203	0xbeef6fd2	-0.46765
204	0xbf488bff	-0.7833862
205	0xbeb8a121	-0.36060432
206	0xbee26efe	-0.44225305
207	0xbf3910cc	-0.72291255
208	0xbdeef395	-0.11667553
209	0x3d99a249	0.075016566
210	0xbf8e97af	-1.114004
211	0x3e72da8d	0.23716183
212	0x3e824cf2	0.2544933
213	0xbf5e95a7	-0.869471
214	0xbf448091	-0.76758677
215	0xc00b4e92	-2.1766706
216	0x3ea39300	0.3194809
217	0xbdd94c5b	-0.10610267
218	0xbdcd8554	-0.10035196
219	0xbd793d3f	-0.060849424
220	0xbebb529c	-0.36586463
221	0xbf2e4bae	-0.6808423
222	0xbf92dd22	-1.1473734
223	0x3df0704d	0.1174017
224	0xbde673a0	-0.112525225
225	0xbe6112cf	-0.21979831
226	0xbe309417	-0.17243992
227	0xbeb45efc	-0.35228717
228	0xbf09913e	-0.53737247
229	0xbeb7f48b	-0.3592876
230	0xbb9e805a	-0.004837078
231	0xbf0e9ead	-0.5571087
232	0x3e8f0964	0.27936852
233	0xbe8ce300	-0.27516937
234	0xbeab734f	-0.3348641
235	0xbf0ea4a9	-0.5572
236	0xbf32291e	-0.6959399
237	0x3d2f62a6	0.042818688
238	0xbf27a191	-0.65480906
239	0xbdd3c6d3	-0.10340657
240	0xbd34cd3d	-0.044141043
241	0x3e382fed	0.17987032
242	0x3e2fe6d0	0.17177892
243	0xbe45a1cf	-0.19300006
244	0xbd8017aa	-0.062545136
245	0xbef2d73b	-0.47429833
246	0xbc979bf9	-0.01850699
247	0x3eb05434	0.34439242
248	0x38ebdba6	0.00011246586
249	0x3e4e0f15	0.20122941
250	0x3e74ad4b	0.23894231
251	0xbecfb2cf	-0.40566108
252	0xbd9080b8	-0.07055801
253	0xbf592be6	-0.8483261
254	0x3f132b32	0.57487786
255	0xbf32f0e2	-0.6989881

fc_numerical.2.weight f4 [256]
0	0x3ed90d2a	0.42392856
1	0x3f94ff45	1.1640402
2	0x3f87cd5d	1.0609547
3	0x3ee5b996	0.44868153
4	0x3f878e4c	1.05903
5	0x3fc2a9c9	1.5208064
6	0x3f190561	0.5977383
7	0x3fc0c5d1	1.5060369
8	0x3f79a518	0.9751754
9	0x3f38a66e	0.7212895
10	0x3ede7e44	0.43455708
11	0x40082f38	2.127882
12	0x3f8016f1	1.0007001
13	0x3f00fe2f	0.50387853
14	0x3fd5647f	1.6671294
15	0x3fe18325	1.7618147
16	0x3f772f93	0.9655697
17	0x3e87b76a	0.2650712
18	0x3f26c9b5	0.6515153
19	0x3ff84fa2	1.9399302
20	0x3f96e018	1.1787138
21	0x401da275	2.4630406
22	0x4023b7d5	2.5580952
23	0x3f5a0b0d	0.8517311
24	0x3f52e599	0.8238159
25	0x3f306dff	0.6891784
26	0x3f342ab9	0.7037769
27	0x3eaf46c9	0.34233692
28	0x4021950a	2.5247216
29	0x3f9162c3	1.1358265
30	0x3f93399b	1.1501955
31	0x3fc448b3	1.5334686
32	0x3fcda146	1.6064842
33	0x3f041f0a	0.5160986
34	0x3f18ea9f	0.59733003
35	0x3f78dda2	0.97213185
36	0x3fe3c210	1.7793598
37	0x3e7ecd78	0.24883068
38	0x3ee936f3	0.45549735
39	0x3f4b6866	0.79456174
40	0x3f01efe5	0.50756675
41	0x3f99657a	1.1984093
42	0x3f1baeb1	0.6081343
43	0x3f2fb0b4	0.68629
44	0x3f303ba4	0.68841004
45	0x3f8408b3	1.0315155
46	0x3f74d616	0.9563917
47	0x3f2e270e	0.6802834
48	0x3e8b3820	0.27191257
49	0x3fd850da	1.6899674
50	0x3f32c3d2	0.6983005
51	0x3f66bbf9	0.90130574
52	0x3fb43492	1.4078543
53	0x3f13618c	0.5757072
54	0x3ff4338e	1.9078233
55	0x3f80aa66	1.0052001
56	0x3f21059e	0.62899196
57	0x3fd6c30f	1.6778277
58	0x3f96e318	1.1788054
59	0x3f1ab266	0.60428464
60	0x3f49f1e0	0.78884697
61	0x3f350de8	0.70724344
62	0x3f9d78cb	1.2302488
63	0x3ee98a68	0.45613408
64	0x3f3a42da	0.7275826
65	0x3ee79768	0.452327
66	0x3e9c388b	0.3051189
67	0x3f96af2c	1.1772208
68	0x3f49bd9b	0.7880494
69	0x3f0cbacd	0.54972535
70	0x3fc060e1	1.5029565
71	0x3fb022f3	1.3760666
72	0x3f9ff339	1.2496101
73	0x3f003a55	0.5008901
74	0x3f0c5256	0.54813135
75	0x3f026eeb	0.509505
76	0x3f8d5788	1.1042337
77	0x3fa6b2e1	1.302334
78	0x3ffca012	1.973635
79	0x3f16bd26	0.5888237
80	0x3f87d3d2	1.0611517
81	0x3ea4ebe8	0.32211232
82	0x3e2ae538	0.16689003
83	0x3f0b08d9	0.54310375
84	0x3f4f9d45	0.8109935
85	0x3f92156d	1.1412789
86	0x3f955e63	1.166943
87	0x3f761280	0.9612198
88	0x3fb43ff0	1.4082012
89	0x3f807f41	1.0038835
90	0x3f769cfb	0.96333283
91	0x3f5aa158	0.8540244
92	0x3edce26f	0.43141505
93	0x3f656afd	0.89616376
94	0x3f07292b	0.5279719
95	0x3fab5591	1.3385488
96	0x3fda40bc	1.7051005
97	0x3fc02724	1.5011945
98	0x3f35c642	0.7100564
99	0x3f8adaa6	1.0847976
100	0x40022415	2.0334523
101	0x3e9221d8	0.28541446
102	0x3f981e23	1.1884197
103	0x3ed9f583	0.42570123
104	0x3f526f41	0.8220101
105	0x3fab56d6	1.3385875
106	0x3f2d16d4	0.6761296
107	0x3ec150a6	0.37756842
108	0x3f5ebe92	0.8700954
109	0x3ec055df	0.37565514
110	0x3fac9487	1.3482827
111	0x3f337efd	0.70115644
112	0x3f7d0d36	0.98848283
113	0x3f6ff9ca	0.9374052
114	0x3f1c83d9	0.61138684
115	0x3f99624f	1.1983126
116	0x3fd9482b	1.6975149
117	0x3f6c911e	0.9240893
118	0x3ee4ed4c	0.44712293
119	0x3f21bf87	0.6318287
120	0x3f1bf869	0.6092592
121	0x3f6f65a6	0.9351448
122	0x3f99c35f	1.2012748
123	0x3f204666	0.6260742
124	0x3f77b1e2	0.967558
125	0x3fcd3e59	1.6034652
126	0x3f96c47f	1.1778716
127	0x3ee3eafc	0.44515216
128	0x3f20d411	0.6282359
129	0x3faac97c	1.3342738
130	0x3fc94ec4	1.5727162
131	0x3eab7a1a	0.33491594
132	0x3f6e8502	0.93171704
133	0x3f9f4c1f	1.2445105
134	0x3f04b50b	0.5183875
135	0x3f6d42c4	0.9268
136	0x3f124d47	0.57149166
137	0x3fd6068f	1.6720752
138	0x3ee57674	0.44816935
139	0x3fe0d915	1.7566248
140	0x3edd4310	0.43215227
141	0x3f456e86	0.7712177
142	0x3f8fc8de	1.1233175
143	0x3fa11ca0	1.2586861
144	0x3ec38861	0.38189986
145	0x3f1edb6c	0.6205356
146	0x3f4c5fcf	0.7983369
147	0x3f8a9652	1.0827124
148	0x3f4e43af	0.80572027
149	0x3fe1019c	1.7578616
150	0x3f52cb20	0.82341194
151	0x3f75690c	0.95863414
152	0x3f29b4e5	0.6629165
153	0x3f4f878f	0.8106622
154	0x3fb23d8e	1.3925035
155	0x3f4d5820	0.80212593
156	0x3f5d12d6	0.86356866
157	0x3f55c8ac	0.83509326
158	0x3f826805	1.0187994
159	0x3f61e2c9	0.8823667
160	0x3fd352fa	1.6509697
161	0x3f213216	0.6296705
162	0x3f72335a	0.94609606
163	0x3f315436	0.6926912
164	0x3f1d920b	0.6155097
165	0x3f41f996	0.7577146
166	0x3f62a0b7	0.8852648
167	0x3ff1a7c6	1.8879325
168	0x3f892a62	1.0716059
169	0x3f425f4d	0.7592667
170	0x3f8378ab	1.02712
171	0x3f4ccb97	0.79998153
172	0x3f2e8557	0.6817221
173	0x3faaf669	1.3356448
174	0x3fca7148	1.5815821
175	0x3f17a004	0.5922854
176	0x3f5a824e	0.8535508
177	0x3f085c4b	0.5326583
178	0x3f121a24	0.5707114
179	0x3efe6a65	0.49690548
180	0x3e262639	0.16225518
181	0x3e82a568	0.2551682
182	0x3fec218f	1.8447741
183	0x3f359102	0.7092439
184	0x3f52e56c	0.8238132
185	0x3e3def75	0.18548377
186	0x3f10e649	0.5660139
187	0x3e8fab89	0.28060558
188	0x3f33c759	0.70226055
189	0x3fad2ae6	1.3528717
190	0x3fa37cb8	1.2772436
191	0x3ececa68	0.403888
192	0x3f0054ac	0.501292
193	0x3e884b61	0.2662001
194	0x3ee5d294	0.4488722
195	0x3eed1a06	0.46308917
196	0x3f47ea3c	0.7809179
197	0x3ff85ae1	1.9402734
198	0x3e9006e3	0.28130254
199	0x3f8bd9b9	1.0925819
200	0x3fc5870b	1.5431837
201	0x3f2a95f3	0.66635054
202	0x3f85fbb4	1.0467439
203	0x3f897aa9	1.0740558
204	0x3f6ecd32	0.93281853
205	0x3fc4f3c8	1.5386896
206	0x3fbc5611	1.4713765
207	0x3fe0e4dd	1.7569844
208	0x3f3d0769	0.7383943
209	0x3f029c75	0.51019984
210	0x3fd981de	1.6992757
211	0x3eacff08	0.33788323
212	0x3e9a18d2	0.3009706
213	0x3f81903e	1.0122144
214	0x3f16d9d4	0.5892613
215	0x3fda8f3c	1.7074962
216	0x3eb741d0	0.35792398
217	0x3fca05f5	1.5783068
218	0x3f66cdcf	0.9015779
219	0x3f5c27a4	0.85997987
220	0x3fa9728c	1.3238082
221	0x3f9301a9	1.1484882
222	0x3f75eba2	0.9606267
223	0x3ee20500	0.4414444
224	0x3f63712d	0.8884457
225	0x3f5239e9	0.82119614
226	0x3f1455af	0.5794324
227	0x3eb7a426	0.35867423
228	0x3f2e03b6	0.6797441
229	0x3fcfb334	1.6226563
230	0x3f4b893d	0.79506284
231	0x3f1e67b7	0.61877006
232	0x3f8338be	1.0251691
233	0x3e2667c2	0.16250518
234	0x3f0888ac	0.53333545
235	0x3f883e64	1.064404
236	0x3f1d072d	0.61339074
237	0x3f0be055	0.5463918
238	0x3f16e234	0.5893891
239	0x3fac02b5	1.3438326
240	0x3f38fc00	0.7225952
241	0x3f1a9fc3	0.6040003
242	0x3f66191a	0.8988205
243	0x3f16f091	0.58960825
244	0x3f946243	1.1592487
245	0x3f63f0b1	0.8903914
246	0x3f0821b9	0.53176457
247	0x3e80868a	0.25102645
248	0x3f36ef67	0.7145905
249	0x3ee443d5	0.44583002
250	0x3f5053a9	0.81377655
251	0x3fb4f7a1	1.413807
252	0x3f2f8d6a	0.68575156
253	0x3f7dee35	0.991916
254	0x3ed4c9da	0.4156025
255	0x3f688102	0.9082185

fc_numerical.2.bias f4 [256]
0	0xbeaf977c	-0.3429526
1	0x3f297263	0.66190165
2	0x3f6c2aa2	0.9225255
3	0x3ef3c229	0.4760907
4	0xbf066639	-0.5249973
5	0x3f589c00	0.8461304
6	0x3ec2bdf2	0.38035542
7	0x3f3b0e05	0.7306827
8	0x3f2c57cd	0.67321473
9	0x3ee506d3	0.4473177
10	0x3d7f3921	0.06231034
11	0x3ee75177	0.4517934
12	0x3d71a55e	0.058995597
13	0xbf472f21	-0.7780629
14	0x3e6b73a8	0.22993338
15	0x3f7c4da3	0.98555964
16	0x3ea86183	0.32886896
17	0xbdf4855c	-0.11939499
18	0x3f01f57a	0.5076519
19	0x3ee16678	0.4402349
20	0x3eb085a6	0.34476966
21	0xbf03f08b	-0.51538914
22	0x3f4f942f	0.81085485
23	0xbf236d8c	-0.6383903
24	0xbe93dfdf	-0.28881738
25	0x3ed24b0f	0.4107289
26	0x3e3285cc	0.17433852
27	0xbeaae32f	-0.33376452
28	0x3f06c689	0.5264669
29	0x3dda90dc	0.10672161
30	0x3f642889	0.8912435
31	0x3ec21270	0.37904692
32	0x3f4cf611	0.8006297
33	0x3e79a62c	0.24379796
34	0xbecc9bc3	-0.39962587
35	0x3ed8289f	0.4221849
36	0x3f63f1af	0.89040655
37	0xbc9292b9	-0.017892228
38	0x3eaf648a	0.34256393
39	0x3f0f909c	0.5608003
40	0xbf33ff6a	-0.70311606
41	0x3f403614	0.75082517
42	0xbe80eb40	-0.25179482
43	0x3f3e3b7a	0.74309504
44	0x3d42fdce	0.04760533
45	0x3c35dd53	0.011100131
46	0x3f154b13	0.5831768
47	0xbf1f1b33	-0.6215088
48	0xbe459f43	-0.19299035
49	0x3e751e72	0.23937395
50	0xbda1e2bb	-0.079045735
51	0xbed49b53	-0.41524753
52	0x3f347759	0.7049461
53	0xbe05fbdc	-0.13084358
54	0x3f338cd2	0.7013675
55	0x3f4e10b9	0.80494267
56	0xbdc83204	-0.09775165
57	0x3f33984f	0.7015428
58	0x3f142898	0.5787444
59	0x3f2a89a9	0.666163
60	0x3db42c08	0.08797461
61	0x3f058480	0.52155304
62	0xbf5072aa	-0.81424963
63	0xbeb5aed1	-0.35484937
64	0x3e8eaf86	0.2786829
65	0xbef40945	-0.47663322
66	0xbea26519	-0.31717756
67	0x3f212583	0.62947863
68	0xbe5f9a9a	-0.2183632
69	0x3e4bf996	0.19919428
70	0x3f0a4df1	0.5402518
71	0x3efd9ec4	0.4953519
72	0x3ee133b0	0.43984747
73	0x3eae430e	0.34035534
74	0x3e2fa3fc	0.17152399
75	0x3ef5d388	0.48012948
76	0x3e311130	0.17291713
77	0x3ec57293	0.38563976
78	0x3f4fca9d	0.8116854
79	0x3eaff4b1	0.34366372
80	0x3f5cda29	0.86270386
81	0xbf1b0fcd	-0.60570985
82	0xbe89587c	-0.2682532
83	0xbf2f32a1	-0.6843663
84	0xbf0abdac	-0.54195666
85	0xbe980c75	-0.29697004
86	0x3f15d9e0	0.58535576
87	0x3d974933	0.073870085
88	0x3f28a6d6	0.6587957
89	0xbdbf4f9e	-0.09341358
90	0x3f2f30c4	0.68433785
91	0x3ebaa60f	0.36454818
92	0xbd3fdc7f	-0.04684114
93	0x3f61ed3e	0.8825263
94	0xbda204cc	-0.07911071
95	0xbe7e0ee4	-0.24810368
96	0x3f27ef24	0.65599275
97	0x3f6e5b77	0.93108314
98	0x3d7e978a	0.062156238
99	0xbd9150e4	-0.07095507
100	0x3ebbfe62	0.36717516
101	0x3e15f65f	0.14644764
102	0x3f47cef2	0.7805015
103	0xbefe15fa	-0.49626142
104	0x3ee3d047	0.4449484
105	0x3f3162f5	0.6929162
106	0x3e151c95	0.14561684
107	0xbf3e8933	-0.744281
108	0x3f60049b	0.8750703
109	0x3eb24d96	0.34824818
110	0x3f43c59c	0.764734
111	0xbeb4aa66	-0.35286254
112	0xbeb2a129	-0.3488858
113	0x3f1a3b65	0.6024688
114	0x3f314630	0.6924772
115	0x3f4626f2	0.77403176
116	0x3f73f652	0.9529773
117	0x3f0dfe13	0.5546581
118	0xbddfbe40	-0.10924959
119	0xbec62288	-0.3869822
120	0xbf214622	-0.6299764
121	0xbe5789e9	-0.21048702
122	0x3ee96af5	0.45589414
123	0x3dbe2ec9	0.09286267
124	0xbd17a0f5	-0.037018735
125	0x3f7602ba	0.9609791
126	0x3dc0b3cc	0.094092935
127	0xbee9321f	-0.45546052
128	0x3ea3593b	0.31904015
129	0x3e3c1a0e	0.18369314
130	0x3f10f2d6	0.5662054
131	0x3db5f6d9	0.08884973
132	0x3f1f15e5	0.62142783
133	0x3e782deb	0.24236266
134	0x3e8c927b	0.27455506
135	0x3f396372	0.72417367
136	0xbe99159d	-0.29899302
137	0x3f076bfe	0.5289916
138	0xbf1de17a	-0.61672175
139	0x3f295564	0.6614592
140	0xbe7075df	-0.23482464
141	0x3d8cc142	0.068727985
142	0x3f0833cf	0.53204054
143	0x3f11545b	0.5676934
144	0xbe42468e	-0.18972227
145	0x3ec398ff	0.38202664
146	0x3ec5b8cb	0.38617548
147	0xbf08dec9	-0.53464943
148	0xbf4ae905	-0.7926181
149	0x3f3fdd24	0.7494681
150	0x3ea08c3d	0.31356993
151	0x3c6108be	0.013734994
152	0x3e8155b9	0.25260714
153	0x3f126ea8	0.572001
154	0x3f2adea7	0.6674599
155	0xbf289c19	-0.65863186
156	0x3f266b73	0.65007704
157	0x3e99aea4	0.30016053
158	0x3f47db92	0.7806941
159	0xbea8accf	-0.32944342
160	0x3f581024	0.8439963
161	0x3f021a6f	0.50821584
162	0x3eb60374	0.3554951
163	0x3c9ecb19	0.019383954
164	0xbf64919f	-0.892847
165	0xbf251cae	-0.64496887
166	0x3f3c3ba5	0.7352851
167	0xbf32dcc4	-0.6986811
168	0x3f2a80fe	0.66603076
169	0xbe9001bb	-0.2812632
170	0x3ec28e01	0.37998965
171	0x3e2cfce4	0.16893345
172	0xbddafb96	-0.106925175
173	0x3f49a4eb	0.7876727
174	0xbecd9c4e	-0.40158314
175	0x3f031804	0.5120852
176	0xbeea866c	-0.4580568
177	0xbe4f686b	-0.20254676
178	0x3e060e87	0.13091479
179	0x3d97ea88	0.0741778
180	0xbea8170d	-0.32830086
181	0x3d3e6c9d	0.0464903
182	0x3f50c68f	0.81552976
183	0xbddac9a1	-0.10682989
184	0x3e12695b	0.14298002
185	0xbe68bd43	-0.22728448
186	0x3eb17d19	0.34665754
187	0xbf12ca3d	-0.5733984
188	0x3eab28c3	0.33429536
189	0x3f66ebc8	0.90203524
190	0x3e4d8dbd	0.200736
191	0xbf11b89f	-0.56922334
192	0x3e7f0a76	0.24906334
193	0xbe0c4e48	-0.13701737
194	0xbf043e0a	-0.51657164
195	0x3db24882	0.08705236
196	0x3f0f2a72	0.5592414
197	0x3f5d86b0	0.8653364
198	0xbea7bec6	-0.32762736
199	0x3ea94056	0.33056897
200	0x3f473a85	0.7782367
201	0xbe808b33	-0.251062
202	0x3f65e3e4	0.8980086
203	0xbf202ba0	-0.62566566
204	0x3f3ca680	0.7369156
205	0x3f14c726	0.58116376
206	0x3f254391	0.64556223
207	0x3f7cfcf9	0.98823506
208	0xbc9d9db4	-0.019240238
209	0xbefef1ff	-0.49794003
210	0xbf69a299	-0.9126373
211	0xbe878f91	-0.2647672
212	0xbec71e9a	-0.38890535
213	0xbe6014dc	-0.21882957
214	0x3db08cfb	0.0862064
215	0xbe8c5955	-0.27411905
216	0xbf03a8b0	-0.5142927
217	0x3ef17fd9	0.47167853
218	0x3f12f3f5	0.574035
219	0xbe8f5f4e	-0.280024
220	0xbd9a2ed5	-0.07528464
221	0x3f66f7fa	0.9022213
222	0xbeb950b6	-0.3619439
223	0x3e05cf69	0.13067402
224	0x3eebdd33	0.460672
225	0x3ec0d4b3	0.37662277
226	0xbe10fe1b	-0.14159434
227	0xbe6d1de7	-0.23155938
228	0x3ed1fb6e	0.41012138
229	0x3f385504	0.72004724
230	0x3f17a48f	0.5923547
231	0xbda51917	-0.08061426
232	0x3dfbd2f3	0.12296095
233	0x3c2f154e	0.010686232
234	0x3edf60d8	0.43628573
235	0xbf19518d	-0.5989006
236	0xbea30f71	-0.31847718
237	0x3e0af07f	0.13568304
238	0x3ca0cd0c	0.019629024
239	0x3f64b37d	0.8933638
240	0xbe01f949	-0.12692751
241	0xbf5341fb	-0.82522553
242	0x3f35d9e9	0.7103563
243	0x3f561d2e	0.83638275
244	0x3e118589	0.14211096
245	0x3f2fa1f6	0.6860651
246	0xbf1e5148	-0.61842775
247	0xbed1773e	-0.40911287
248	0x3dc932a6	0.098241135
249	0x3e6415cb	0.22273938
250	0xbf3a0c67	-0.72675174
251	0x3f6aeaf7	0.9176478
252	0xbabf8de4	-0.001461443
253	0x3e6e4102	0.23266986
254	0xbe33e3ae	-0.17567322
255	0xbdffef44	-0.12496808

fc_numerical.2.running_mean f4 [256]
0	0x40866f3a	4.2010775
1	0x407b0832	3.9223752
2	0x400474d9	2.0696318
3	0x3f8713b7	1.0552891
4	0x40175042	2.3642735
5	0x403e7d54	2.9763994
6	0x3faff5a7	1.3746842
7	0x40c077c2	6.014619
8	0x403d09f5	2.9537327
9	0x3fbcd46f	1.475233
10	0x3fac8014	1.3476586
11	0x3fa61cd9	1.2977554
12	0x402478ca	2.5698724
13	0x3fd307ad	1.6486717
14	0x406726cb	3.6117427
15	0x4043ace6	3.057428
16	0x404b664a	3.1781182
17	0x3fd7750f	1.6832598
18	0x4000ee93	2.0145614
19	0x40cfb816	6.4912214
20	0x403a3743	2.909623
21	0x4040b67d	3.0111382
22	0x4022402b	2.5351665
23	0x40477742	3.116654
24	0x3fe2488b	1.7678388
25	0x3fba54be	1.4557111
26	0x3f409436	0.7522615
27	0x3f953a80	1.1658478
28	0x40932c76	4.5991774
29	0x406f63a1	3.7404559
30	0x3fe84418	1.814578
31	0x4069a68c	3.6507902
32	0x4090a28d	4.5198426
33	0x3f95380d	1.165773
34	0x4013f705	2.3119519
35	0x401005b5	2.2503483
36	0x3fdcba86	1.7244422
37	0x3ff94df6	1.9476917
38	0x3f3fa3c0	0.7485924
39	0x3f9c6bfb	1.2220453
40	0x401174a3	2.272744
41	0x404d508c	3.2080412
42	0x403fde19	2.9979308
43	0x4019c47e	2.402618
44	0x4001d72d	2.0287583
45	0x40719a5c	3.7750463
46	0x401888c2	2.383347
47	0x40799a0e	3.9000278
48	0x3f8da561	1.1066095
49	0x4090b83a	4.5224886
50	0x4046055c	3.094077
51	0x40485be9	3.1306098
52	0x406c6432	3.6936154
53	0x400bedc2	2.1863866
54	0x408b876e	4.360282
55	0x3fda3762	1.7048151
56	0x3ff36886	1.9016273
57	0x3fa3b457	1.278941
58	0x406f4015	3.7382863
59	0x40233f91	2.5507548
60	0x3fe28735	1.7697512
61	0x402ceb84	2.7018747
62	0x40220831	2.53175
63	0x401f9c9e	2.4939342
64	0x40131f54	2.298787
65	0x3fc53287	1.5406045
66	0x3fdbdbb1	1.717642
67	0x406ce60e	3.7015414
68	0x3fb5aa0a	1.4192517
69	0x4015aed8	2.3387966
70	0x401f101f	2.485359
71	0x40621292	3.5323834
72	0x402de9ac	2.7173872
73	0x3f8ad497	1.0846127
74	0x3f16f13d	0.5896185
75	0x3f40628e	0.7515038
76	0x40017cc6	2.0232406
77	0x40265eb2	2.5995297
78	0x40412742	3.018021
79	0x401ecfa8	2.4814243
80	0x40705256	3.7550254
81	0x3fd1b4d7	1.6383313
82	0x3fa2736e	1.2691476
83	0x3fef61d6	1.8701732
84	0x40233528	2.5501194
85	0x4082560e	4.0730047
86	0x4073cd65	3.8094113
87	0x405a12f0	3.4074059
88	0x4044717b	3.0694263
89	0x4088e988	4.278507
90	0x4026d5f1	2.606808
91	0x402e97e4	2.7280207
92	0x40099ff9	2.150389
93	0x4007281a	2.1118226
94	0x40324025	2.785165
95	0x40930382	4.594178
96	0x40426628	3.0374851
97	0x40448cba	3.0710893
98	0x3fc2490a	1.517854
99	0x40443d97	3.0662591
100	0x40113316	2.268743
101	0x3f105969	0.5638643
102	0x4080cda1	4.025101
103	0x4010de20	2.2635574
104	0x3f8633e4	1.0484586
105	0x407817c8	3.8764515
106	0x4003d0d4	2.0596209
107	0x3fecbee9	1.8495761
108	0x3f8882e7	1.0664948
109	0x400d8342	2.2111363
110	0x407798cc	3.868701
111	0x400a86d9	2.1644804
112	0x400fd880	2.247589
113	0x3fa1b30d	1.2632767
114	0x401cd6ee	2.4506183
115	0x4042bd3c	3.0428
116	0x406b0399	3.6720946
117	0x3f81dc1f	1.0145301
118	0x3f9a59b5	1.2058626
119	0x402eadff	2.7293699
120	0x4026155b	2.5950534
121	0x4003987c	2.056182
122	0x4028a9f1	2.6353724
123	0x3fbf55fe	1.4948118
124	0x402adaf2	2.6696134
125	0x406bb160	3.682701
126	0x4008b56c	2.136073
127	0x400aec79	2.1706831
128	0x3fdad72c	1.7096915
129	0x409189ac	4.5480556
130	0x4058d52e	3.3880115
131	0x3f8ab81e	1.0837438
132	0x40468f88	3.1025105
133	0x4047a98a	3.1197228
134	0x3f1c9ca6	0.61176527
135	0x3fbc57d6	1.4714305
136	0x402df342	2.7179723
137	0x401dab3f	2.463577
138	0x3fa228f6	1.266875
139	0x4093fa92	4.624337
140	0x3fbfc00f	1.4980487
141	0x3fb66cd3	1.425196
142	0x40477cef	3.1170003
143	0x401bddf7	2.4354227
144	0x3ffb5a83	1.9636997
145	0x3f67f367	0.9060578
146	0x400a8a3a	2.1646867
147	0x400d927a	2.2120652
148	0x402de37f	2.7170103
149	0x4091f249	4.560826
150	0x40305634	2.7552614
151	0x405aa427	3.416269
152	0x4004b9e2	2.0738454
153	0x3ffe7e44	1.9882283
154	0x403ab1c1	2.9170992
155	0x40496826	3.1469817
156	0x4018bf48	2.386675
157	0x3fc70fef	1.5551738
158	0x4020d426	2.5129485
159	0x40024401	2.0354006
160	0x4096e8c2	4.715913
161	0x3fa46c05	1.2845465
162	0x3fd12d58	1.6341963
163	0x4012a1eb	2.2911327
164	0x3fcb21c2	1.5869677
165	0x400f65f0	2.2405968
166	0x40093661	2.143944
167	0x40574b85	3.3639843
168	0x40571f22	3.3612752
169	0x3f9078a7	1.128682
170	0x3fd5074c	1.6642852
171	0x40465d16	3.0994315
172	0x3f8abc3c	1.0838695
173	0x409c951f	4.8932033
174	0x40a2e16e	5.0900183
175	0x4069e6b5	3.6547062
176	0x405d0454	3.4533892
177	0x3f89112b	1.0708364
178	0x40316dbe	2.7723231
179	0x3fe3309d	1.7749211
180	0x3fe7e95a	1.8118088
181	0x3fb9eef2	1.4526045
182	0x40370367	2.8595827
183	0x3fe09668	1.75459
184	0x40464ed7	3.098562
185	0x3fb036b7	1.3766698
186	0x3f91e7af	1.1398829
187	0x3f879c29	1.0594531
188	0x3fc1289d	1.5090519
189	0x4011ce67	2.2782228
190	0x40042609	2.0648215
191	0x4018d3bf	2.387924
192	0x3f85de9c	1.045856
193	0x3fa0e088	1.2568521
194	0x3fa11ec9	1.258752
195	0x3fa857e9	1.3151828
196	0x3ff059cc	1.8777404
197	0x40b82474	5.75445
198	0x3fe424ba	1.7823708
199	0x4040c47e	3.011993
200	0x40373965	2.862878
201	0x402aff89	2.6718466
202	0x40320568	2.78158
203	0x4051804c	3.2734556
204	0x3f6685d2	0.90047944
205	0x406594a0	3.5871964
206	0x4048c7a7	3.1371858
207	0x40453fa0	3.0820084
208	0x40211873	2.5171173
209	0x4022fdd1	2.5467417
210	0x404e52b6	3.2237983
211	0x3ff0852e	1.8790643
212	0x400e05fd	2.2191155
213	0x4042220a	3.0333276
214	0x3fc281c8	1.5195856
215	0x40520398	3.2814693
216	0x4042b024	3.0420008
217	0x40d14bad	6.540488
218	0x403a4e4c	2.9110289
219	0x40478945	3.1177533
220	0x408481ff	4.1408687
221	0x3fdb621f	1.7139319
222	0x3febbb32	1.8416502
223	0x40192ec1	2.3934786
224	0x403120fa	2.7676377
225	0x3f922abd	1.1419293
226	0x40188a10	2.3834267
227	0x400e5116	2.223699
228	0x3fa51bc6	1.2899101
229	0x40a868ee	5.262809
230	0x400fb95e	2.245689
231	0x3fc66ab2	1.5501311
232	0x404c1958	3.1890469
233	0x3f38c8df	0.72181505
234	0x3f9acbf7	1.2093495
235	0x3ff13e35	1.8847109
236	0x3fc8b14f	1.567911
237	0x3ffdd66a	1.9831059
238	0x3f860224	1.0469403
239	0x405ecdd9	3.481314
240	0x3f83faf9	1.0310966
241	0x40747667	3.8197267
242	0x3fd2fbe7	1.6483124
243	0x40145de6	2.318231
244	0x4010b879	2.2612593
245	0x3f980dc2	1.1879199
246	0x3fd57ee2	1.6679347
247	0x400edcfc	2.2322378
248	0x40061aca	2.095385
249	0x3fcee6dc	1.6164203
250	0x4039ec3c	2.9050436
251	0x401873d1	2.3820689
252	0x3f83b186	1.0288551
253	0x4040cd99	3.0125487
254	0x3fbbd691	1.4674855
255	0x40285d48	2.6306934

fc_numerical.2.running_var f4 [256]
0	0x420968d5	34.352375
1	0x429ecdcc	79.40195
2	0x4203a278	32.90866
3	0x416bb98a	14.732798
4	0x41c9afb2	25.210789
5	0x4233e737	44.975796
6	0x4172fba9	15.18644
7	0x42836b34	65.70938
8	0x4258ff3b	54.24925
9	0x4215a10b	37.40727
10	0x40cc54ed	6.385367
11	0x41947a56	18.559734
12	0x41b97040	23.17981
13	0x4178c927	15.549109
14	0x4228feb2	42.248726
15	0x424253fd	48.58202
16	0x42012f07	32.295925
17	0x4143795e	12.217131
18	0x41a16e16	20.178753
19	0x4319b618	153.7113
20	0x42639d5e	56.90368
21	0x42165e23	37.59193
22	0x4202d421	32.707157
23	0x41e96d18	29.178268
24	0x41b0fe4e	22.124172
25	0x41d7e589	26.987078
26	0x41aa30c9	21.27382
27	0x41096734	8.587696
28	0x4284fa43	66.48879
29	0x422b48d8	42.821136
30	0x41b5f842	22.74622
31	0x423a4dd3	46.576
32	0x427baf14	62.920975
33	0x419a37ce	19.277248
34	0x41a6f44e	20.86929
35	0x426a1406	58.519554
36	0x4192d8c7	18.355848
37	0x4153c2c3	13.235049
38	0x41879183	16.94605
39	0x41b46d52	22.55338
40	0x4196f8c1	18.871462
41	0x429e771f	79.23266
42	0x422c08c8	43.008575
43	0x425fb131	55.92304
44	0x41c7f23a	24.993275
45	0x4234125f	45.01794
46	0x41ea35eb	29.276327
47	0x4200547a	32.082497
48	0x40f66bc7	7.7006564
49	0x4288c1a6	68.37822
50	0x41d970ef	27.180143
51	0x421807cb	38.00761
52	0x42394d9f	46.3258
53	0x417ef9df	15.936004
54	0x42983644	76.10599
55	0x4195e2c6	18.73573
56	0x4219e9ec	38.47844
57	0x4199afa6	19.210766
58	0x427771d2	61.861153
59	0x41cd397a	25.653065
60	0x41f6cc16	30.849651
61	0x41e238d8	28.277756
62	0x421d61a7	39.345364
63	0x418a9a04	17.325203
64	0x4238f63d	46.240467
65	0x4144fc02	12.311525
66	0x412ab35a	10.668787
67	0x42628b0a	56.63578
68	0x425ecad4	55.698074
69	0x41afb686	21.964123
70	0x41f07fe0	30.062439
71	0x42685bd6	58.089684
72	0x41db5bfc	27.419914
73	0x41307789	11.029183
74	0x419f2ba0	19.896301
75	0x418141ca	16.157124
76	0x41ce370f	25.776884
77	0x41d89607	27.073256
78	0x421dd8dc	39.461777
79	0x41bb8dc7	23.444227
80	0x42b78b5b	91.77218
81	0x415ad00f	13.675796
82	0x40f65aef	7.6986003
83	0x414f926b	12.973247
84	0x416a9fb2	14.663988
85	0x42816d63	64.713646
86	0x42b727b3	91.57754
87	0x422da7c5	43.413837
88	0x42767d1b	61.622173
89	0x42a5e102	82.93947
90	0x420fba11	35.931705
91	0x4220d817	40.211025
92	0x415f05c3	13.938907
93	0x41ca2913	25.270056
94	0x416193a6	14.098547
95	0x42874bdb	67.648155
96	0x4244824a	49.127235
97	0x420e3c2b	35.558758
98	0x41c17a6b	24.184774
99	0x4203986e	32.898857
100	0x41d33a4a	26.403461
101	0x40f891c4	7.7677937
102	0x42a8182e	84.047226
103	0x419aa9f0	19.332977
104	0x41f1ab1e	30.208553
105	0x42979beb	75.80453
106	0x41c768b1	24.926119
107	0x41621ab0	14.1315155
108	0x4162f23c	14.184139
109	0x41b737f5	22.902323
110	0x4286c65f	67.38744
111	0x41a98bf2	21.193333
112	0x41936489	18.42409
113	0x41ac71dc	21.555595
114	0x41ebc691	29.471956
115	0x4224a0af	41.156918
116	0x4265abd3	57.417797
117	0x41b099f7	22.075178
118	0x416c03c9	14.750924
119	0x426dcafc	59.448227
120	0x418a8538	17.315048
121	0x41afe352	21.985996
122	0x421fd8ab	39.96159
123	0x418aaa82	17.333256
124	0x41f3982b	30.4493
125	0x423a401e	46.562614
126	0x41cc437c	25.532951
127	0x41697475	14.590932
128	0x41a69596	20.82304
129	0x4275e938	61.477753
130	0x4231a772	44.41352
131	0x41c5f4a8	24.744461
132	0x4257ed53	53.981762
133	0x420ad166	34.70449
134	0x413d00a3	11.812655
135	0x41738cd8	15.221886
136	0x419f2529	19.893145
137	0x41cf2364	25.89228
138	0x414053c5	12.020452
139	0x42893dd9	68.6208
140	0x41270b76	10.440298
141	0x4143a9a5	12.228917
142	0x42348427	45.129055
143	0x4284183a	66.04732
144	0x41da5ad2	27.294346
145	0x41637b50	14.217606
146	0x423151df	44.329952
147	0x41cacabb	25.34899
148	0x41df0428	27.87703
149	0x427f374e	63.80401
150	0x4194db9a	18.607227
151	0x42020832	32.508003
152	0x417966ab	15.587565
153	0x422c5e04	43.091812
154	0x42483062	50.04725
155	0x41f5f675	30.74534
156	0x41a810e2	21.008244
157	0x41989964	19.074898
158	0x41ef419a	29.907032
159	0x41de8bce	27.818264
160	0x42ce133f	103.03759
161	0x41720e44	15.128483
162	0x4214c324	37.190567
163	0x4169832e	14.594526
164	0x4195e5a3	18.737127
165	0x41972323	18.892157
166	0x4215d3b0	37.456726
167	0x422bfeca	42.998817
168	0x422ad991	42.712467
169	0x4170e53e	15.055967
170	0x4191408d	18.156519
171	0x4284b2a6	66.34892
172	0x41611c2f	14.069381
173	0x4282d8bf	65.42333
174	0x428dce24	70.90262
175	0x42220fab	40.5153
176	0x42801bbb	64.05416
177	0x41cb26a0	25.39386
178	0x41d121e0	26.14154
179	0x41f89671	31.073458
180	0x41332937	11.197562
181	0x413c6321	11.774201
182	0x42099b00	34.401367
183	0x41aef9c2	21.871952
184	0x4229901b	42.390728
185	0x40f8e352	7.777749
186	0x418c323a	17.524525
187	0x40f5a306	7.6761503
188	0x41abec82	21.490482
189	0x4235141b	45.269634
190	0x41ac00e3	21.500433
191	0x4160bfea	14.046854
192	0x414612c0	12.379578
193	0x40fc1f4a	7.8788195
194	0x411b58e0	9.709198
195	0x416cb81e	14.7949505
196	0x41f30ee8	30.382278
197	0x42bf013c	95.50241
198	0x419123a1	18.142397
199	0x42126529	36.59879
200	0x4281a926	64.83037
201	0x420a4edf	34.577023
202	0x421553a5	37.331684
203	0x4222965f	40.646847
204	0x41d5561f	26.667051
205	0x4259d6bc	54.4597
206	0x423c659c	47.099228
207	0x425f4e6a	55.826576
208	0x4211cf0f	36.452206
209	0x41b587e6	22.691357
210	0x424b0d76	50.763145
211	0x4135eb12	11.36989
212	0x419365bd	18.424677
213	0x4229fa3a	42.49436
214	0x418a66f7	17.300276
215	0x4275b7dc	61.42955
216	0x41acb90c	21.590355
217	0x42e974eb	116.728355
218	0x426f2380	59.784668
219	0x423bbe9b	46.93614
220	0x4266cff7	57.70309
221	0x41f3c435	30.470804
222	0x41d58685	26.690683
223	0x41980dc8	19.00673
224	0x42007aae	32.119804
225	0x41c138bc	24.152702
226	0x4280508d	64.157326
227	0x41d283b5	26.31431
228	0x414f430b	12.953868
229	0x42d85513	108.16616
230	0x422971ae	42.361015
231	0x4179f1ca	15.621531
232	0x41bd3605	23.651377
233	0x417764dc	15.462124
234	0x41844337	16.53282
235	0x41875c9a	16.920216
236	0x41c6294c	24.770164
237	0x417f7adb	15.967494
238	0x41542129	13.258096
239	0x42452e8f	49.295467
240	0x411f32ce	9.9499035
241	0x42040a1e	33.00988
242	0x4205616c	33.34514
243	0x41c9cc03	25.224615
244	0x41b0d6fd	22.104975
245	0x418f94d8	17.947678
246	0x415fe0c5	13.992375
247	0x419483ed	18.564417
248	0x41c30ca9	24.381182
249	0x418e63a1	17.798647
250	0x41ddadae	27.709805
251	0x41f38055	30.437662
252	0x41a4366e	20.526577
253	0x42347c01	45.121098
254	0x40d0420e	6.5080633
255	0x426085c9	56.13065

fc_numerical.3.weight f4 [64, 256]
0	0xbe085a66	-0.13315734
1	0xbe0b77a5	-0.1361986
2	0xbe518e39	-0.2046441
3	0x3d3bbae2	0.045832522
4	0xbefa81bd	-0.48927107
5	0xbe211860	-0.15731955
6	0xbe26eb38	-0.16300666
7	0xbe68af17	-0.22723041
8	0x3ce4b2b4	0.027917244
9	0xbd432e51	-0.047651593
10	0xbdc62611	-0.09675229
11	0x3e948feb	0.2901605
12	0xbce9d39c	-0.028543286
13	0xbe9608df	-0.29303643
14	0x3e2ba7ee	0.16763279
15	0xbf0af5a5	-0.54281074
16	0xbddbb356	-0.10727565
17	0xbddd4209	-0.10803611
18	0xbe896dfa	-0.26841718
19	0x3dd8ebc7	0.10591846
20	0xbcd9e5ae	-0.026598778
21	0xbe73fbb9	-0.23826493
22	0x3d887df3	0.06664648
23	0x3ee1b761	0.4408522
24	0x3d437265	0.047716517
25	0xbe1b275d	-0.15151735
26	0x3d223bec	0.039607927
27	0xbdb05f51	-0.0861193
28	0xbd58597f	-0.052819725
29	0xbda59898	-0.080857456
30	0xbe0fc12c	-0.14038533
31	0x3e1b3a84	0.1515904
32	0xbe5cdbb4	-0.21568185
33	0x3ce72a96	0.028218549
34	0xbbfaf8bc	-0.007659046
35	0x3cf086fd	0.029361242
36	0x3e5c8db9	0.21538438
37	0xbd98d8d0	-0.07463229
38	0xbde7380c	-0.11289987
39	0x3d21eff0	0.039535463
40	0xbe3c1f92	-0.18371418
41	0x3dc4f7df	0.0961759
42	0x3d215c49	0.03939465
43	0x3d2cbc14	0.042171553
44	0xbde332b9	-0.11093659
45	0xbe003f2c	-0.12524098
46	0x3eb1ed0d	0.34751168
47	0x3dd541c0	0.104129314
48	0xbd73054e	-0.05933123
49	0x3e7f1e98	0.24914014
50	0x3db7ea01	0.089801796
51	0x3d64e797	0.055884924
52	0x3e578ab3	0.21049003
53	0x3d8b8793	0.06812968
54	0xbce76b3e	-0.02824938
55	0x3dd3a779	0.10334677
56	0x3d25f613	0.040517878
57	0xbef0b254	-0.47011054
58	0x3e4b6a40	0.1986475
59	0xbe3e9bba	-0.18614092
60	0x3c64856c	0.013947826
61	0x3cd040b9	0.025421487
62	0x3ccd566f	0.025065629
63	0xbdf19923	-0.11796787
64	0xbcfea5ff	-0.031085012
65	0xbdeb8707	-0.11500364
66	0x3d36c9bc	0.044625983
67	0x3e594182	0.21216395
68	0xbc043bca	-0.008070895
69	0xbd225215	-0.03962906
70	0x3e9012ab	0.28139243
71	0x3dbf06ce	0.0932747
72	0xbe0d4c60	-0.13798666
73	0xbdcba6b1	-0.09943903
74	0xbd190a49	-0.037363324
75	0xbbf03601	-0.0073306565
76	0x3e172245	0.14759167
77	0x3d8ae566	0.067820355
78	0x3eab5386	0.3346216
79	0xbe2a6c1f	-0.16642807
80	0x3e14bf27	0.14526044
81	0xbdf964f2	-0.12177457
82	0xbe7dae4b	-0.24773519
83	0xbebec51e	-0.37259763
84	0xbea78716	-0.3272025
85	0x3d347f73	0.044066858
86	0xbda280ef	-0.079347484
87	0xbe3e0d24	-0.185597
88	0xbe16e396	-0.14735255
89	0xbdabe366	-0.08392982
90	0x3d2438e0	0.040093303
91	0xbe92adee	-0.28648323
92	0x3d8b8e55	0.06814257
93	0xbe0146e1	-0.12624694
94	0x3bfc686a	0.007702877
95	0xbe2b509e	-0.16729972
96	0x3e7cad5e	0.2467551
97	0x3db78d25	0.08962468
98	0x3d8b0814	0.0678865
99	0x3d5e2c0d	0.05424123
100	0x3dbed2e2	0.093175665
101	0xbc1a6127	-0.009422577
102	0x3db59613	0.08866515
103	0xbdce6345	-0.10077528
104	0xbd21c155	-0.039491016
105	0x3dd46c4a	0.10372217
106	0xbe8e9229	-0.27845886
107	0xbe1a1666	-0.15047607
108	0x3dd15df5	0.10222999
109	0xbe0b21d7	-0.13587128
110	0x3e6c3019	0.23065223
111	0x3da21bc0	0.07915449
112	0xbe939c8c	-0.28830373
113	0xbcb4752c	-0.022028528
114	0xbd54009f	-0.051758405
115	0x3d4f22a3	0.05057014
116	0x3d884240	0.06653261
117	0xbdca6fc7	-0.09884601
118	0xbd084f1e	-0.033278577
119	0xbe2534f4	-0.16133481
120	0xbe59a891	-0.21255709
121	0xbc830827	-0.015995098
122	0xbdefd13b	-0.117098294
123	0x3d9301f7	0.07178109
124	0x3d32a826	0.04361739
125	0x3c4e2fbd	0.012584624
126	0xbec6a8f4	-0.38800776
127	0xbd8d83db	-0.06909915
128	0x3e06eb19	0.1317562
129	0xbbc1f167	-0.00591867
130	0xbe458bd1	-0.19291617
131	0xbc8709ea	-0.01648422
132	0x3d27f9fb	0.041009884
133	0x3e0f9aff	0.1402397
134	0x3dba4c48	0.09096581
135	0x3d51d3e5	0.05122747
136	0xbea0e4ff	-0.3142471
137	0x3e2f8d97	0.17143856
138	0xbcd576f8	-0.026057705
139	0x3e5fdd68	0.21861804
140	0xbe347eb5	-0.1762646
141	0x3e39e482	0.18153575
142	0x3c20a343	0.00980455
143	0x3d868f00	0.06570244
144	0x3e0cf5ab	0.1376559
145	0xbb635547	-0.003468828
146	0x3d8c38b8	0.06846756
147	0xbdffa98d	-0.12483511
148	0xbe989824	-0.29803574
149	0x3e7fd9b6	0.24985394
150	0x3e51ab0b	0.20475404
151	0xbd9537b4	-0.07286015
152	0xbd968b68	-0.073508084
153	0xbdccc4ce	-0.09998475
154	0xbd8f3bbb	-0.069938146
155	0xbebf4470	-0.373569
156	0xba2827e6	-0.0006414637
157	0x3d892106	0.06695752
158	0xbd48bdf3	-0.049009275
159	0xbcbf3abc	-0.023343436
160	0x3d6621cd	0.05618458
161	0xbd989031	-0.07449377
162	0xbd5b8548	-0.053593904
163	0x3de135c9	0.10996587
164	0xbd891375	-0.06693164
165	0xbe93f2c3	-0.2889615
166	0x3d83ae67	0.06429749
167	0xbeaa0151	-0.3320413
168	0xbdcbbf2b	-0.09948572
169	0xbe1bea06	-0.15225992
170	0xbdf587da	-0.11988802
171	0xba727035	-0.00092482875
172	0xbbe6be47	-0.007041726
173	0xbcbc1788	-0.02296044
174	0xbec08806	-0.37603778
175	0xbdd4dfcb	-0.103942476
176	0x3c2a09aa	0.010378281
177	0xbd39c8db	-0.045357566
178	0xbd9f4c55	-0.07778231
179	0xbbfc0f1b	-0.0076922304
180	0xbe11b405	-0.14228828
181	0xbd1d3387	-0.03837922
182	0xbde52650	-0.11188948
183	0x3dd62699	0.10456581
184	0x3e05572b	0.13021533
185	0x3d660a4a	0.056162156
186	0xbd2a378c	-0.04155688
187	0x3d902358	0.07037991
188	0xbdfd74e6	-0.12375812
189	0x3e90e04e	0.2829613
190	0xbe329588	-0.17439854
191	0xbde274ee	-0.11057459
192	0x3ab2eb85	0.0013650513
193	0x3ccb6dba	0.024832595
194	0xbe1ba233	-0.15198593
195	0x3cf9220f	0.030411748
196	0x3dc640c6	0.09680323
197	0xbe5fba28	-0.21848357
198	0xbb0843ce	-0.0020792368
199	0x3b713e25	0.0036810723
200	0x3b5e5ccb	0.003392982
201	0x3e011d08	0.12608731
202	0xbb957e4d	-0.0045621754
203	0xbdc69fb5	-0.096984304
204	0x3d678111	0.05651957
205	0x3d45be83	0.04827739
206	0x3dd71cc8	0.105035365
207	0xbdea9d54	-0.11455789
208	0x3db6ac92	0.08919634
209	0xbceb1b27	-0.02869947
210	0x3df17490	0.11789811
211	0xbdd68072	-0.10473718
212	0xbe8c8568	-0.2744553
213	0x3d9fa51a	0.077951625
214	0xbc71d3e5	-0.014759992
215	0xbe156073	-0.14587574
216	0xbe3dc8a1	-0.18533565
217	0xbbd1c46f	-0.0064015905
218	0x3d329e39	0.043607924
219	0xbd8788ad	-0.06617866
220	0x3db6d219	0.08926792
221	0xbe9f055b	-0.31058773
222	0xbded5754	-0.11588922
223	0xbe36b26b	-0.17841499
224	0x3d8fd2f2	0.070226565
225	0xbcd4effb	-0.025993338
226	0xbcd628bf	-0.026142476
227	0xbd9be0cd	-0.07611237
228	0x3e04acd1	0.12956549
229	0x3e2587a9	0.16165031
230	0xbcccabc5	-0.02498425
231	0xbe6fad4c	-0.23405951
232	0x3cb400a1	0.021972956
233	0xbd9bf2c4	-0.07614663
234	0x3e06f534	0.13179475
235	0xbf0a7656	-0.54086816
236	0x3d7c244d	0.061558057
237	0x3d6c1ce6	0.057644747
238	0xbde77bba	-0.11302896
239	0x3d231f28	0.039824635
240	0xbdbe04dd	-0.09278271
241	0xbdebceae	-0.115140304
242	0x3dafa747	0.085768275
243	0xbe036f7d	-0.12835498
244	0xbdf5d515	-0.12003533
245	0xbc1059ea	-0.0088105
246	0xbd91c840	-0.07118273
247	0x3c325531	0.010884569
248	0x3d7eec19	0.06223688
249	0xbd255116	-0.040360533
250	0x3ecfb16d	0.40565053
251	0xbd3256e1	-0.043539885
252	0x3e51eb30	0.20499873
253	0xbe5af9ce	-0.21384355
254	0xbe3376bc	-0.17525762
255	0x3d3277c1	0.043571237

fc_numerical.3.bias f4 [64]
0	0xbe2885a2	-0.16457227
1	0xbe86e099	-0.2634323
2	0xbe049a35	-0.1294945
3	0xbdc967a6	-0.098342225
4	0xbddc6e72	-0.10763253
5	0x3da6a443	0.08136799
6	0xbf266a01	-0.650055
7	0xbef66733	-0.4812561
8	0xbdde9acd	-0.1086937
9	0xbe3043d3	-0.17213373
10	0x3da41ee0	0.080137014
11	0xbc39f82f	-0.0113506755
12	0xbb785c1c	-0.0037896698
13	0xbd8e6473	-0.06952753
14	0xbdfd6bba	-0.12374063
15	0x3d69d011	0.057083193
16	0xbe8cd2b1	-0.27504495
17	0x3c4c6e45	0.012477462
18	0xbf450c18	-0.7697158
19	0xbcff643f	-0.03117573
20	0xbf0f46cc	-0.559674
21	0xbdbd14dd	-0.09232495
22	0x3c520de2	0.012820693
23	0xbe938bea	-0.28817683
24	0xbf653d4d	-0.8954666
25	0xbe068b9c	-0.13139194
26	0xbdd0a714	-0.101881176
27	0xbd287e57	-0.041136112
28	0xbe3db4e0	-0.1852603
29	0xbfa3bac0	-1.2791367
30	0xbdbd5b31	-0.09245909
31	0xbd89dc6d	-0.06731496
32	0xbea008ed	-0.3125681
33	0xbdb118f2	-0.08647336
34	0x3d973cfa	0.07384677
35	0x3e1e5ea7	0.15465795
36	0x3e8af475	0.2713963
37	0xbe08c11d	-0.13354917
38	0xbd47b6b6	-0.04875823
39	0x3de9f15d	0.114229895
40	0xbf118db0	-0.5685682
41	0xbe4a826b	-0.19776313
42	0x3d251391	0.040301863
43	0xbf329dba	-0.6977192
44	0xbe68c70d	-0.22732182
45	0x3e07a368	0.13245928
46	0xbf2cadee	-0.67452896
47	0x3c8a7575	0.016901711
48	0x3cb44083	0.022003418
49	0xbd73fb5a	-0.05956588
50	0x3e6a9a4e	0.22910425
51	0xbe0d0e07	-0.13774882
52	0xbe119392	-0.1421645
53	0xbd10eb0f	-0.03538042
54	0x3f486b7a	0.78288996
55	0x3d96d6b8	0.07365173
56	0xbc4cfe5c	-0.012511816
57	0xbe8ed021	-0.27893165
58	0x3ce737ad	0.02822479
59	0xbcf5c84d	-0.030002737
60	0xbec10360	-0.37697887
61	0xbe1e3654	-0.15450412
62	0x3dd8acdc	0.10579845
63	0xbf355e3a	-0.70846903

fc_numerical.5.weight f4 [64]
0	0x3e9b709a	0.30359346
1	0x3d33c61c	0.043890104
2	0x3dfde694	0.12397495
3	0x3ebb3cd8	0.36569858
4	0xb9566520	-0.00020446302
5	0xb91ec22a	-0.00015140386
6	0x3e987ad3	0.29781207
7	0x3eb17449	0.3465903
8	0x3bc0154a	0.005861913
9	0x388254f9	6.2147104e-05
10	0xb917433a	-0.00014425526
11	0x391206b4	0.00013926142
12	0xb9113400	-0.00013847649
13	0x3de9201c	0.113830775
14	0x3e205d2c	0.15660542
15	0x3a887fc8	0.0010414058
16	0x3eabc147	0.33545896
17	0x3e01366a	0.12618414
18	0x3eae8385	0.34084716
19	0x3e7ae3f5	0.24501021
20	0x3ee95e43	0.45579728
21	0x3901b686	0.00012370394
22	0x3c33a94f	0.010965659
23	0x3e522f0d	0.20525761
24	0x3eb96d25	0.36216083
25	0x3c031453	0.008000451
26	0x3c0ed351	0.008717374
27	0x39f9acd8	0.0004762176
28	0x3e0ec699	0.13942946
29	0x3e386633	0.18007736
30	0x3a073aaa	0.0005158583
31	0xb8e482e7	-0.0001089627
32	0x3a2728b8	0.0006376612
33	0x38305efa	4.2050124e-05
34	0xbb238c74	-0.0024955543
35	0xb90f4e47	-0.00013666703
36	0x3f09f414	0.5388806
37	0x3e2a994e	0.16660044
38	0xb92a8986	-0.00016263695
39	0x3c301c67	0.010748959
40	0x3ec1d44b	0.3785728
41	0x3ec0e878	0.3767736
42	0x38f86d7d	0.00011845955
43	0x3e88e7d7	0.2673938
44	0x38bf636d	9.126109e-05
45	0x38f8d1cf	0.000118646414
46	0x3dab6295	0.083684124
47	0x3b8719cd	0.0041229487
48	0x395157e7	0.0001996454
49	0x3ecebf0f	0.4038014
50	0xb93c56fd	-0.00017961483
51	0x3b2d23c1	0.0026419016
52	0x3e4af2d7	0.19819199
53	0x3c04cb2a	0.008105079
54	0x3e762f28	0.24041426
55	0x38827435	6.220528e-05
56	0x3d755305	0.059893627
57	0x3b188a43	0.002327577
58	0x3945d23d	0.00018865704
59	0xb8a3ff1b	-7.819963e-05
60	0x3e920669	0.28520516
61	0x3ed6c2b6	0.41945428
62	0xb95a363c	-0.00020810304
63	0x3f1b485f	0.60657305
