numerical_model_best_4.pth (torch, 245010 bytes, 13 tensors)

fc_numerical.0.weight f4 [256, 163]
0	0xbdb7ea54	-0.089802414
1	0xbded4693	-0.115857266
2	0xbf2aec49	-0.6676679
3	0x3ea9ff12	0.33202416
4	0xbf39e5ae	-0.7261609
5	0x3e46cb1d	0.19413419
6	0x3e0c50f6	0.13702759
7	0xbec7dd47	-0.3903601
8	0x3dc42be4	0.09578684
9	0xbdf7f0c6	-0.12106471
10	0x3e65fd58	0.22459924
11	0xbea9ad02	-0.33139807
12	0xbded90d6	-0.11599891
13	0xbec192ba	-0.37807256
14	0x3d0eab98	0.034831613
15	0xbdd783a4	-0.10523155
16	0x3dd30c5d	0.103050925
17	0xbe960d46	-0.29307002
18	0x3e330946	0.17484006
19	0xbe247387	-0.16059695
20	0xbe48f04c	-0.19622916
21	0xbd2e1b34	-0.04250641
22	0xbe3ac405	-0.18238838
23	0xbd7e7063	-0.0621189
24	0x3e81f072	0.25378758
25	0x3e26fb14	0.16306716
26	0x3e219b1c	0.15781826
27	0x3ed589fc	0.41706836
28	0xbd9691f4	-0.07352057
29	0x3e76bc8b	0.24095361
30	0x3e462822	0.19351247
31	0x3da43c72	0.080193415
32	0xbc0e0459	-0.008668029
33	0x3e07fe84	0.13280684
34	0xbc2b4f36	-0.010455897
35	0xbd3d8f2d	-0.04627912
36	0xbe8851c6	-0.26624888
37	0x3e02dff5	0.12780745
38	0xbd5cd9a2	-0.05391849
39	0xbe20816b	-0.15674369
40	0xbe1580b0	-0.14599872
41	0xbe984dc0	-0.2974682
42	0x3ddc5cd8	0.10759896
43	0x3d6f7000	0.05845642
44	0x3e15d42f	0.14631723
45	0x3dc5534b	0.096350275
46	0xbd14dcd8	-0.036343426
47	0x3d914763	0.07093694
48	0xbd0bd380	-0.03413725
49	0xbd67b8d8	-0.056572765
50	0xbe734b29	-0.2375914
51	0x3d285a17	0.04110154
52	0xbe296401	-0.16542055
53	0xbaf775f3	-0.0018879756
54	0xbe3a579a	-0.1819748
55	0xbd5bbf33	-0.05364914
56	0x3e6e97c5	0.23300083
57	0x3d925cde	0.07146619
58	0x3db0de6b	0.08636173
59	0x3ceff84f	0.029293207
60	0x3e1e5362	0.15461496
61	0x3da43707	0.08018308
62	0xbe075f10	-0.13219857
63	0xbe0aa5a6	-0.13539752
64	0xbd631af8	-0.05544564
65	0x3d3c64c8	0.04599455
66	0xbe3e8ad7	-0.1860765
67	0xbebb943c	-0.3663653
68	0xbf13b5b1	-0.57699114
69	0xbeba01f3	-0.36329612
70	0xbec8759e	-0.39152235
71	0xbe57f9ba	-0.21091357
72	0xbe2b269d	-0.16713949
73	0x3f772ae8	0.96549845
74	0x3e5dc8d1	0.21658637
75	0x3e1c7814	0.15280181
76	0x3cb50f44	0.022102006
77	0x3d30935d	0.043109287
78	0x3ec01921	0.37519172
79	0x3e2ac17e	0.16675374
80	0x3ce916da	0.02845328
81	0xbd807ce3	-0.0627382
82	0xbdc6b175	-0.09701816
83	0xbdf99195	-0.12185971
84	0xbe126bef	-0.14298986
85	0xbe5da12b	-0.21643512
86	0xbe1c171b	-0.15243189
87	0xbe9c34f4	-0.3050915
88	0xbee98a37	-0.45613262
89	0xbe5be6f1	-0.21474816
90	0xbe689dff	-0.2271652
91	0xbe19bc63	-0.1501327
92	0xbe4cb89b	-0.19992296
93	0xbf1dd3f9	-0.6165157
94	0xbd6a90b4	-0.057266906
95	0xbe687d65	-0.22704084
96	0x3ce498b9	0.027904855
97	0x3eaeb4a9	0.34122208
98	0xbf43fd7f	-0.7655868
99	0x3e8216e9	0.25408104
100	0x3ea31833	0.318544
101	0xbdef6937	-0.1168999
102	0x3e6c1b02	0.23057178
103	0x3ed91d57	0.42405197
104	0x3f1bfbc9	0.6093107
105	0x3f17b661	0.59262663
106	0x3d34d02e	0.044143848
107	0xba0360b2	-0.0005011662
108	0x3f210cf8	0.62910414
109	0x3ef0049e	0.46878523
110	0x3ecfd2fd	0.4059066
111	0x3d231868	0.039818197
112	0xbd2e1009	-0.04249576
113	0x39fb8907	0.00047976544
114	0x3eabf2db	0.33583722
115	0x3e10415c	0.14087433
116	0xbe760589	-0.24025549
117	0xbd176556	-0.036961876
118	0x3e293d16	0.16527209
119	0x3ea99e9e	0.33128828
120	0x3e7563bd	0.23963828
121	0xbdefcbca	-0.117087916
122	0xbcc21f53	-0.023696577
123	0x3f117272	0.56815255
124	0x3ea43bac	0.32076776
125	0x3e667163	0.22504191
126	0xbdfec817	-0.12440508
127	0xbc9df223	-0.019280499
128	0xbe0e773c	-0.13912672
129	0x3d58372a	0.052786984
130	0xbd50e005	-0.05099489
131	0x3c5b37d7	0.0133800125
132	0x3dede15f	0.11615252
133	0xbd5d5ae7	-0.05404177
134	0x3d8c3555	0.0684611
135	0xbd70b5fd	-0.058767308
136	0xbe620ab0	-0.2207439
137	0xbd8c6661	-0.06855465
138	0xbe7d485e	-0.24734637
139	0x3d0b3650	0.033987343
140	0xbca39a04	-0.019970901
141	0x3d66fd1d	0.05639373
142	0x3d457f5c	0.048217162
143	0x3b699c98	0.0035646316
144	0x3dae0225	0.08496503
145	0xbcd6a594	-0.026202
146	0xbdefd951	-0.11711372
147	0xbe6ee0bd	-0.23327918
148	0xbe505ac0	-0.20347118
149	0xbe56c17b	-0.20972244
150	0xbe9026b6	-0.28154534
151	0xbd8581a1	-0.065188654
152	0xbd5657ad	-0.052329708
153	0x3d027926	0.031853817
154	0x3e129766	0.14315566
155	0x3df2f7fa	0.11863704
156	0x3ddd57a3	0.10807731
157	0x3d91a5ee	0.07111727
158	0x3d5b503d	0.053543318
159	0x3d18e188	0.03732446
160	0xbe1ab6ce	-0.15108797
161	0xbd5b2fa8	-0.053512245
162	0xbe3f7e27	-0.18700467
163	0xbfa1ef81	-1.2651216
164	0x3e454e3e	0.19268128
165	0xbf127e94	-0.5722439
166	0x400a66a0	2.1625137
167	0xbf9bf879	-1.2185203
168	0x3e3cb8e9	0.18429913
169	0x3fef81e6	1.8711517
170	0xbfe767f2	-1.8078597
171	0x3f71a884	0.9439776
172	0xbf1d22a4	-0.6138098
173	0x3fabe3d4	1.3428903
174	0xc00446c7	-2.06682
175	0x3d942c95	0.07235066
176	0x3eb7ffa7	0.35937235
177	0x3f1f857b	0.6231305
178	0x3f078d14	0.52949643
179	0x3e161e72	0.14660051
180	0x3f32e23b	0.6987645
181	0x3f2caff7	0.67456
182	0x3cd63bd3	0.026151573
183	0xbd93c7a5	-0.072158135
184	0xbee17961	-0.44037917
185	0x3f531d18	0.8246627
186	0xbe81b732	-0.2533508
187	0xbd3bea92	-0.045878
188	0x3e50732a	0.20356432
189	0xbf20b283	-0.6277239
190	0xbe09ad9b	-0.13445131
191	0xbdbb3a09	-0.09141929
192	0x3de2d91a	0.11076565
193	0x3e89ff9d	0.2695283
194	0x3ef26a9b	0.4734696
195	0xbf15bcc9	-0.5849119
196	0xbe06bb7b	-0.13157456
197	0xbf517198	-0.81813955
198	0xbd54df57	-0.051970806
199	0xbe34fc20	-0.17674303
200	0x3f5f4f8d	0.8723076
201	0x3e947eda	0.2900303
202	0x3f8bc2aa	1.0918782
203	0x3f0ff8fe	0.56239307
204	0x3f21760b	0.63070744
205	0xbe5e8531	-0.21730496
206	0x3ef9e324	0.48806107
207	0x3e2f3c5f	0.17112873
208	0x3ead7062	0.33874804
209	0xb8b8387a	-8.784323e-05
210	0x3f1952a1	0.59891707
211	0x3d4384eb	0.047734182
212	0x3e3b782b	0.18307559
213	0xbcbc97dd	-0.023021633
214	0x3efd51dd	0.4947652
215	0x3d8fd907	0.070238166
216	0x3e4aa4d7	0.19789444
217	0xbd60d2ff	-0.05488872
218	0xbeb3665a	-0.35039026
219	0xbeea08b5	-0.45709768
220	0xbda1b23b	-0.07895323
221	0xbd83c97b	-0.06434914
222	0xbebd5cd4	-0.36984885
223	0xbe2fdc5e	-0.17173907
224	0xbf32d808	-0.6986089
225	0xbf8033f7	-1.0015858
226	0xbf6e4b9c	-0.9308412
227	0xbf75be27	-0.95993274
228	0xbf0b035d	-0.54302007
229	0xbdf5d078	-0.12002653
230	0x3c04be7e	0.0081020575
231	0xbdb88325	-0.09009389
232	0x3ecc41d2	0.39893967
233	0x3ed396a7	0.41325876
234	0x3e893b62	0.26803118
235	0xbe0b92b0	-0.13630176
236	0xbdbef627	-0.093242936
237	0x3ddc1e81	0.10748006
238	0x3e943940	0.28949928
239	0x3f8f378e	1.1188829
240	0xbeb96b15	-0.3621451
241	0xbf549eba	-0.830547
242	0xbe934a16	-0.2876746
243	0xbe8a1424	-0.2696849
244	0x3f427b3d	0.75969297
245	0x3cd8b1c3	0.02645195
246	0xbef9093f	-0.48639867
247	0x3e5a2a69	0.2130524
248	0x3ec8412f	0.3911223
249	0x3ee0d98b	0.43915972
250	0x3e8aa694	0.27080214
251	0x3ed9b06e	0.42517418
252	0x3f1fd9b2	0.6244155
253	0x3f2ba84d	0.6705368
254	0x3e1924b0	0.14955401
255	0x3e7ac3f5	0.24488814

fc_numerical.0.bias f4 [256]
0	0xbef513ab	-0.47866568
1	0xc02d6e95	-2.7098744
2	0xbf7ca650	-0.9869127
3	0xbf3af81e	-0.73034847
4	0xbf809d25	-1.0047957
5	0xbf52032c	-0.8203609
6	0xbe82a702	-0.25518042
7	0xbf96b344	-1.1773458
8	0xbfb33728	-1.4001207
9	0xbfac0ea8	-1.3441973
10	0xbf02a04d	-0.5102585
11	0xbe9e82e2	-0.3095923
12	0xbfdd6e83	-1.729935
13	0xbee65530	-0.44986868
14	0xbf01e28c	-0.5073631
15	0xbf17dfdd	-0.59325963
16	0xbe5c2876	-0.2149981
17	0xbf17b67c	-0.59262824
18	0xc0237e71	-2.5545924
19	0x3c36f219	0.011166119
20	0xbf62a50a	-0.8853308
21	0xc0781f4c	-3.8769102
22	0xc06de2bd	-3.716964
23	0xbf379b47	-0.7172131
24	0xbf5c0cb8	-0.8595691
25	0xbf75795a	-0.9588829
26	0xc05243db	-3.2853916
27	0xbfd6ded8	-1.6786757
28	0x3f2e8509	0.68171746
29	0xbf9a44f0	-1.2052288
30	0xbf705d4e	-0.9389237
31	0xbe0e40a1	-0.13891841
32	0xbffeb07a	-1.9897606
33	0xbe5272a2	-0.20551541
34	0xbdeb95d7	-0.11503189
35	0xbf4c0b91	-0.7970515
36	0xbddeafb2	-0.10873355
37	0xbf3f156c	-0.7464206
38	0xbe5699ed	-0.20957156
39	0x3eb42f80	0.3519249
40	0xbf12c5f5	-0.5733331
41	0xc020f26e	-2.5147967
42	0xbe602558	-0.21889246
43	0x3d01fdfc	0.03173636
44	0xbf2d4e6c	-0.6769779
45	0x3dd361aa	0.10321362
46	0xbef66270	-0.48121977
47	0xbff39c2c	-1.9032035
48	0xbdbb0362	-0.091315046
49	0xc01237d6	-2.284658
50	0xbe8d5baa	-0.27608997
51	0xbe935c81	-0.28781512
52	0xbec714af	-0.38882968
53	0xbfcb594e	-1.5886629
54	0xc017f847	-2.3745286
55	0xbff74339	-1.931739
56	0xbf43face	-0.7655457
57	0xbef69faf	-0.48168704
58	0xbf9e345f	-1.2359732
59	0xbfefa36a	-1.8721745
60	0xbeab1da6	-0.33421057
61	0xbf27e69d	-0.6558626
62	0xbd96d6c8	-0.07365185
63	0xbf3d4914	-0.73939633
64	0xbec6e266	-0.38844603
65	0xbfd0b4ae	-1.6305139
66	0xbf351ee5	-0.70750266
67	0xc00b5a52	-2.1773877
68	0x3be7815c	0.0070649814
69	0xbfc7dde2	-1.5614588
70	0xbfed42fd	-1.8536068
71	0xc00f2001	-2.2363284
72	0xbf6e4dc8	-0.93087435
73	0xbec6f76f	-0.38860652
74	0xbf2d5be4	-0.6771834
75	0xc001bdf3	-2.0272186
76	0xbf31ae94	-0.6940701
77	0xbeef7bc2	-0.46774107
78	0xbecb2c21	-0.39682105
79	0xbfac0dae	-1.3441675
80	0xbf7dc760	-0.9913235
81	0x3e89dd5d	0.269267
82	0xbfe0c622	-1.7560465
83	0x3e979531	0.29606012
84	0xbe8b9a3c	-0.2726611
85	0xbe6e217b	-0.2325496
86	0xc00633ff	-2.0969236
87	0x3de7d04a	0.11319025
88	0xbfbb5aaf	-1.463705
89	0xbfee0229	-1.8594409
90	0xbf960521	-1.1720315
91	0xbfce3cc6	-1.6112297
92	0x3da1bd59	0.07897443
93	0xbe4e5616	-0.20150027
94	0xc00573e5	-2.0851986
95	0xbfe3758f	-1.7770251
96	0xbf9b49d6	-1.2131908
97	0xc009fc9c	-2.156043
98	0xbf63668b	-0.88828343
99	0xbf84c0c9	-1.0371333
100	0xbfb837f0	-1.4392071
101	0xbf0a75b7	-0.5408587
102	0xbfb0b387	-1.3804787
103	0xbf5ee537	-0.87068504
104	0xbf9e788e	-1.238054
105	0xbf89ee16	-1.0775783
106	0x3f2bce95	0.67112094
107	0xbf510152	-0.8164264
108	0xbec51906	-0.38495654
109	0xc067a900	-3.61969
110	0x3ed7759f	0.42081925
111	0xbf9e73c2	-1.2379076
112	0xbf8f7c50	-1.1209812
113	0xbf0ae335	-0.5425294
114	0xc03493d4	-2.8215227
115	0xbff0766c	-1.878614
116	0xbe95f646	-0.29289454
117	0xbef4f82b	-0.47845587
118	0xbf414673	-0.7549812
119	0xc01c44ec	-2.4417067
120	0xbeb09242	-0.34486586
121	0xbe89a6cf	-0.26885077
122	0xbf85da45	-1.0457236
123	0xbc90ed80	-0.017691374
124	0xbf61e17e	-0.882347
125	0xbc936190	-0.017990857
126	0xc00ef15e	-2.233482
127	0xbf06ed09	-0.52705437
128	0xbfcf5602	-1.6198123
129	0xbf123d4d	-0.5712479
130	0xbe27c1f5	-0.16382582
131	0xbfc9a19a	-1.5752442
132	0xbf001d3b	-0.500446
133	0xbe85bfd4	-0.26122916
134	0x3d62f5cb	0.055410188
135	0xbf2f3c56	-0.6845144
136	0xbfa8ce97	-1.3188046
137	0xbf1187da	-0.5684792
138	0xbf0feae6	-0.562178
139	0xbeec7f7d	-0.46191016
140	0xc07d0e6c	-3.9540052
141	0x3d8b3fdb	0.06799289
142	0xbf58aeaa	-0.84641516
143	0xbd86a26f	-0.065739505
144	0xbfae164a	-1.3600552
145	0xbfa7ca20	-1.3108559
146	0xbff6b301	-1.9273378
147	0xbfa8ab50	-1.317728
148	0xbf4abba5	-0.7919257
149	0xbf11b3a8	-0.5691476
150	0xbfa19172	-1.2622511
151	0x3e224194	0.15845329
152	0xbe1ffcae	-0.15623733
153	0xbe62ab9d	-0.22135778
154	0xc003c5fc	-2.058959
155	0xbfa91382	-1.3209078
156	0xc006f6a8	-2.1088047
157	0x3e991377	0.29897663
158	0xbf45c8c5	-0.77259475
159	0xbed47620	-0.41496372
160	0xbfddffc5	-1.734368
161	0x3e719e1f	0.23595475
162	0xbd1f14b7	-0.038838115
163	0xbf446980	-0.7672348
164	0xbefe7c72	-0.4970432
165	0xbf6ad834	-0.9173615
166	0xbfbef9c0	-1.4919968
167	0xbeaa2ddf	-0.33238122
168	0xbf0fcaea	-0.56169
169	0xbf05dd11	-0.52290446
170	0xc03716f0	-2.860775
171	0xbf51a241	-0.81888205
172	0xbeddac69	-0.432956
173	0xbf654006	-0.89550817
174	0xbf26ab51	-0.6510516
175	0xbf370df8	-0.7150569
176	0xbfd1f3e6	-1.6402557
177	0xbfe89599	-1.8170654
178	0xbd2dfbd0	-0.042476475
179	0x3e837147	0.2567236
180	0xbc814d36	-0.015783887
181	0xbf1bd89f	-0.6087741
182	0xc01bfd5d	-2.437339
183	0xbf8c9cae	-1.0985315
184	0xbfc1e09f	-1.5146674
185	0xc02d0458	-2.7033901
186	0xbec13253	-0.37733707
187	0x3ec3dc01	0.38253787
188	0xc029f19c	-2.6553717
189	0x3d4dc15c	0.05023323
190	0xbf17d368	-0.59306955
191	0xbf113666	-0.5672363
192	0xbf80b5f3	-1.0055526
193	0xbf9061a1	-1.1279794
194	0xbf1fe97d	-0.6246565
195	0xbf4b1fc6	-0.7934536
196	0x3ef2a75f	0.4739332
197	0xbdc4bedf	-0.09606718
198	0xbe336cd8	-0.1752199
199	0xbfc06480	-1.503067
200	0xbe9e1333	-0.30874023
201	0xbf8909f8	-1.0706167
202	0xbfda000f	-1.7031268
203	0xbed06979	-0.4070547
204	0xc0632713	-3.54926
205	0xbf3c79f7	-0.73623604
206	0x3e055875	0.13022025
207	0xbfae3ccf	-1.3612307
208	0xbff079e2	-1.8787196
209	0xbf8ad926	-1.0847518
210	0xbf33c776	-0.7022623
211	0xbf81ff7f	-1.0156096
212	0xc055c306	-3.3400283
213	0xbec5e496	-0.3865096
214	0xc0192e8d	-2.3934662
215	0xc01269bf	-2.2877042
216	0xbeabddf7	-0.33567783
217	0xbd183c53	-0.037166905
218	0xbfa2ba75	-1.2713152
219	0xbfafbdb6	-1.372977
220	0xbfbda5f6	-1.4816272
221	0xbf48e689	-0.7847677
222	0xbfa50b92	-1.2894156
223	0x3e87fdd7	0.26560852
224	0xbe14df1c	-0.14538234
225	0xbf9017cf	-1.1257266
226	0xc00fbc91	-2.2458842
227	0x3f03f554	0.51546216
228	0xbef8f1f5	-0.486221
229	0xc017bbe9	-2.3708441
230	0xbfbbd6ed	-1.4674965
231	0xc09c8eb0	-4.892418
232	0x3f4831f7	0.7820124
233	0xbf9adda0	-1.2098885
234	0xbf51bfee	-0.81933486
235	0xbf905d29	-1.127843
236	0xbe0512c0	-0.12995434
237	0xbf2a55b3	-0.66537017
238	0xc01a8c82	-2.414826
239	0xc0060dde	-2.0945964
240	0x3ec69686	0.38786715
241	0xbfe0a39a	-1.7549927
242	0xc00de39a	-2.2170167
243	0xbea556c5	-0.32292762
244	0xbff7a776	-1.934798
245	0x3ecc6527	0.39920923
246	0xbf9efbd5	-1.2420603
247	0x3e3de1a7	0.18543111
248	0xbf4687db	-0.7755105
249	0xbfb49665	-1.4108397
250	0xbf8670c0	-1.0503159
251	0xbfa59b28	-1.2937975
252	0xbdf0d953	-0.11760201
253	0xbf203341	-0.6257821
254	0xbfb813a0	-1.4380989
255	0x3d2d86fc	0.04236506

fc_numerical.2.weight f4 [256]
0	0x3f1b7173	0.60719985
1	0x40068747	2.1020067
2	0x3fe22102	1.7666323
3	0x3fb99b86	1.4500587
4	0x3f6eacfa	0.9323269
5	0x3fb7f854	1.4372659
6	0x3f8335aa	1.0250752
7	0x3fbbb1e7	1.4663666
8	0x40005175	2.0049717
9	0x3f7e9072	0.99439156
10	0x3ef38a0d	0.47566262
11	0x3fe5aaaa	1.7942708
12	0x3f13f8b1	0.5780135
13	0x3f088a3f	0.53335947
14	0x3ed34a3a	0.41267568
15	0x3f76058d	0.9610222
16	0x3f408cd6	0.752149
17	0x3e929c0b	0.28634676
18	0x3fa93698	1.3219786
19	0x3ef8af03	0.48571023
20	0x3f2f83b5	0.68560344
21	0x4016cd22	2.3562703
22	0x3fe6b278	1.8023214
23	0x3f8ccec7	1.1000603
24	0x3ecd8bdd	0.4014577
25	0x3fd282ab	1.6446127
26	0x3fe9f262	1.8277094
27	0x3fb319e2	1.3992274
28	0x3f8203a9	1.0157367
29	0x3fe1ffaf	1.7656153
30	0x3ee07249	0.43837193
31	0x3fde3199	1.7358886
32	0x3fbbf91b	1.4685396
33	0x3fa9a182	1.3252413
34	0x3f032caf	0.51240057
35	0x3ea23576	0.31681412
36	0x3f9ec993	1.2405266
37	0x3fe35a00	1.7761841
38	0x3eead6b9	0.45866945
39	0x3fa8ce9f	1.3188056
40	0x3f872f9f	1.0561408
41	0x3f6a9af3	0.91642684
42	0x3ee54b12	0.44783837
43	0x3ebf3301	0.373436
44	0x3f668d6c	0.9005954
45	0x3e82ba32	0.2553268
46	0x3fc6dfc9	1.5537044
47	0x3f7a40db	0.9775521
48	0x3f384d6f	0.71993154
49	0x3fc37cb4	1.5272431
50	0x3f1f33ae	0.6218823
51	0x3ea2a676	0.31767625
52	0x4005693e	2.0845485
53	0x3f87ed17	1.0619229
54	0x3f4a7fbe	0.7910117
55	0x3f7153df	0.942686
56	0x3f20ca05	0.6280826
57	0x3f6e71c7	0.9314236
58	0x3f48090a	0.7813879
59	0x3fc63be2	1.5487025
60	0x3ecaca98	0.39607692
61	0x3f0c725c	0.54862
62	0x3ef5ba2c	0.479936
63	0x3f3c8654	0.7364247
64	0x3e96ecf0	0.29477644
65	0x3fdfa958	1.7473555
66	0x3f407564	0.75179124
67	0x3fbd3fa6	1.4785049
68	0x3f17ab46	0.5924572
69	0x40006251	2.0060008
70	0x3fe82d3c	1.8138804
71	0x3fc3342c	1.5250297
72	0x3f8a0ce0	1.0785179
73	0x3f4be4e5	0.7964614
74	0x3f26efb1	0.6520949
75	0x3f858424	1.0430951
76	0x3ee3d5fe	0.444992
77	0x3e831662	0.25603014
78	0x3f5adcb2	0.85493004
79	0x3f9b3381	1.2125093
80	0x3fc8f341	1.5699235
81	0x3f41485a	0.75501025
82	0x3f239918	0.6390548
83	0x3ef04478	0.46927238
84	0x3ee6811a	0.45020372
85	0x3f3f5d83	0.7475206
86	0x3fcc179d	1.5944706
87	0x3f414afe	0.75505054
88	0x3f8f636b	1.1202215
89	0x3f8c6add	1.0970112
90	0x3fd7eeac	1.6869712
91	0x3f443279	0.76639515
92	0x3f6b9f65	0.9204009
93	0x3ebd35a4	0.36954987
94	0x3fbfa722	1.497288
95	0x3f965aea	1.1746495
96	0x3ef55e2b	0.47923407
97	0x3fd21735	1.6413332
98	0x3ff162b0	1.8858242
99	0x3f753f06	0.9579929
100	0x3fbb5471	1.4635144
101	0x3f1559a0	0.5833988
102	0x3f5522c2	0.8325616
103	0x3fa20e1c	1.2660556
104	0x3f9a6f93	1.20653
105	0x3fb25b99	1.3934203
106	0x3ed30b97	0.4121978
107	0x3ea678c9	0.32514027
108	0x3ef8ec4f	0.4861779
109	0x4014397b	2.3160083
110	0x3fbd46ad	1.4787194
111	0x3f1b53f8	0.60675
112	0x3f680566	0.9063324
113	0x3f05c755	0.5225728
114	0x3fea5fc5	1.8310477
115	0x3f95edfd	1.1713253
116	0x3ea08a68	0.31355596
117	0x3fdaf275	1.7105242
118	0x3ee713e7	0.45132372
119	0x3fb28a20	1.3948402
120	0x3ed8c5cd	0.4233841
121	0x3fac462e	1.3458917
122	0x3f686a4c	0.90787196
123	0x3eef7d08	0.4677508
124	0x3f47025c	0.77737975
125	0x3f80e594	1.0070062
126	0x3f229dfe	0.63522327
127	0x3ee6e12b	0.45093665
128	0x3fd2e3cf	1.6475772
129	0x3ef7977d	0.48357764
130	0x3f26961a	0.65072787
131	0x401e5ce3	2.4744194
132	0x3fa532ad	1.290609
133	0x3f405065	0.7512267
134	0x3f1114cb	0.5667235
135	0x3fc4db1a	1.5379364
136	0x3fea07bd	1.8283612
137	0x3efce1b8	0.4939096
138	0x3ee94fec	0.45568788
139	0x3fb160f7	1.3857716
140	0x3ff6a5fb	1.9269403
141	0x3f8042a7	1.0020341
142	0x3f55c159	0.8349815
143	0x3f205781	0.6263352
144	0x3fdff5f2	1.7496932
145	0x3f957119	1.167514
146	0x3f9cbb35	1.2244631
147	0x3f260442	0.64850247
148	0x3f9c1a6d	1.2195565
149	0x3f518b3b	0.81853074
150	0x3edab850	0.42718744
151	0x3fa2e607	1.2726449
152	0x3f0a46d0	0.540143
153	0x3f626fd1	0.8845187
154	0x401f4859	2.4887908
155	0x3f7b4a5c	0.9816034
156	0x3fc29b69	1.5203677
157	0x3dacd2db	0.08438655
158	0x3fb13484	1.3844151
159	0x3f7d4fad	0.989497
160	0x3f6d31ea	0.9265429
161	0x3f560a08	0.83609056
162	0x3f123362	0.57109654
163	0x3f2afc45	0.6679118
164	0x3f19b6ee	0.60044754
165	0x3fa93e2f	1.3222102
166	0x3fbdd2fb	1.4830011
167	0x3ef046bc	0.46928966
168	0x3f00be31	0.5029021
169	0x3f809a75	1.0047137
170	0x3f687ac4	0.90812325
171	0x3f64576a	0.89195883
172	0x3f458575	0.77156764
173	0x3eb2d06d	0.3492464
174	0x3f994647	1.1974572
175	0x3eb76ed0	0.3582673
176	0x3f9d9322	1.2310526
177	0x3f4d3ffa	0.80175745
178	0x3f96b03d	1.1772534
179	0x3f308165	0.6894744
180	0x3efca312	0.49343163
181	0x3f13f2fb	0.57792634
182	0x3fd33572	1.6500685
183	0x3f00e466	0.5034851
184	0x3f2ccd38	0.6750064
185	0x4027d8b5	2.6226017
186	0x3e47e498	0.19520795
187	0x3f6218af	0.88318914
188	0x3fc25630	1.5182552
189	0x3f21b23d	0.63162595
190	0x3eb07e61	0.3447142
191	0x3eafbc75	0.3432347
192	0x3f67d92a	0.9056574
193	0x3ed47a1c	0.41499412
194	0x3f36e756	0.7144674
195	0x3fc4c24c	1.5371795
196	0x3f29be10	0.6630564
197	0x3f914d73	1.1351761
198	0x3f36c47a	0.7139355
199	0x3fc0f9c6	1.5076225
200	0x3f22cf51	0.6359759
201	0x3ef1e11b	0.47242054
202	0x3f5ad4f7	0.8548121
203	0x3f3f1ffc	0.7465818
204	0x40110b00	2.2662964
205	0x3facf709	1.3512889
206	0x3f3365db	0.70077294
207	0x3fa11352	1.2584021
208	0x3ef61eb6	0.48070306
209	0x3f6ae233	0.917514
210	0x3f7c0b00	0.98454285
211	0x3f88dca4	1.0692334
212	0x4012e1cb	2.2950313
213	0x3f5f87b1	0.87316424
214	0x3fe43253	1.7827858
215	0x4000795c	2.0074072
216	0x3eba359a	0.3636902
217	0x3e25b5b0	0.1618259
218	0x4001845a	2.023703
219	0x3f845ab8	1.0340185
220	0x3f602513	0.8755657
221	0x3f9cf6b4	1.2262788
222	0x3faa465b	1.3302721
223	0x3ee1186a	0.4396394
224	0x3e348fd1	0.17632987
225	0x3f2bf8a1	0.6717625
226	0x3f82f1e1	1.0230066
227	0x3f43b880	0.764534
228	0x3ff1b00f	1.8881854
229	0x3f9b984e	1.2155855
230	0x3f5f6795	0.8726743
231	0x3f8268ef	1.0188273
232	0x3e0c8e8a	0.1372625
233	0x3f95173a	1.1647713
234	0x3f6c4ec8	0.9230771
235	0x3f55d374	0.83525777
236	0x3f05c452	0.52252686
237	0x3f9b1d49	1.2118312
238	0x3fad8e78	1.3559103
239	0x3fda8a01	1.7073365
240	0x3e5f982f	0.21835397
241	0x3f60ef0f	0.87864774
242	0x3fe98c94	1.8246026
243	0x3f56dd33	0.83931273
244	0x3fb3b22d	1.403875
245	0x3e9c9229	0.3058026
246	0x3f80f399	1.007434
247	0x3d43f10f	0.047837313
248	0x3f76606a	0.96240866
249	0x3f06978e	0.52575004
250	0x3edc95a6	0.43082923
251	0x3f4ce7bb	0.8004109
252	0x3ed99ef5	0.42504087
253	0x3f3fac4f	0.748723
254	0x3fba0638	1.4533148
255	0x3e626c1d	0.22111554

fc_numerical.2.bias f4 [256]
0	0xbcaea20b	-0.021317502
1	0x3cff841a	0.03119092
2	0x3f4eeb4b	0.8082778
3	0x3e961cc6	0.29318827
4	0xbee6b18b	-0.4505733
5	0xbe375329	-0.17902817
6	0xbf3f9aee	-0.7484578
7	0x3efa8e60	0.48936749
8	0x3f698a55	0.912267
9	0xbea57f43	-0.32323655
10	0xbcc3734c	-0.023858689
11	0x3e8a9738	0.27068496
12	0xbc5ac954	-0.013353664
13	0x3eda634a	0.42653877
14	0x3e2b49fa	0.16727439
15	0x3ed32482	0.4123879
16	0xbe1ea874	-0.15493947
17	0xbe83e6fa	-0.2576216
18	0xbf07a6ea	-0.52989066
19	0x3e9c47dc	0.30523574
20	0x3d841707	0.064497046
21	0xbeaee1c1	-0.34156612
22	0xbe6b0ba9	-0.22953667
23	0xbe659db0	-0.22423434
24	0x3d8a15dd	0.06742451
25	0x3f1f888b	0.62317723
26	0xbe838690	-0.256886
27	0x3e3a6730	0.18203425
28	0x3f08833f	0.53325266
29	0x3efe2ce5	0.49643627
30	0x3e3fa8ba	0.18716708
31	0x3f15c9ff	0.58511347
32	0x3e782708	0.24233639
33	0xbe4d8c45	-0.2007304
34	0x3ee95ac8	0.45577073
35	0x3e2059f0	0.15659308
36	0x3f501c4c	0.8129318
37	0x3e94496f	0.28962275
38	0x3e400b1e	0.18754241
39	0x3eef52f1	0.46742967
40	0xbe6e3ecc	-0.23266143
41	0x3ec72fd5	0.3890368
42	0xbdc4c54b	-0.09607943
43	0xbdbeb937	-0.09312671
44	0xbd35ea8b	-0.04441313
45	0x3deea9b1	0.1165346
46	0x3f10f23d	0.56619626
47	0xbea052d3	-0.3131319
48	0x3ec47ba8	0.38375592
49	0x3dac6974	0.08418551
50	0x3ef7c9e7	0.48396227
51	0x3e441662	0.19149163
52	0x3ec01200	0.37513733
53	0xbd80219e	-0.06256412
54	0x3eccdede	0.40013784
55	0xbe0a2588	-0.1349088
56	0xbe1dd2d9	-0.15412463
57	0x3ee5b998	0.4486816
58	0x3d793731	0.06084365
59	0x3f27bcc4	0.6552241
60	0x3ef2f33d	0.474512
61	0xbe1d8339	-0.15382089
62	0x3e489f5e	0.19592044
63	0x3e8cfccd	0.27536622
64	0xbdde75bf	-0.10862302
65	0x3ed99f10	0.42504168
66	0xbe1b1c63	-0.15147547
67	0x3f3272f8	0.6970668
68	0x3e1a9f31	0.15099789
69	0x3f0d2622	0.5513631
70	0x3f354a5d	0.70816594
71	0x3d442914	0.047890738
72	0x3f267650	0.6502428
73	0x3f01a6c7	0.5064511
74	0x3f07d110	0.5305338
75	0x3d707257	0.058702793
76	0xbcd1e65c	-0.02562254
77	0xbe9f1d3e	-0.31076998
78	0xbee6f702	-0.45110327
79	0x3e996c0d	0.2996525
80	0x3ea0dd61	0.314189
81	0x3dcaa4db	0.09894725
82	0xbdc1bf8b	-0.09460362
83	0x3eba963c	0.36442745
84	0x3ef11af7	0.47090885
85	0xbd8b4c88	-0.068017066
86	0xbd2e9f8a	-0.042632617
87	0x3f016950	0.5055132
88	0x3ea017ea	0.31268245
89	0x3ed3f4d1	0.41397718
90	0x3ef07e66	0.46971434
91	0x3e226736	0.15859684
92	0x3c3ba0a0	0.01145187
93	0x3dea1127	0.11429053
94	0x3db38bc9	0.08766896
95	0x3f226b5f	0.63445085
96	0x3e68b0ae	0.22723648
97	0x3ec14374	0.37746775
98	0x3eedc064	0.46435845
99	0xbd1fbd2c	-0.038998768
100	0xbedc0cc4	-0.4297849
101	0xbf1533c7	-0.5828213
102	0x3ed2de61	0.41185287
103	0x3f290bd6	0.66033685
104	0x3e73dbb1	0.23814274
105	0x3e2da131	0.16956021
106	0x3e4918d2	0.19638374
107	0x3cc11649	0.023570197
108	0xbe005aad	-0.1253459
109	0x3dda68a3	0.10664489
110	0x3eaeaea4	0.34117615
111	0x3d792982	0.0608306
112	0x3d1653d7	0.03670105
113	0xbd87725b	-0.066136084
114	0x3e9722b2	0.29518658
115	0x3ee69db0	0.4504218
116	0xbe25540d	-0.16145344
117	0x3ed5b84d	0.41742173
118	0x3e77744b	0.24165456
119	0x3f4efd04	0.8085482
120	0xbddeb179	-0.10873694
121	0xbe992171	-0.29908326
122	0xbe92abbe	-0.28646654
123	0xbe4744db	-0.1945986
124	0x3e4a18c8	0.19736016
125	0xbd9bb379	-0.07602591
126	0x3e2cd879	0.16879453
127	0x3bd83196	0.006597708
128	0x3ee26826	0.44220084
129	0xbe86a164	-0.26295006
130	0x3eaed05c	0.3414334
131	0x3f1b9b23	0.60783595
132	0x3d77075c	0.060309753
133	0x3edffae8	0.43746114
134	0xbee5a22f	-0.448503
135	0x3f0a9773	0.54137343
136	0x3f3b9611	0.7327586
137	0x3ee4b998	0.44672847
138	0xbe31b1c2	-0.17352965
139	0x3dc7b2fd	0.09750936
140	0x3e4e10a0	0.2012353
141	0xbf505e84	-0.8139422
142	0xbe7bd0c8	-0.24591362
143	0x3dc06471	0.09394158
144	0x3ebc201a	0.36743242
145	0xbe337969	-0.17526783
146	0x3e2ebcc5	0.17064197
147	0x3e8841c6	0.2661268
148	0x3e5561c8	0.20838082
149	0x3e20a215	0.1568683
150	0xbe2c63d2	-0.16834953
151	0x3eb80fb6	0.35949486
152	0x3e3346d3	0.17507486
153	0xbdf49df7	-0.11944192
154	0x3e4a3025	0.19744928
155	0x3efc3113	0.4925619
156	0xbd56868b	-0.052374404
157	0x3d2ca2a1	0.042147283
158	0x3e88f1ef	0.2674708
159	0x3efa62d3	0.48903522
160	0xbe7a085d	-0.24417253
161	0xbdd3aeed	-0.10336099
162	0x3f76823f	0.9629249
163	0x3ea7bf98	0.32763362
164	0x3e777a6c	0.24167794
165	0x3ecd1f61	0.40063003
166	0xbec94bda	-0.39315683
167	0xbd0c14ea	-0.034199633
168	0x3ed01d55	0.4064738
169	0xbe57fec5	-0.2109328
170	0xbd38eca4	-0.045147553
171	0xbdb93b84	-0.09044555
172	0xbe9b5f3d	-0.303461
173	0xbe2962fa	-0.16541663
174	0x3ebba0d4	0.3664614
175	0xbe788a53	-0.24271517
176	0x3d38d214	0.04512222
177	0x3b8e3a37	0.004340436
178	0x3e7e5af5	0.24839385
179	0x3c9ebecf	0.019378094
180	0xbda6e0f9	-0.08148379
181	0xbe287e1c	-0.16454357
182	0x3eb4f956	0.35346478
183	0xbe3b3ba3	-0.18284468
184	0x3f0737ba	0.52819407
185	0x3f6478e5	0.8924697
186	0x3cff949e	0.031198796
187	0x3f15478d	0.583123
188	0x3e48ea7d	0.196207
189	0x3c07ece7	0.008296228
190	0x3ed94f8f	0.4244351
191	0x3ed2a384	0.41140378
192	0xbec2a1d8	-0.38014102
193	0x3d1de8ea	0.038552202
194	0x3e3a0360	0.1816535
195	0xbf30b5dc	-0.69027495
196	0x3d4f595b	0.050622325
197	0x3f32dbdf	0.69866747
198	0xbe3f2ab7	-0.18668638
199	0xbe0b86a7	-0.13625585
200	0x3eaf14af	0.34195468
201	0x3c918b92	0.017766748
202	0xbe09ecea	-0.13469282
203	0x3eaac1d8	0.33351016
204	0x3c87af05	0.016562948
205	0x3eab7f2c	0.33495462
206	0x3eec80f7	0.46192142
207	0x3eb2c776	0.34917802
208	0x3f42c626	0.760836
209	0x3d1e7baf	0.038692173
210	0xbe7384d0	-0.23781133
211	0x3ee5f434	0.44912875
212	0x3f00e881	0.5035477
213	0x3ed4714b	0.41492686
214	0xbf07bb0c	-0.53019786
215	0x3f038a72	0.51383126
216	0xbd5963d1	-0.053073708
217	0x3df3e94c	0.11909732
218	0x3f22bb13	0.635667
219	0xbe934745	-0.28765312
220	0x3efe89d8	0.4971454
221	0x3f32967a	0.6976086
222	0x3dfa14cf	0.12211
223	0xbea9007f	-0.3300819
224	0x3e101a49	0.14072527
225	0x3e7606a0	0.24025965
226	0x3d1f3abe	0.03887438
227	0xbdd5e046	-0.104431674
228	0x3eec0d1c	0.46103752
229	0xbef482fe	-0.4775619
230	0x3dd5fb80	0.104483604
231	0x3e94510a	0.28968078
232	0xbd3debf4	-0.0463676
233	0xbec5c0ac	-0.3862356
234	0xbedb7d2a	-0.4286893
235	0x3e93a7ff	0.28839108
236	0xbe261d69	-0.16222157
237	0x3f4d35c6	0.80160177
238	0x3e9cd05d	0.3062772
239	0x3e898936	0.26862496
240	0x3c53d9f9	0.012930387
241	0x3daa0685	0.08302025
242	0x3f074d0f	0.5285196
243	0x3e9281bc	0.28614604
244	0xbd645721	-0.055747155
245	0x3e124f99	0.14288177
246	0xbeaad3c2	-0.33364683
247	0x3c258101	0.010101558
248	0xbf0215fb	-0.5081479
249	0xbd2fef12	-0.042952605
250	0x3e3be1cf	0.18347858
251	0x3ca5b461	0.020227613
252	0xbd88a90e	-0.066728696
253	0x3e421bd7	0.18955933
254	0xbc6755a9	-0.014119544
255	0x3e84d85b	0.25946316

fc_numerical.2.running_mean f4 [256]
0	0x3f862947	1.0481347
1	0x40235967	2.5523317
2	0x401c486e	2.4419208
3	0x405a0e13	3.407109
4	0x3ffcb1b4	1.9741731
5	0x403f82be	2.9923549
6	0x40869f26	4.2069273
7	0x401dde15	2.4666798
8	0x404a62de	3.1622844
9	0x402fe925	2.748605
10	0x3f385d25	0.7201713
11	0x4040cfdc	3.0126867
12	0x3e5b9720	0.21444368
13	0x3fa470d3	1.2846931
14	0x3f255d88	0.6459584
15	0x401f9373	2.4933746
16	0x3ffb9565	1.9654967
17	0x3faa75f4	1.3317246
18	0x40390846	2.89113
19	0x3feea010	1.8642597
20	0x400d849e	2.2112193
21	0x3fcf1075	1.6176897
22	0x3fbb4154	1.4629312
23	0x404e2c8c	3.221469
24	0x3f7299ea	0.94766104
25	0x4022c1e6	2.5430846
26	0x40601d1b	3.5017765
27	0x3ff51494	1.9146905
28	0x40226fb7	2.5380685
29	0x4035c0ff	2.8399045
30	0x3fac31a5	1.345265
31	0x4043c29d	3.0587533
32	0x3f9ee76f	1.2414378
33	0x407cc2e3	3.949395
34	0x3fe13434	1.7594056
35	0x3fcc89b2	1.5979521
36	0x40395a1f	2.8961256
37	0x408de896	4.434642
38	0x3f929f24	1.1454816
39	0x407d1f29	3.9550269
40	0x404f8588	3.242525
41	0x3fbee258	1.4912825
42	0x3f9e4157	1.236369
43	0x3fa4d82c	1.287847
44	0x3ffb7cc8	1.9647455
45	0x3fa185af	1.2618922
46	0x4012e148	2.295
47	0x3fb3cbf5	1.4046618
48	0x4023d1d3	2.5596817
49	0x3fc9b49b	1.5758241
50	0x40065113	2.0986984
51	0x3fc11acb	1.5086302
52	0x40be90f4	5.9551945
53	0x3fe36af7	1.7767018
54	0x3e453613	0.19258909
55	0x4005433d	2.082229
56	0x401121d0	2.2676888
57	0x405b7665	3.4291012
58	0x3fd9359c	1.6969485
59	0x400cc2f0	2.199398
60	0x3f96b56e	1.1774118
61	0x3ff0b754	1.8805947
62	0x4007e8bd	2.1235802
63	0x4036cb7b	2.8561695
64	0x3f912e9e	1.1342351
65	0x401c777c	2.4447927
66	0x3fbc81af	1.4727076
67	0x403a9e08	2.9158955
68	0x3f994f19	1.1977264
69	0x4017dcfb	2.3728626
70	0x40397ac5	2.8981183
71	0x3f7076a9	0.9393106
72	0x403f697a	2.9908128
73	0x3fb886f2	1.4416182
74	0x3fda357f	1.7047576
75	0x3f6ac9e3	0.91714305
76	0x3f704641	0.938572
77	0x3f35a4bb	0.70954484
78	0x40819a55	4.0500894
79	0x403860e2	2.8809133
80	0x40495de7	3.1463563
81	0x3fd1b552	1.638346
82	0x401111f5	2.266721
83	0x3f9ffcc2	1.249901
84	0x3fcb3791	1.5876333
85	0x400b99f9	2.1812727
86	0x401993c9	2.399645
87	0x403898b1	2.8843195
88	0x3fd37c0e	1.6522233
89	0x40421982	3.0328069
90	0x400c56da	2.192801
91	0x3f88995d	1.0671803
92	0x4010a443	2.2600257
93	0x3fb7d461	1.4361688
94	0x4004248a	2.0647302
95	0x4002d7f1	2.04443
96	0x3f99d58b	1.2018293
97	0x406ef168	3.7334843
98	0x4073f570	3.8118553
99	0x404b6939	3.1782973
100	0x3fabe895	1.3430353
101	0x3fee41eb	1.8613867
102	0x401da217	2.4630182
103	0x402da01b	2.712897
104	0x400b8717	2.1801202
105	0x3ff2d7c4	1.8972096
106	0x3fea3921	1.8298684
107	0x3f563fb5	0.8369096
108	0x40167ef8	2.3514996
109	0x3fb5b1a6	1.4194839
110	0x4080481b	4.008802
111	0x3f172051	0.59033686
112	0x4034bbbc	2.8239584
113	0x4040f35f	3.0148542
114	0x3fb94626	1.4474533
115	0x3ff04863	1.8772091
116	0x3f98f93e	1.1951063
117	0x4073b24c	3.8077574
118	0x3f5e8d68	0.8693452
119	0x4041414d	3.0196106
120	0x400203d4	2.0314837
121	0x40889178	4.2677574
122	0x400a6e11	2.162968
123	0x3fef917d	1.8716274
124	0x3fae3847	1.3610924
125	0x4068fac0	3.6403046
126	0x3f0eba29	0.5575281
127	0x3f64ad7d	0.8932722
128	0x40462921	3.0962603
129	0x402a7a9e	2.663734
130	0x3fcc266c	1.5949225
131	0x407cc60f	3.9495885
132	0x4031544e	2.7707705
133	0x400d711c	2.2100286
134	0x40217f02	2.523377
135	0x40265da9	2.5994666
136	0x403ad6df	2.9193647
137	0x3f8175ec	1.0114112
138	0x3f5db616	0.86605966
139	0x4088e54f	4.277992
140	0x4009ab93	2.151097
141	0x4038bded	2.8865921
142	0x4030ef5a	2.7646089
143	0x3ff7db4b	1.9363798
144	0x406ff278	3.749174
145	0x4047678d	3.1156952
146	0x3f8db5ec	1.1071143
147	0x3ecacca3	0.3960925
148	0x4084881b	4.1416144
149	0x400f4522	2.2385945
150	0x3f49b0a5	0.78785163
151	0x407b9b19	3.9313414
152	0x3fb99e29	1.4501392
153	0x40521aef	3.282894
154	0x40407f1a	3.0077577
155	0x40176b8b	2.365939
156	0x402a5edc	2.6620398
157	0x3fa1dd12	1.264559
158	0x4088c628	4.274189
159	0x40143058	2.3154507
160	0x3f2c6ba0	0.6735172
161	0x40219f7f	2.5253599
162	0x3fc9d0bd	1.5766827
163	0x3fd6ff0c	1.6796584
164	0x3fee596d	1.862104
165	0x40252186	2.580171
166	0x403ba386	2.9318557
167	0x3f66706f	0.9001531
168	0x3f956e37	1.167426
169	0x40208ea0	2.5087051
170	0x3f374dd2	0.7160312
171	0x3fee0f87	1.8598489
172	0x4034e4e4	2.8264704
173	0x3fa8e3e1	1.3194543
174	0x4087cd35	4.2437997
175	0x3f88c776	1.0685871
176	0x4017b9dc	2.370719
177	0x3f728244	0.9473002
178	0x4092c8db	4.5870185
179	0x3fd85b0b	1.6902784
180	0x3fee2790	1.8605824
181	0x3f8e9880	1.1140289
182	0x3fff9494	1.9967217
183	0x3ff66c88	1.9251871
184	0x3fd54d9f	1.6664313
185	0x4076ebdb	3.8581455
186	0x3f3024a2	0.688059
187	0x4088849d	4.266188
188	0x3d93ad74	0.07210818
189	0x3ffb7d68	1.9647646
190	0x3ff2e1a0	1.8975105
191	0x3f5cd8d1	0.86268336
192	0x4002b9d3	2.0425918
193	0x3f587cdc	0.8456552
194	0x40374ee3	2.8641899
195	0x4043012f	3.0469472
196	0x401fc2fc	2.496276
197	0x404a629a	3.1622682
198	0x401424aa	2.3147378
199	0x4004f504	2.0774546
200	0x3fcad8d0	1.5847416
201	0x3f8271a9	1.0190936
202	0x3ff8cd64	1.943768
203	0x3ff8b7e2	1.9431117
204	0x4007beaa	2.1210122
205	0x40461759	3.095175
206	0x40304071	2.7539332
207	0x404576c0	3.085373
208	0x3f9b6993	1.2141594
209	0x3ff914ff	1.9459532
210	0x400ef8ba	2.233931
211	0x4059c288	3.4024982
212	0x4046302c	3.0966902
213	0x402f6add	2.7408974
214	0x402e2c7a	2.7214646
215	0x40494a53	3.1451614
216	0x3f9c0a76	1.2190692
217	0x3fb4816b	1.4101995
218	0x40836d48	4.10709
219	0x3ffbe68b	1.9679731
220	0x3f84a9f8	1.036437
221	0x40201c28	2.5017185
222	0x401cfc1c	2.4528875
223	0x3fef51bc	1.8696818
224	0x3fb766e7	1.4328278
225	0x3f8b8d4e	1.0902498
226	0x3f941862	1.1569941
227	0x4038b08e	2.885776
228	0x405c899e	3.4458995
229	0x4046085b	3.09426
230	0x3fb34f8b	1.400865
231	0x3f11b38f	0.5691461
232	0x3fa6ee41	1.3041459
233	0x4073f3cf	3.811756
234	0x401a7c28	2.413828
235	0x3f9e88ad	1.238546
236	0x3febb4dd	1.841457
237	0x407b8362	3.929894
238	0xbd83efcb	-0.06442221
239	0x400d37d2	2.206532
240	0x3fbe67a8	1.4875383
241	0x3fd65b9c	1.6746707
242	0x3ff8e057	1.9443463
243	0x4083e9e1	4.1222997
244	0x405a4f16	3.411077
245	0x3fb31f99	1.3994018
246	0x402b4c6a	2.676539
247	0x3f8a3ae4	1.0799222
248	0x40548181	3.3204043
249	0x3f53966f	0.8265142
250	0x3fa5c1a3	1.2949718
251	0x3fc88adb	1.5667375
252	0x3ff27600	1.8942261
253	0x3ffe3bd6	1.986201
254	0x3fe05961	1.7527276
255	0x3fca0146	1.5781639

fc_numerical.2.running_var f4 [256]
0	0x417f72c2	15.965517
1	0x420f48d2	35.821114
2	0x4208d12b	34.204266
3	0x421876b8	38.115936
4	0x41b64b69	22.786821
5	0x421996e4	38.397354
6	0x41f8053d	31.002558
7	0x41f9e82a	31.238361
8	0x423868d5	46.102375
9	0x42132db7	36.794643
10	0x416a6350	14.649246
11	0x41eadc18	29.357468
12	0x4129387e	10.576292
13	0x4151eeb6	13.120779
14	0x411d6fb5	9.839772
15	0x41cb4c00	25.41211
16	0x4196b337	18.837507
17	0x41807821	16.058657
18	0x4251fcb9	52.4968
19	0x418d8d67	17.694044
20	0x41aa26bf	21.268919
21	0x41dee61f	27.862364
22	0x41c41923	24.512274
23	0x422ea5c5	43.661884
24	0x4151696c	13.088238
25	0x41d84367	27.032911
26	0x42698bea	58.386635
27	0x41b3a6f7	22.456526
28	0x4219894f	38.38409
29	0x4221195f	40.274776
30	0x4174f07b	15.308711
31	0x423195ad	44.396168
32	0x41b2e48a	22.361591
33	0x4253bb0d	52.932667
34	0x418f0a14	17.879921
35	0x41577c60	13.467865
36	0x42280dec	42.013596
37	0x426921ea	58.28312
38	0x413d498b	11.830455
39	0x423954dc	46.33287
40	0x422b1a4f	42.775692
41	0x41d67b16	26.8101
42	0x40d35d03	6.605104
43	0x414924e3	12.571506
44	0x41db4d80	27.412842
45	0x41621b92	14.131731
46	0x4217c6d2	37.94416
47	0x418f9838	17.949326
48	0x41ef6d8d	29.928492
49	0x41b8a8f5	23.082499
50	0x421130be	36.2976
51	0x4146303f	12.386779
52	0x42d38345	105.756386
53	0x41aba965	21.457712
54	0x410bf862	8.74814
55	0x41fc64f8	31.549301
56	0x41d4faa7	26.622389
57	0x41fe9555	31.822916
58	0x41ae5453	21.791174
59	0x41f4d6f5	30.60496
60	0x4153a265	13.227147
61	0x41ba48a5	23.285471
62	0x420d840d	35.378956
63	0x4235a043	45.406506
64	0x41826d84	16.303474
65	0x41cc7a3f	25.55969
66	0x4198c1ad	19.094568
67	0x421e48ca	39.571083
68	0x41f56a74	30.67698
69	0x41f90504	31.127449
70	0x4238a1c9	46.157993
71	0x41b9221f	23.14166
72	0x4268a3e7	58.16006
73	0x41cd6ac1	25.677126
74	0x41b700a0	22.875305
75	0x417e02c5	15.875676
76	0x411d965e	9.849211
77	0x418931df	17.149351
78	0x41da13ef	27.259733
79	0x42611a0b	56.275433
80	0x420c7d67	35.122463
81	0x416090fd	14.035398
82	0x41e43981	28.528078
83	0x411c56b0	9.771164
84	0x41effb1f	29.997618
85	0x41a2007a	20.250233
86	0x422a267a	42.537575
87	0x41e512fb	28.634268
88	0x419f2554	19.893227
89	0x4212f83e	36.742424
90	0x420bbf6b	34.93693
91	0x4186da7d	16.856684
92	0x4194d8e0	18.605896
93	0x41aae20f	21.36038
94	0x421d36a4	39.30336
95	0x41d63501	26.77588
96	0x418174df	16.182066
97	0x42531ea0	52.779907
98	0x4237f8bc	45.992905
99	0x423b8c50	46.887024
100	0x418bd200	17.47754
101	0x4167b270	14.481064
102	0x41da2d17	27.272017
103	0x41fe4105	31.781748
104	0x41ca78da	25.30901
105	0x41b67f43	22.81214
106	0x415781be	13.469175
107	0x41198505	9.594975
108	0x41a3c9b2	20.473484
109	0x4224242d	41.035328
110	0x4243937e	48.894035
111	0x413453c8	11.270454
112	0x42050cd4	33.262527
113	0x421ce48e	39.223198
114	0x4206a06a	33.656654
115	0x41ec1c97	29.51396
116	0x411ec48b	9.922984
117	0x42355f05	45.342793
118	0x41496798	12.587791
119	0x4211070c	36.25688
120	0x414efe19	12.937036
121	0x42498229	50.37711
122	0x41d2183c	26.261833
123	0x4187fe4b	16.999166
124	0x41b380e2	22.437931
125	0x4226b849	41.679966
126	0x412b8aad	10.721356
127	0x41ab6a5f	21.426939
128	0x425ae1bb	54.72044
129	0x41a5edc3	20.741095
130	0x419020b3	18.015966
131	0x428d61e7	70.691216
132	0x42013622	32.302864
133	0x41d90d96	27.131634
134	0x41c71244	24.883919
135	0x420e9a2f	35.65057
136	0x42244f49	41.077427
137	0x41815f5d	16.171564
138	0x40ff56cd	7.979346
139	0x4254401a	53.0626
140	0x422480b7	41.125698
141	0x41ba75b9	23.307482
142	0x421ff7eb	39.992107
143	0x41ada80b	21.707052
144	0x4261f61d	56.490345
145	0x422ea935	43.66524
146	0x4182560d	16.292017
147	0x419ab035	19.336039
148	0x4241ae5c	48.420273
149	0x41ce60cb	25.797262
150	0x41589589	13.536508
151	0x41f18099	30.187792
152	0x4148a671	12.540635
153	0x4200c6ce	32.194145
154	0x424d66bd	51.35033
155	0x41e53b6b	28.654013
156	0x41e32b11	28.396029
157	0x410e835b	8.907069
158	0x42617459	56.36362
159	0x41ff5e93	31.921179
160	0x413a8aa4	11.658848
161	0x41bbc638	23.471786
162	0x417fcc50	15.987381
163	0x4186b8ce	16.840237
164	0x41885a11	17.043978
165	0x41e4a7f4	28.582008
166	0x4235ba7c	45.432114
167	0x41577cc1	13.4679575
168	0x41a235ce	20.276272
169	0x41d3b8c7	26.465223
170	0x419456dc	18.542412
171	0x41d426a4	26.518867
172	0x41ff24da	31.892994
173	0x418af0c3	17.36756
174	0x425323cf	52.78497
175	0x4130882c	11.033245
176	0x4227df49	41.968052
177	0x418b9cb5	17.451517
178	0x4227fbe1	41.995975
179	0x41716e7b	15.089473
180	0x4153a8ba	13.228693
181	0x417d49b4	15.830494
182	0x4206a988	33.665558
183	0x41e5c771	28.722383
184	0x41b9097a	23.129627
185	0x428f4430	71.63318
186	0x411fa8e5	9.978734
187	0x42831ac6	65.55229
188	0x4138b292	11.543596
189	0x4184b834	16.589943
190	0x419fec52	19.99039
191	0x4130c356	11.047689
192	0x41be8aa7	23.817701
193	0x4152c858	13.173912
194	0x42024c01	32.574223
195	0x4228a769	42.163486
196	0x41a99197	21.196089
197	0x41d7ece7	26.990675
198	0x41b86994	23.051552
199	0x41f1f2e6	30.243603
200	0x41e0fba8	28.122879
201	0x41b17b05	22.185068
202	0x41b928e4	23.144966
203	0x42534ce3	52.825085
204	0x4206b9df	33.681515
205	0x425de62e	55.474785
206	0x41b5d21c	22.727592
207	0x4248dc1d	50.214954
208	0x41a0462f	20.03427
209	0x41c1c70e	24.222195
210	0x41ab7e8e	21.436794
211	0x421fd083	39.953625
212	0x425ef5d2	55.74006
213	0x4210c366	36.19082
214	0x42285c09	42.089878
215	0x4259d627	54.459133
216	0x410348fa	8.205317
217	0x418aed58	17.36589
218	0x428a37a9	69.10871
219	0x41f27665	30.30781
220	0x41601a53	14.006427
221	0x41e2fbd4	28.372963
222	0x41eaf8d8	29.371506
223	0x411fa39e	9.977446
224	0x41a6e05e	20.859554
225	0x4204306e	33.047295
226	0x41cc2ee4	25.522896
227	0x4164361d	14.263211
228	0x4233133e	44.76879
229	0x4218f790	38.24176
230	0x41deaa8e	27.833279
231	0x41c2665d	24.299982
232	0x410d3142	8.824526
233	0x423c3e61	47.060917
234	0x41d6a7fa	26.83202
235	0x41862e76	16.772686
236	0x41825e7c	16.296135
237	0x425a98bb	54.64915
238	0x410fa229	8.97709
239	0x41fbebf4	31.490211
240	0x4119fbb2	9.623949
241	0x42121e21	36.529423
242	0x420931fa	34.298805
243	0x42600f3a	56.01487
244	0x423222c5	44.533955
245	0x4154d0bd	13.3009615
246	0x420abaf1	34.68256
247	0x412ca993	10.7914
248	0x4233bdd7	44.93539
249	0x4166efb7	14.433524
250	0x41812d4d	16.14712
251	0x41eec41f	29.845762
252	0x4187b4aa	16.963215
253	0x41c56285	24.673105
254	0x41aaede4	21.366158
255	0x41842b80	16.52124

fc_numerical.3.weight f4 [64, 256]
0	0xbeb5f70b	-0.3554004
1	0x3f0cb0ab	0.54957074
2	0x3e6d73d3	0.23188715
3	0xbe233c18	-0.15940893
4	0x3eb283df	0.34866235
5	0xbdb7eb3a	-0.08980413
6	0x3e24174a	0.16024509
7	0x3d6651eb	0.056230467
8	0xbd2df793	-0.042472433
9	0x3e45c1eb	0.19312255
10	0xbeb67ea6	-0.356435
11	0x3dafcb20	0.08583665
12	0xbec18801	-0.37799075
13	0x3e4afee6	0.19823799
14	0xbd8d0f2c	-0.068876594
15	0xbd59a5e0	-0.053136706
16	0xbddf3590	-0.10898888
17	0x3dbd0358	0.092291534
18	0xbf547de7	-0.8300461
19	0xbd41a99f	-0.047280904
20	0xbf421374	-0.75810933
21	0x3fa9fc32	1.3280089
22	0xbd457c5c	-0.0482143
23	0xbe2f6f34	-0.17132264
24	0xbcf35f7d	-0.029708618
25	0xbdae1287	-0.084996276
26	0xbe24d46a	-0.16096655
27	0x3eba9b7a	0.36446744
28	0x3e400135	0.1875046
29	0x3d509467	0.050922778
30	0x3e1ab970	0.15109801
31	0x3ede279c	0.43389595
32	0x3f0b4c60	0.54413414
33	0xbed6bcf2	-0.4194103
34	0xbd02dc77	-0.031948533
35	0xbec4b2d4	-0.38417685
36	0x3df62042	0.120178714
37	0xbf1e9d6b	-0.6195895
38	0x39d1ad6c	0.00039992796
39	0x3e26debe	0.16295907
40	0x3f0d09e1	0.550932
41	0x3eb5df09	0.35521725
42	0x3de6c374	0.112677485
43	0x3d1da53a	0.03848765
44	0xbcc1002d	-0.023559654
45	0xbe3878b4	-0.18014795
46	0xbd1b60da	-0.03793416
47	0xbf48196f	-0.7816381
48	0xbe9e24ec	-0.30887544
49	0xbf3c40c2	-0.7353631
50	0xbe5ff0bf	-0.21869181
51	0x3c20fb0d	0.00982548
52	0xbdb24c78	-0.087059915
53	0x3ebb6622	0.3660136
54	0xbec10a20	-0.37703037
55	0xbf35a437	-0.70953697
56	0xbe025953	-0.12729387
57	0xbb650d00	-0.0034950376
58	0xbe2da573	-0.16957645
59	0xbeec0128	-0.46094632
60	0x3df1c4c9	0.11805112
61	0xbe87b1a9	-0.2650273
62	0xbd989099	-0.07449455
63	0xbe6f2a29	-0.23355927
64	0x3d85fd86	0.065424964
65	0xbe3a35d0	-0.1818459
66	0xbd842085	-0.06451515
67	0x3caa61d7	0.020798607
68	0x3d8300c9	0.06396634
69	0xbf244363	-0.64165324
70	0x3e58f0ea	0.21185651
71	0xbf64c78c	-0.89366984
72	0xbef4ea7c	-0.47835147
73	0x3e121024	0.1426397
74	0xbebca654	-0.36845648
75	0xbe5ec566	-0.21754989
76	0x3e51dc66	0.20494232
77	0x3e61ca1b	0.22049753
78	0x3e43ee15	0.1913379
79	0xbe53203f	-0.2061777
80	0x3f0f1189	0.5588613
81	0xbd560480	-0.052250385
82	0xbe46c24e	-0.19410059
83	0x3ce5ae12	0.028037105
84	0xbcd8272e	-0.02638587
85	0xbe9f307c	-0.31091678
86	0xbe9e8155	-0.30958048
87	0x3cb80b56	0.022466343
88	0xbd748949	-0.059701238
89	0x3e9c2957	0.3050029
90	0x3e479db4	0.19493753
91	0xbec13410	-0.37735033
92	0x3e35d790	0.17758012
93	0x3d8217c4	0.06352189
94	0x3ec6aaf1	0.38802293
95	0xbdfa8f02	-0.12234308
96	0xbdc7cb9e	-0.09755634
97	0xbf0164b3	-0.5054428
98	0xbdbd3121	-0.09237886
99	0x3ed65917	0.41864845
100	0xbde60472	-0.112313166
101	0x3e94f6e7	0.29094622
102	0x3d4f511d	0.050614465
103	0x3e5bf9df	0.21482037
104	0xbd4876e0	-0.048941493
105	0x3ef75c3b	0.48312554
106	0xbd025b7b	-0.031825524
107	0xbe11c299	-0.1423439
108	0x3e1a3c6e	0.15062115
109	0xbfd58eba	-1.6684182
110	0x3e7521c0	0.23938656
111	0xbf1949cc	-0.5987823
112	0xbea9deb7	-0.3317773
113	0xbd9ea208	-0.07745749
114	0x3e576cca	0.21037593
115	0xbf912663	-1.133984
116	0x3d842cb4	0.06453839
117	0x3e8afb2e	0.2714476
118	0xbe4e0cc8	-0.20122063
119	0x3db458f8	0.08806032
120	0x3d88c4d7	0.06678169
121	0xbe5a1d15	-0.21300156
122	0xbe33084a	-0.17483631
123	0x3dd76d16	0.10518853
124	0x3d4bf0ff	0.04979038
125	0x3f23c9ad	0.6397961
126	0xbe4b8223	-0.19873862
127	0xbd545efc	-0.051848397
128	0x3f1bc3f4	0.60845876
129	0x3e183eb2	0.14867666
130	0xbee0631e	-0.4382562
131	0x3d9843fe	0.074348435
132	0xbf9127f1	-1.1340314
133	0xbf1a721c	-0.6033037
134	0x3e7bc9b7	0.24588667
135	0x3e780fc6	0.24224767
136	0x3e79cb25	0.243939
137	0xbe451b2e	-0.1924865
138	0x3dc9f9f8	0.09862131
139	0xbf46cb66	-0.7765411
140	0xbfa07b82	-1.2537692
141	0x3dd50479	0.10401244
142	0x3eeac0a3	0.45850095
143	0x3ec2046d	0.37894002
144	0x3e6d10e8	0.2315098
145	0x3dab964f	0.083782785
146	0x3f44c771	0.76866823
147	0x3ca9dabe	0.020734187
148	0x3e477fc7	0.19482337
149	0xbf812ffc	-1.0092769
150	0x3cc40ba6	0.023931336
151	0xbe1569cd	-0.14591141
152	0xbd67a96a	-0.05655805
153	0xbe7d3aa5	-0.24729402
154	0xc0284221	-2.6290362
155	0xbdc77677	-0.09739392
156	0x3f5e20a4	0.86768556
157	0xbd121777	-0.03566691
158	0x3e6b27e5	0.22964437
159	0x3ddbeaad	0.1073812
160	0xbe39ea55	-0.18155797
161	0xbf47c4be	-0.7803458
162	0x3dbaa56a	0.091135815
163	0xbe43f43e	-0.1913614
164	0xbcaf727a	-0.021416891
165	0xbe9b0c5c	-0.30282867
166	0x3ef6b279	0.4818304
167	0xbd82f996	-0.06395261
168	0x3dbbe09b	0.091736995
169	0xbf3f2bfe	-0.746765
170	0x3e53e8f4	0.20694333
171	0x3e95b9d2	0.29243332
172	0x3e2a5abf	0.1663618
173	0x3dd5f9fa	0.1044807
174	0xbc4028ba	-0.01172846
175	0xbcfc8b81	-0.03082824
176	0x3dc11aa2	0.09428908
177	0x3e4523fe	0.19252011
178	0xbd97315d	-0.07382462
179	0x3e19fa5c	0.15036911
180	0x3d18bc8c	0.037289187
181	0xbd8be1a2	-0.068301454
182	0xbebe9380	-0.3722191
183	0xbd8cbb5d	-0.06871674
184	0xbe3f662d	-0.1869132
185	0xbcb86dea	-0.022513349
186	0xbe3239b2	-0.17404822
187	0x3be66125	0.0070306235
188	0xbf39844d	-0.724675
189	0x3c029e27	0.007972277
190	0xbd4f24ff	-0.05057239
191	0xbe21d964	-0.15805584
192	0x3ee13088	0.4398234
193	0xbe8455b7	-0.25846645
194	0xbeab5477	-0.3346288
195	0x3ed95b7c	0.4245261
196	0x3d5a4819	0.053291414
197	0x3e32d89f	0.17465447
198	0xbf00dcbe	-0.50336826
199	0xbf8460b9	-1.0342017
200	0xbe50d844	-0.20394999
201	0x3d400a60	0.046884894
202	0xbf1bddee	-0.6088551
203	0x3de106d9	0.10987634
204	0x3d8e507f	0.06948947
205	0x3e0cb71d	0.13741727
206	0x3c53c8e9	0.012926319
207	0xbf799d9e	-0.9750613
208	0xbeb2aa2d	-0.3489546
209	0x3eaa4041	0.33252147
210	0xbe5cb07d	-0.215517
211	0xbbbef706	-0.0058277873
212	0xbf2413d5	-0.6409276
213	0x3d8a6197	0.06756895
214	0xbec764e5	-0.38944164
215	0xbd97ae01	-0.074062355
216	0x3cbc0f06	0.022956382
217	0xbbba5814	-0.0056867693
218	0x3e7df3d7	0.24800049
219	0xbcac31cc	-0.021019839
220	0xbe808098	-0.2509811
221	0xbeedd8a9	-0.4645436
222	0xbe3fe8d3	-0.18741159
223	0xbdbe5d9c	-0.09295198
224	0x3cceef85	0.025260696
225	0xbd17a194	-0.037019327
226	0xbe93b3d3	-0.28848132
227	0xbdfa8eb1	-0.122342475
228	0x3ca04173	0.019562459
229	0x3d378f23	0.04481424
230	0xbf87fd28	-1.0624132
231	0xbec89c94	-0.3918196
232	0xbe8758ef	-0.26435038
233	0x3ef6d76e	0.48211235
234	0xbea5b7e2	-0.32366854
235	0x3d472955	0.0486234
236	0xbecbdc3b	-0.3981646
237	0x3bfad33e	0.0076545766
238	0xbe955d56	-0.29172772
239	0xbeb4a283	-0.35280237
240	0xbdcdf8c8	-0.10057217
241	0xbf158a82	-0.5841447
242	0x3e0b31c5	0.13593204
243	0xbe21284f	-0.15738033
244	0x3df0e44c	0.11762294
245	0xbd793bf4	-0.06084819
246	0xbf21d6bb	-0.6321828
247	0x3cf66b5b	0.030080488
248	0x3d143137	0.036179747
249	0xbedc3efe	-0.4301681
250	0xbe291568	-0.16512072
251	0x3cd007db	0.02539437
252	0xbbd056b3	-0.0063579916
253	0x3ea1869a	0.31548005
254	0xbc51de3b	-0.0128093315
255	0xbe1c13cb	-0.15241925

fc_numerical.3.bias f4 [64]
0	0xbefb3e0c	-0.49070776
1	0xbea493b7	-0.32143947
2	0x3d1b385c	0.037895545
3	0xbea0678b	-0.31328997
4	0xbf2f1931	-0.68397814
5	0xbee20916	-0.44147557
6	0x3c8e8bac	0.017400585
7	0xbe5fffd1	-0.2187493
8	0xbe2485c2	-0.1606665
9	0xbdb7a79d	-0.089675166
10	0xbe92b84b	-0.2865623
11	0xbeb64625	-0.3560039
12	0xbf7a4330	-0.9775877
13	0x3db3a123	0.08770969
14	0xbec55fb0	-0.38549566
15	0xbedcf3c2	-0.43154722
16	0xbde8a050	-0.11358702
17	0xbed16d25	-0.40903583
18	0xbf7334e9	-0.9500261
19	0xbe4ced58	-0.20012414
20	0xbeed4424	-0.4634105
21	0xbf243528	-0.6414361
22	0x3ebb7b34	0.36617434
23	0xbe5afd87	-0.21385776
24	0xbe0ad83b	-0.13559048
25	0xbde6745b	-0.11252662
26	0xbdd4e1f9	-0.10394663
27	0xbf10037a	-0.56255305
28	0x3dfb2742	0.12263347
29	0xbe405116	-0.18780932
30	0xbe7eef37	-0.2489594
31	0xbde51992	-0.11186518
32	0xbf8182b0	-1.0118008
33	0xbf023fd5	-0.5087865
34	0xbe1c4e8a	-0.15264335
35	0x3de74f34	0.11294404
36	0xbe118445	-0.14210613
37	0x3dc2e750	0.095167756
38	0xbe0ed5d9	-0.13948764
39	0xbf9b39f9	-1.2127067
40	0xbee1226b	-0.4397157
41	0xbf05f517	-0.523271
42	0xbeead7fe	-0.45867914
43	0xbea91f4f	-0.330317
44	0xbe108de7	-0.14116631
45	0xbdc285f7	-0.09498208
46	0xbebf8f91	-0.3741422
47	0xbf034f6f	-0.5129308
48	0xbfe2ae2b	-1.7709402
49	0xbe2b6496	-0.16737589
50	0xbd78a342	-0.06070257
51	0xbe62c600	-0.22145844
52	0x3d6968d5	0.05698474
53	0x3e1a1153	0.15045671
54	0xbead8fc3	-0.33898744
55	0xbecba3ec	-0.397735
56	0xbe75ee91	-0.24016787
57	0xbd5a138f	-0.05324131
58	0xbe819c3c	-0.2531451
59	0xbedd192c	-0.43183267
60	0xbf0f1e84	-0.5590594
61	0x3bb8d6be	0.0056408336
62	0xbf9f5725	-1.2448469
63	0x3d46588e	0.048424296

fc_numerical.5.weight f4 [64]
0	0x3f0a628c	0.5405662
1	0x3e76d7a4	0.24105698
2	0xb8a6fec7	-7.962953e-05
3	0x3993f182	0.00028217962
4	0x3e817649	0.25285557
5	0x3e9ad91d	0.3024377
6	0x38c057bc	9.171615e-05
7	0x3eccb94c	0.3998512
8	0x3e463e4d	0.19359703
9	0x3ed68060	0.41894817
10	0x3e092e44	0.13396555
11	0x3bba1adf	0.005679473
12	0x3e81c3d6	0.25344723
13	0xb91833c6	-0.00014515137
14	0x3eb4c752	0.3530832
15	0x3eaf4b11	0.3423696
16	0xb94867cc	-0.00019112154
17	0x3a04499e	0.000504637
18	0x3e8e601d	0.27807704
19	0xb8d3d49a	-0.00010100864
20	0x3b77de45	0.0037821692
21	0x3daf1e61	0.08550716
22	0x3e4d9798	0.2007736
23	0x3e9c1753	0.30486545
24	0xb94de62f	-0.00019636074
25	0xb6d7567a	-6.4175665e-06
26	0x3f281d6d	0.656699
27	0x3f0e5de0	0.5561199
28	0x36f5dc32	7.327203e-06
29	0xb799c199	-1.8329172e-05
30	0x391350da	0.00014049132
31	0x3898933f	7.2753515e-05
32	0x3ebc3c48	0.3676474
33	0x3e67a11a	0.22620049
34	0x3b264126	0.0025368421
35	0x3e9d6511	0.3074117
36	0xb9563d84	-0.00020431547
37	0x3e653feb	0.22387664
38	0xb89d32ea	-7.495827e-05
39	0x3e843e34	0.25828707
40	0x3ea912a2	0.33022028
41	0x3ec897a5	0.39178196
42	0x3e834fe4	0.2564689
43	0x3eabc685	0.33549896
44	0x39617e84	0.00021504803
45	0xb90e4dd1	-0.00013571164
46	0x3eb9bdcd	0.3627762
47	0x3ed824b0	0.4221549
48	0x3e8c3c9e	0.27389997
49	0xb9d6bac9	-0.00040956427
50	0xb938a54c	-0.00017609185
51	0x3970d69b	0.0002296813
52	0x37cc8ad6	2.4383346e-05
53	0x3821b573	3.855438e-05
54	0x3ebc4550	0.3677163
55	0x3928eb43	0.0001610937
56	0xbca838c9	-0.02053489
57	0x38f55aec	0.00011699446
58	0x38c2b8d4	9.285068e-05
59	0x3ee3b3bd	0.44473067
60	0x3eb83548	0.3597815
61	0xb5e76aae	-1.7241889e-06
62	0x3ec1c906	0.3784868
63	0x3eb445db	0.35209545
