numerical_model_best_5.pth (torch, 245010 bytes, 13 tensors)

fc_numerical.0.weight f4 [256, 163]
0	0x3d127cb4	0.035763457
1	0x3e945bbd	0.2897624
2	0x3d834033	0.064087294
3	0x3deeaf9a	0.11654587
4	0xbd658788	-0.056037456
5	0xbd533748	-0.051566392
6	0xbf54fe93	-0.8320095
7	0xbeab20b2	-0.33423382
8	0xbed38fb4	-0.41320574
9	0xbec66be9	-0.38754204
10	0xbf5215aa	-0.82064307
11	0xbec33dc8	-0.38133073
12	0xb9c8753e	-0.00038234325
13	0x3e5b9408	0.21443188
14	0x3e82f9d1	0.2558122
15	0x3ec5f0ac	0.3866018
16	0x3e387bc3	0.18015961
17	0x3e851155	0.25989786
18	0x3ef0233c	0.46901882
19	0x3e91b10a	0.28455383
20	0x3ef11a1e	0.47090238
21	0x3e79f322	0.24409154
22	0x3f0806b0	0.53135204
23	0x3ec0b8e8	0.37641072
24	0x3ca4d22f	0.020119755
25	0x3da880c4	0.08227685
26	0xbcb633fc	-0.022241585
27	0x3e448058	0.19189584
28	0x3cfe1be0	0.031019151
29	0xbc56963e	-0.013097344
30	0xbd0ae0de	-0.033905856
31	0xbf1726c6	-0.5904354
32	0xbf3de47c	-0.74176764
33	0xbf0aa132	-0.54152215
34	0xbf1a73d4	-0.6033299
35	0xbecd085b	-0.40045437
36	0x3e22776e	0.15865871
37	0xbe82b7c2	-0.2553082
38	0xbf2e441b	-0.6807267
39	0x3e9b5847	0.30340788
40	0xbe20d844	-0.15707499
41	0xbdcbaf40	-0.09945536
42	0x3e298dbe	0.16557977
43	0xbea9048d	-0.33011284
44	0xbe9fcf26	-0.3121273
45	0xbecbe137	-0.39820263
46	0xbec61e4b	-0.38694987
47	0xbebce834	-0.36895907
48	0xbea2e996	-0.31818837
49	0xbe8e271b	-0.2776421
50	0x3e27fbb9	0.16404618
51	0xbdd6112e	-0.104524955
52	0xbe452a0d	-0.19254322
53	0xbe50c5b8	-0.20387924
54	0x3e24acd7	0.16081558
55	0x3e8a3804	0.26995862
56	0xbe926b2a	-0.28597385
57	0x3e6400a3	0.22265868
58	0xbdd05de9	-0.10174162
59	0x3e8ab29f	0.27089402
60	0xbe4ec542	-0.20192435
61	0xbd25228e	-0.040316157
62	0x3e16dbd9	0.14732303
63	0xbf28403f	-0.6572303
64	0xbe04d45a	-0.1297163
65	0xbee847b1	-0.45367196
66	0xbf10579f	-0.563837
67	0x3e05ebab	0.13078181
68	0xbe20fff6	-0.15722641
69	0x3da1f91e	0.079088435
70	0x3da0e92e	0.078569755
71	0xbe1dfa1b	-0.15427439
72	0xbdf078a2	-0.11741759
73	0x3cedc0c9	0.029022591
74	0x3e3d4bfd	0.18486018
75	0x3d8b2d0c	0.067957014
76	0xbe8b6721	-0.2722712
77	0x3e07cd9d	0.13262029
78	0xbe3cd628	-0.18441069
79	0x3e294b42	0.16532615
80	0x3cb73d42	0.022368077
81	0xbe8683d1	-0.26272443
82	0x3ddc5424	0.10758236
83	0xbe7ee5e8	-0.2489239
84	0x3e3a3f53	0.18188219
85	0x3e2031ec	0.15644044
86	0xbee0d245	-0.43910423
87	0x3c9c4998	0.019078061
88	0xbebbf98c	-0.36713827
89	0xbd0a29e6	-0.033731364
90	0xbd84805d	-0.06469796
91	0xbef7a947	-0.48371336
92	0xbdf76be6	-0.12081127
93	0xbf069ad8	-0.5258002
94	0xbe27ce7b	-0.1638736
95	0xbda4df76	-0.08050434
96	0xbec708c6	-0.3887388
97	0xbdbcc177	-0.09216588
98	0xbeb436f0	-0.35198164
99	0xbe2fd82e	-0.1717231
100	0xbda3a3b7	-0.079902105
101	0xbdb67a66	-0.089100644
102	0xbe2c79d1	-0.16843344
103	0xbe037419	-0.12837256
104	0xbe5f72da	-0.21821156
105	0xbe62ab0b	-0.2213556
106	0x3e147b54	0.14500171
107	0xbc5ceb1d	-0.01348379
108	0x3e4925f1	0.1964338
109	0x3ead858c	0.3389095
110	0x3dc53f40	0.096312046
111	0x3e33a594	0.17543632
112	0xbeb70af9	-0.3575056
113	0xbe09c3c0	-0.13453579
114	0x3e768f62	0.24078134
115	0xbdc3e39a	-0.09564896
116	0xbeaf23b9	-0.34206942
117	0xbd13b118	-0.03605756
118	0x3e205066	0.1565567
119	0x3ee155e3	0.4401084
120	0x3e896988	0.26838326
121	0xbe2c44e4	-0.16823155
122	0xbebcb9d8	-0.36860538
123	0x3b2d4ae0	0.0026442334
124	0x3e1ae737	0.15127264
125	0xbe0a3416	-0.13496432
126	0xbf13bb05	-0.57707244
127	0xbea4a846	-0.32159632
128	0xbe6c4b43	-0.23075585
129	0xbea66e99	-0.32506254
130	0xbdc88ec1	-0.09792853
131	0xbe372f13	-0.17889051
132	0x3eb4ab8e	0.35287136
133	0xbe117de2	-0.14208177
134	0xbdc00666	-0.093762204
135	0xbe0d1d96	-0.13780817
136	0x3e99c2c7	0.30031416
137	0x3e942086	0.28931063
138	0xbc56ffe7	-0.013122535
139	0xbeb760d5	-0.35816064
140	0xbf0e0319	-0.55473477
141	0xbf451aeb	-0.769942
142	0xbee6ef14	-0.45104277
143	0xbf01cb01	-0.50700384
144	0xbe7e0735	-0.24807437
145	0xbe0d9dbb	-0.138297
146	0xbe84281e	-0.25811857
147	0xbe907ecf	-0.28221747
148	0xbe27dd97	-0.16393124
149	0xbcab84cb	-0.020937344
150	0xbe2479ea	-0.16062132
151	0xbcbd4e99	-0.023108767
152	0xbe986759	-0.29766348
153	0xbee3fa86	-0.44527072
154	0xbf0612a5	-0.523722
155	0xbf7d69f1	-0.9898978
156	0xbeb0f7b2	-0.34563977
157	0xbef04546	-0.4692785
158	0xbed425c3	-0.4143506
159	0xbea3a968	-0.31965184
160	0x3d7af8eb	0.061272543
161	0xbb80115e	-0.0039083203
162	0x3ddad295	0.106846966
163	0xbe702a90	-0.23453736
164	0xbe976f33	-0.29577026
165	0xbd41b97f	-0.047296043
166	0x3e2d00f3	0.16894893
167	0x3d383ad8	0.044977993
168	0xbd52baa5	-0.05144753
169	0x3d1637ef	0.036674436
170	0xbcd79699	-0.026316928
171	0xbc7b7d89	-0.015349754
172	0xbd0f5220	-0.03499043
173	0x3d9929db	0.074786864
174	0x3cefd59e	0.029276665
175	0xbe2e1121	-0.16998722
176	0xbe01ae1c	-0.12664074
177	0xbdcde001	-0.10052491
178	0xbd2a8f27	-0.041640427
179	0xbe38b381	-0.18037225
180	0xbcb58e35	-0.022162536
181	0x3d8af3e3	0.06784799
182	0xbd60484e	-0.054756455
183	0xbd7e6fa7	-0.0621182
184	0x3da7a662	0.08186032
185	0xbde4c235	-0.111698546
186	0xbdc0bb91	-0.094107755
187	0xbf3d44e5	-0.7393325
188	0xbd0287a8	-0.031867653
189	0xbec0638b	-0.37575945
190	0xbe22a2c6	-0.15882406
191	0xbf10e88f	-0.56604856
192	0xbe28c27c	-0.1648044
193	0xbf7caa89	-0.98697716
194	0x3f3698e5	0.7132705
195	0x3e816deb	0.25279173
196	0x3ec4e5f9	0.38456705
197	0x3dd0a13e	0.101870045
198	0x3eec141a	0.46109086
199	0x3ded621d	0.11590979
200	0x3e86f0ea	0.26355678
201	0x3e666c13	0.22502165
202	0x3e5416fe	0.20711896
203	0x3db551df	0.08853506
204	0x3e95e0f7	0.29273197
205	0xbc3f8e0e	-0.011691583
206	0xbc1e10c0	-0.009647548
207	0x3dd73e13	0.105098866
208	0x3c9d7571	0.01922104
209	0x3d3a8952	0.045541115
210	0x3c8c0945	0.017094264
211	0xbc6624ec	-0.014046889
212	0x3ee1a0fc	0.44068134
213	0x3e521d58	0.20519006
214	0x3ea76290	0.32692385
215	0x3eb9c08f	0.36279723
216	0x3ef481ba	0.47755224
217	0x3ea13de6	0.31492537
218	0xbe6480ad	-0.22314711
219	0xbd4b2017	-0.04959115
220	0xbda6ede9	-0.081508465
221	0xbdd56144	-0.104189426
222	0xbe7fea22	-0.24991658
223	0xbdd53fde	-0.10412572
224	0x3db8f461	0.090309866
225	0x3e2ea441	0.17054845
226	0x3da0bf0b	0.078489386
227	0x3e26659b	0.16249697
228	0x3d803b4f	0.06261312
229	0x3e5e92b1	0.21735646
230	0xbc56e9fc	-0.01311731
231	0xbe0b3c4a	-0.13597217
232	0xbd8a9390	-0.067664266
233	0x3d60ff7c	0.05493115
234	0x3df6cb36	0.12050478
235	0xbcf32e38	-0.029685125
236	0xbebbaa8f	-0.36653563
237	0xbd8a5eca	-0.06756361
238	0xbdf447d4	-0.11927763
239	0x3dd2d9d2	0.10295452
240	0xbb388a1a	-0.0028158487
241	0xbf07f212	-0.53103745
242	0xbe34feae	-0.17675278
243	0xbd108160	-0.03527963
244	0x3e1a5f9e	0.15075538
245	0xbb90d6d7	-0.004420142
246	0xbe244108	-0.16040432
247	0xbcfb7868	-0.030697063
248	0x3cb9f41a	0.022699405
249	0x3e298139	0.16553201
250	0x3d741a90	0.059595644
251	0xbcd54888	-0.026035562
252	0x3ca6f665	0.020381162
253	0xbd5d531d	-0.05403434
254	0x3e63ab2d	0.22233267
255	0xbc56a55a	-0.013100946

fc_numerical.0.bias f4 [256]
0	0xbf8665e4	-1.0499845
1	0xbf51604f	-0.8178758
2	0x3e80fe65	0.25194088
3	0xbf2ef64e	-0.6834458
4	0xbfa2efd0	-1.2729435
5	0x3ea41bac	0.32052362
6	0xbf84e8ca	-1.0383542
7	0xbf059615	-0.5218213
8	0xbea6ed22	-0.32602793
9	0xbe7bb3a1	-0.24580242
10	0xbe2900a6	-0.16504154
11	0xbf219961	-0.6312466
12	0xbed2c06e	-0.41162437
13	0x3e1b97f5	0.15194686
14	0x3e1583bd	0.14601035
15	0xbf2dc627	-0.6788048
16	0x3ea49b16	0.3214957
17	0xbe90f8ee	-0.28314918
18	0x3d9aa9b6	0.07551901
19	0xbf697996	-0.9120115
20	0xbeedd153	-0.46448764
21	0xbf34b449	-0.70587593
22	0xbf950b39	-1.164405
23	0xbf67d24a	-0.9055525
24	0xbedd6664	-0.4324218
25	0xbe5e9465	-0.21736296
26	0xbf7bf4dc	-0.984205
27	0xbef17e6b	-0.47166762
28	0xbe9970c0	-0.29968834
29	0xbdc1c0e3	-0.09460618
30	0xbff48551	-1.9103185
31	0xbf43be79	-0.76462513
32	0xbf18938f	-0.59600157
33	0xbf298b0a	-0.6622778
34	0xbd972360	-0.07379794
35	0xbe55b994	-0.20871574
36	0xbf0d0b9c	-0.5509584
37	0xbf4ac6fd	-0.7920988
38	0xbf7bc332	-0.9834472
39	0xbfb17c7f	-1.3866118
40	0xbd978a7d	-0.073994614
41	0xbedd1191	-0.43177465
42	0xbfc19804	-1.5124516
43	0xbf4fce35	-0.8117402
44	0xbf4d9047	-0.80298275
45	0xbfbba029	-1.4658252
46	0xbe1731ec	-0.14765137
47	0xbee34c94	-0.44394362
48	0xbea7738e	-0.3270535
49	0xbeb30367	-0.34963533
50	0x3e9c7eed	0.30565587
51	0xbf962793	-1.1730827
52	0xbf2fc340	-0.686573
53	0xbe9edae3	-0.31026372
54	0xbf3edcac	-0.7455547
55	0xbf876460	-1.0577507
56	0xbef80612	-0.4844213
57	0xbf9314e1	-1.1490747
58	0xbdf33abb	-0.11876436
59	0xbf00e1d1	-0.5034457
60	0x3e8ce2e5	0.27516857
61	0xbe9fe6ab	-0.31230673
62	0xbffae5ba	-1.9601357
63	0xbf9778c1	-1.1833726
64	0xbe2430d4	-0.16034251
65	0xbe40e708	-0.18838131
66	0xbf907d6f	-1.1288279
67	0xbe99d2ca	-0.30043632
68	0xbf20087b	-0.6251294
69	0xbea4fc3d	-0.32223693
70	0x3dbf57f1	0.09342945
71	0xbfc7ff7c	-1.5624843
72	0xbfbd9855	-1.4812113
73	0xbe90a51c	-0.28250968
74	0x3e4d0fd8	0.20025575
75	0xbe44e7ca	-0.19229046
76	0xbea8ee85	-0.32994476
77	0xbed29bf1	-0.411346
78	0xbed9cef8	-0.42540717
79	0x3be04a3a	0.006844786
80	0xbf9641bd	-1.1738812
81	0xbdfce68f	-0.12348663
82	0x3e307d24	0.17235237
83	0xbfc483d4	-1.5352731
84	0xbfe68dd5	-1.8012034
85	0xbc86c280	-0.016450167
86	0xbf7e2c6f	-0.9928655
87	0xbfa0490b	-1.2522291
88	0xbea455b0	-0.32096624
89	0xbfceaab9	-1.614585
90	0xbf8df68f	-1.1090869
91	0xbf9db8d6	-1.2322032
92	0xbf97ccc9	-1.185937
93	0xbf9bbff2	-1.2167952
94	0xbe4526fb	-0.19253151
95	0xbf60edad	-0.87862664
96	0xbe50eb86	-0.20402345
97	0xbeefd877	-0.46844837
98	0xbebe1d34	-0.37131655
99	0x3eecc1c8	0.46241593
100	0x3d80704d	0.0627142
101	0xbfd0371e	-1.626682
102	0xbeaed7d1	-0.3414903
103	0xbee4a09b	-0.44653782
104	0xbf6924c4	-0.91071725
105	0xbf038001	-0.51367193
106	0x3defb6ec	0.117048115
107	0xbeb0ccdb	-0.34531292
108	0xbe231868	-0.15927279
109	0xbe98b285	-0.298237
110	0xbf6fc3bf	-0.9365806
111	0xbe7501e5	-0.23926504
112	0x3ed3e50e	0.41385692
113	0xbf75b8d1	-0.9598513
114	0xbffd7383	-1.9800876
115	0xbf1a3898	-0.60242605
116	0xbd9cf2dc	-0.07663509
117	0xbd8c8c29	-0.06862671
118	0x3cae8074	0.021301486
119	0x3df87fab	0.12133726
120	0xbf1683f8	-0.5879512
121	0xbf378cdb	-0.71699303
122	0xbd9af04a	-0.07565363
123	0xbe74212f	-0.23840784
124	0xbee8942b	-0.45425543
125	0xc0042db8	-2.0652905
126	0xbe9d3a4c	-0.3070854
127	0xbfa5d92c	-1.2956901
128	0xbdbe433f	-0.0929017
129	0xbf9f11ba	-1.2427285
130	0xc00c5908	-2.192934
131	0xbdc253f6	-0.094886705
132	0xbfacd2d7	-1.3501843
133	0xbeb3e6ca	-0.35137016
134	0xbf17f09c	-0.59351516
135	0xbf22f686	-0.63657415
136	0x3defecf3	0.11715116
137	0xbfe3da80	-1.7801056
138	0xbea6cbac	-0.32577264
139	0xbf6af8af	-0.9178571
140	0xbf0b08e1	-0.54310423
141	0xbe4220ee	-0.18957874
142	0xbf5c2e25	-0.8600791
143	0x3e3ab8da	0.18234578
144	0xbd8dee94	-0.06930271
145	0x3d7f3074	0.062302068
146	0xbf2bb401	-0.6707154
147	0xbfde9bb2	-1.7391264
148	0xbfa4c620	-1.2872963
149	0xbdfdc2b9	-0.12390656
150	0xbf95c1ad	-1.169973
151	0xbf255007	-0.6457524
152	0x3db7e997	0.089801006
153	0xbeb65bb0	-0.35616827
154	0xbec16630	-0.37773275
155	0x3f90ea65	1.1321532
156	0xbfdf2c8c	-1.743547
157	0xbe0d959a	-0.138266
158	0x3ee2c842	0.4429341
159	0xbe821f81	-0.2541466
160	0xbfe546f3	-1.7912277
161	0xbf39497d	-0.7237776
162	0x3dbea8f4	0.09309569
163	0xbed16e17	-0.40904304
164	0xbeacf0b8	-0.33777404
165	0xbf5985fb	-0.8497006
166	0x3d77533d	0.060382117
167	0xbf892240	-1.0713577
168	0xc00c7074	-2.1943636
169	0xc000d474	-2.012967
170	0x3f27eaff	0.6559295
171	0xbf9404e7	-1.1563996
172	0xbf419ee0	-0.7563305
173	0x3ea5064f	0.32231376
174	0xbf4b0eaf	-0.7931928
175	0xbd82b6c5	-0.06382517
176	0x3d0bc539	0.034123633
177	0xbfa77de9	-1.30853
178	0xbb1862a1	-0.0023252147
179	0xbec8b030	-0.3919692
180	0xbf3be923	-0.73402613
181	0xbc6945c7	-0.014237828
182	0xbe819985	-0.2531244
183	0xbe7cbb07	-0.2468072
184	0xbfcfdbf8	-1.6239004
185	0x3c09e646	0.008416718
186	0xbe16b20d	-0.14716358
187	0xbe71fc52	-0.23631409
188	0xbe092130	-0.13391566
189	0xbf232d30	-0.63740826
190	0xbedf9574	-0.4366871
191	0x3f8c6b32	1.0970213
192	0xbf825621	-1.0182534
193	0xbef2bc56	-0.47409314
194	0xbf6ee9c9	-0.9332548
195	0xbf2ad209	-0.6672674
196	0xbed719ab	-0.4201177
197	0xbf74c5b1	-0.95614153
198	0xbe9923f8	-0.29910254
199	0xbf75ea01	-0.96060187
200	0xbf581615	-0.84408695
201	0xbf7bc991	-0.9835444
202	0xba7c7095	-0.0009629813
203	0xbe271745	-0.1631747
204	0xbf5cdafe	-0.86271656
205	0xbee0ccf1	-0.43906358
206	0xbf61eb9d	-0.8825014
207	0xbf9a2bce	-1.2044618
208	0xbf84a991	-1.0364248
209	0x3e14a06a	0.14514318
210	0xbf704e74	-0.9386971
211	0xbfb0cfa3	-1.3813366
212	0x3e9d0df2	0.30674702
213	0xbf47e0b0	-0.7807722
214	0xbf6d6f44	-0.927479
215	0xc023caf7	-2.559263
216	0x3e816520	0.25272465
217	0x3e83c3df	0.25735375
218	0xbe4554fb	-0.19270699
219	0xbe53b2b2	-0.20673636
220	0x3e5ebd21	0.21751834
221	0xbba53f1d	-0.005042924
222	0xbdb94009	-0.09045417
223	0xbf6023ab	-0.87554425
224	0xbf75d07b	-0.9602124
225	0xbef73eff	-0.4829025
226	0xbf1d9464	-0.6155455
227	0xbfd5e6aa	-1.6711018
228	0xbee65d82	-0.44993216
229	0xc00e2dcf	-2.221546
230	0xbf9ee9d4	-1.2415109
231	0xbf08eb5b	-0.53484124
232	0xbf884030	-1.0644588
233	0x3ef46cf9	0.4773939
234	0xbd5b13bc	-0.053485617
235	0x3e58fda2	0.21190503
236	0xbf414884	-0.75501275
237	0xbeab7cb0	-0.33493567
238	0xbecc3528	-0.39884305
239	0xbda11548	-0.07865387
240	0x3ee2693f	0.4422092
241	0xbfe0c137	-1.7558964
242	0xbe9e0e78	-0.30870414
243	0xbfec1c2d	-1.8446099
244	0xbfaefddf	-1.3671225
245	0xbf049282	-0.51786053
246	0xbf9bdfd9	-1.2177688
247	0xbf8aa277	-1.083083
248	0xbf9b31bf	-1.2124556
249	0x3e5cc0aa	0.2155787
250	0xbf9f36a1	-1.2438546
251	0xbe626515	-0.22108872
252	0xc00100b5	-2.0156682
253	0x3e71e3b2	0.23622015
254	0xbfab93b7	-1.3404454
255	0xbf1c3bb4	-0.610286

fc_numerical.2.weight f4 [256]
0	0x3f7d8ba4	0.990412
1	0x3f39db1b	0.72599953
2	0x3f21286e	0.62952316
3	0x3f6446e1	0.8917065
4	0x3f7246cf	0.94639295
5	0x3f32b952	0.69814026
6	0x3fd238bc	1.6423564
7	0x400136eb	2.018977
8	0x3f671429	0.90265137
9	0x3f93489a	1.1506531
10	0x3fbb6081	1.4638826
11	0x3f9fab04	1.2474065
12	0x3f04c24a	0.5185896
13	0x3eab0e6f	0.3340945
14	0x3eae4381	0.34035876
15	0x3ffa68ae	1.9563196
16	0x3f386dcb	0.7204253
17	0x3f2fd08f	0.6867761
18	0x3fa2a3b2	1.2706206
19	0x3fa7ab02	1.3099062
20	0x3f2680ec	0.6504047
21	0x3f316187	0.6928944
22	0x40027f1a	2.0390077
23	0x3fecc9d7	1.8499097
24	0x3f2a841b	0.66607827
25	0x3f16f726	0.5897087
26	0x3f1c9040	0.6115761
27	0x3f390a41	0.7228127
28	0x3eb933bd	0.36172286
29	0x3eeb1051	0.45910886
30	0x3f882fcf	1.063959
31	0x3f806ebb	1.0033792
32	0x3fcf847f	1.621231
33	0x3fbffcb3	1.4998993
34	0x3f5094bb	0.81476945
35	0x3f0f2ced	0.55927926
36	0x3f2b9c43	0.6703531
37	0x3f6c69b8	0.92348814
38	0x3f39a240	0.725132
39	0x3ff7d169	1.9360782
40	0x3f82c8c9	1.0217525
41	0x3f8270d7	1.0190686
42	0x3f76c3c9	0.96392494
43	0x3fd6a9c6	1.6770561
44	0x3f7415ac	0.9534557
45	0x3fbd973d	1.4811779
46	0x3f49c4d2	0.7881595
47	0x3f553732	0.83287346
48	0x3f9e7fbe	1.2382734
49	0x3f3bb99a	0.7333008
50	0x3f793443	0.9734537
51	0x3f66d33f	0.90166086
52	0x3f4af6bc	0.79282737
53	0x3f4c529b	0.79813546
54	0x3f94ee27	1.1635178
55	0x3f95c14d	1.1699616
56	0x3fbc1c9f	1.4696234
57	0x3f945b2e	1.1590326
58	0x3f8306fa	1.0236504
59	0x3fec439d	1.8458134
60	0x3fb9cf01	1.4516298
61	0x3f3b8580	0.7325058
62	0x3ff5a17b	1.9189905
63	0x3f9a300c	1.2045913
64	0x3efe04c3	0.49613008
65	0x3f771bc5	0.9652675
66	0x3ffc7f8e	1.9726427
67	0x3f34c676	0.7061533
68	0x3f17b36d	0.59258157
69	0x3f753b2f	0.9579343
70	0x3ee2db14	0.44307768
71	0x3f8354e3	1.026028
72	0x3fc0bdf3	1.5057968
73	0x3f745b7c	0.95452094
74	0x3ec53842	0.38519484
75	0x3f711a54	0.941808
76	0x3f7b981d	0.9827898
77	0x3f261692	0.6487819
78	0x3f9a7d02	1.2069399
79	0x3ebff5f4	0.37492335
80	0x3fa774b5	1.3082491
81	0x3f789938	0.97108793
82	0x3f6a37f7	0.91491646
83	0x3fc38c8a	1.5277264
84	0x3f558d9f	0.8341922
85	0x3e929017	0.28625557
86	0x3f43f4f7	0.7654566
87	0x401ed9b9	2.4820387
88	0x3ef544af	0.47903964
89	0x3fd44b1e	1.6585424
90	0x3f95f165	1.1714293
91	0x3f816d1d	1.0111424
92	0x3f8b6853	1.0891212
93	0x3fd41bbe	1.6570966
94	0x3fa9f797	1.3278683
95	0x3f95475b	1.1662401
96	0x3f894481	1.0724031
97	0x3f2bd6c1	0.67124563
98	0x3f3a604c	0.7280319
99	0x3de5a721	0.11213518
100	0x3f554bc2	0.8331872
101	0x3fe8df13	1.8193077
102	0x3f6cbbe8	0.9247422
103	0x3f61849c	0.8809297
104	0x3f865914	1.0495934
105	0x3ee8945a	0.45425683
106	0x3f81c0d1	1.0136968
107	0x3f1869c8	0.5953641
108	0x3f214fcf	0.63012403
109	0x3f592601	0.84823614
110	0x3f9b5a00	1.2136841
111	0x3f828b9d	1.0198857
112	0x3f7f69e0	0.9977093
113	0x3fd2afb8	1.6459875
114	0x3ff3d859	1.9050399
115	0x3f0f31c5	0.5593532
116	0x3f122f5a	0.571035
117	0x3f2543ab	0.6455638
118	0x3e1347a5	0.14382799
119	0x3eb9091a	0.36139756
120	0x3f01d4c7	0.507153
121	0x3eebc25d	0.46046725
122	0x3f3abf12	0.729478
123	0x3fd8d61e	1.6940343
124	0x3fbea9b3	1.4895538
125	0x3fd68f42	1.6762469
126	0x3eea827b	0.45802674
127	0x3fc56cdf	1.542385
128	0x3f52b412	0.82306015
129	0x3fb4bc8b	1.4120039
130	0x3faba8e3	1.3410915
131	0x3f16716a	0.58766806
132	0x3f21dfb8	0.6323199
133	0x3f4a9c6c	0.7914493
134	0x3eb74d35	0.35801092
135	0x4002852b	2.039378
136	0x3f709a63	0.93985575
137	0x3f296439	0.6616855
138	0x3f34d0a5	0.70630866
139	0x3f28f3ee	0.6599721
140	0x3f57f03e	0.84350955
141	0x3e58a86b	0.21157996
142	0x3faa83d4	1.3321481
143	0x3e67aa62	0.2262359
144	0x3f68fdc3	0.9101221
145	0x3f2c1afe	0.67228687
146	0x3fff49ce	1.9944398
147	0x3f91ac55	1.1380717
148	0x3fd08808	1.6291513
149	0x3f5174e3	0.8181898
150	0x3fa5d1f9	1.2954704
151	0x3f741ecc	0.9535949
152	0x3f0e8a70	0.5567999
153	0x3fbe7807	1.488038
154	0x3ea4cb94	0.32186568
155	0x3fae0b92	1.3597281
156	0x3fe81476	1.8131244
157	0x3f135f79	0.57567555
158	0x3f6b3ba2	0.9188787
159	0x3f2d101a	0.67602694
160	0x401f857f	2.492523
161	0x3f5e7b0b	0.869065
162	0x3f06f3be	0.5271567
163	0x3ee4869f	0.44633958
164	0x3f3559c8	0.7084012
165	0x3f91dbbc	1.1395183
166	0x3f9d9c49	1.231332
167	0x3fa2200f	1.2666034
168	0x3f3f1fb8	0.74657774
169	0x3faf7aa0	1.3709297
170	0x3f9a9b41	1.207863
171	0x3f777369	0.96660477
172	0x3eea6e56	0.45787305
173	0x3f5cfd4f	0.8632402
174	0x3f83b693	1.0290092
175	0x3fafd0ed	1.3735634
176	0x3efa9c0c	0.4894718
177	0x3fd05740	1.6276627
178	0x3f6429e0	0.89126396
179	0x3f2bb843	0.67078036
180	0x3ffc7250	1.9722385
181	0x3e9533cf	0.2914109
182	0x3ef535f9	0.4789274
183	0x3eb43f86	0.35204715
184	0x3fa36c45	1.2767416
185	0x3e81a4da	0.25321084
186	0x3f653fbd	0.8955038
187	0x3f5322f7	0.8247523
188	0x3e946fb4	0.28991473
189	0x3f7ce3da	0.98785174
190	0x3f7b0f3b	0.98070115
191	0x3f837325	1.0269514
192	0x3f9e33cb	1.2359556
193	0x3f6a89f8	0.91616774
194	0x3f95356f	1.1656932
195	0x3f54fd1a	0.831987
196	0x3ec75a37	0.38936016
197	0x3f644202	0.8916322
198	0x3ee85c63	0.45382985
199	0x3f4d7510	0.8025675
200	0x3f26f78a	0.65221465
201	0x3ede0e8a	0.43370467
202	0x3f4c59eb	0.79824704
203	0x3f1323dd	0.574766
204	0x3fb698f7	1.4265431
205	0x3f792905	0.97328216
206	0x3f7f2dae	0.99679077
207	0x3fa0ed11	1.2572347
208	0x3f9494b1	1.1607877
209	0x3efd70b4	0.49500048
210	0x3f5ef561	0.8709317
211	0x3f96b110	1.1772785
212	0x3f234c9d	0.6378878
213	0x3f951a78	1.1648703
214	0x3fa58201	1.2930299
215	0x400daac5	2.213548
216	0x3f2c2321	0.672411
217	0x3ed87f79	0.42284754
218	0x3f299a4b	0.6625106
219	0x3f21868b	0.6309592
220	0x3f598b37	0.8497805
221	0x3f81af89	1.0131694
222	0x3e8ce661	0.27519515
223	0x3f96780e	1.1755388
224	0x3f8a7d09	1.0819408
225	0x3ecbd021	0.39807227
226	0x3f3a5d1a	0.7279831
227	0x3fae1137	1.3599004
228	0x3f5728b0	0.8404646
229	0x3fc58c4f	1.5433444
230	0x3f97fda4	1.187428
231	0x3feee298	1.8662901
232	0x3f5b1c81	0.8559037
233	0x3f34f9e5	0.7069381
234	0x3f7e404d	0.99316865
235	0x3f1a59b4	0.60293126
236	0x3fa626cf	1.2980593
237	0x3f196dbd	0.5993307
238	0x3f7517c8	0.9573941
239	0x3f542a77	0.82877296
240	0x3f5cf2d9	0.86308056
241	0x3fa70186	1.304734
242	0x3f41ac35	0.7565339
243	0x3f67eb29	0.905932
244	0x3f8b1dbe	1.0868452
245	0x3f192147	0.598164
246	0x3f5324ce	0.82478034
247	0x3fbd35a7	1.4781998
248	0x3f84d1c8	1.037652
249	0x3eeafbbd	0.45895186
250	0x3f4faad5	0.81120044
251	0x3f5488d1	0.83021265
252	0x3f707ebf	0.939434
253	0x3f2e2acb	0.68034047
254	0x3f51ad43	0.81905
255	0x3fbc4bfe	1.4710691

fc_numerical.2.bias f4 [256]
0	0xbd3aef19	-0.045638178
1	0xbe11c40a	-0.14234939
2	0x3eae28c8	0.3401549
3	0xbddeb546	-0.10874419
4	0x3e995f57	0.2995555
5	0x3c207333	0.009793091
6	0x3f3ab106	0.72926366
7	0x3f2e4fa6	0.68090284
8	0x3e64f854	0.22360355
9	0x3e8c3769	0.27386025
10	0x3ed0c824	0.40777695
11	0x3ef36fa7	0.4754612
12	0xbeebf701	-0.46086887
13	0x3e005d51	0.12535597
14	0xbc95ceae	-0.01828703
15	0xbf05f1f1	-0.523223
16	0xbe5b3c8d	-0.21409817
17	0xbe0bd4c5	-0.13655384
18	0x3e854aa1	0.260335
19	0xbe402b84	-0.187666
20	0xbe81e7d0	-0.2537217
21	0xbe97a2ff	-0.29616544
22	0x3f190d18	0.59785604
23	0x3ebf1508	0.37320733
24	0xbd7b6d65	-0.061383624
25	0x3dfa8790	0.12232888
26	0x3d6ee628	0.058324963
27	0xbbb4e5ee	-0.005520574
28	0x3ea6c35b	0.3257092
29	0xbe1332db	-0.14374869
30	0x3f08db63	0.5345976
31	0xbdd277dd	-0.10276768
32	0xbeb05694	-0.34441054
33	0x3e6d45b5	0.23171122
34	0xbe863cc2	-0.2621823
35	0x3c93389d	0.017971331
36	0xbd7f6a1c	-0.062357053
37	0x3d9c6351	0.076361306
38	0xbeec3b75	-0.46139112
39	0x3eccfd4c	0.40037
40	0xbeecc65c	-0.46245086
41	0xbc1321ec	-0.008980256
42	0x3f09c40e	0.5381478
43	0x3f122388	0.57085466
44	0x3e966668	0.29375005
45	0xbe853ee4	-0.26024544
46	0x3efb77f3	0.49114951
47	0xbdc43657	-0.09580677
48	0xbeafdc03	-0.34347543
49	0x3ef99289	0.4874461
50	0x3eece20c	0.4626621
51	0xbe92b89c	-0.2865647
52	0x3e5245ef	0.2053449
53	0xbe29b8fc	-0.16574472
54	0x3e2d486b	0.16922157
55	0x3ecff78b	0.40618548
56	0x3eac8e68	0.33702397
57	0x3e7bd300	0.24592209
58	0xbea12c02	-0.31478888
59	0x3eceac40	0.4036579
60	0x3f158828	0.5841088
61	0xbd9a76a8	-0.07542163
62	0x3ef55a4f	0.47920462
63	0x3e87f4dd	0.26554003
64	0xbe3ae7be	-0.18252465
65	0x3ed92319	0.4240959
66	0x3f07efe0	0.53100395
67	0xbceb5075	-0.028724888
68	0xbee9723f	-0.45594975
69	0x3f1c5afb	0.61076325
70	0xbf16374a	-0.58678114
71	0xbe82412d	-0.2544035
72	0x3e7400b8	0.23828399
73	0xbe910888	-0.2832682
74	0x3e2d7bc0	0.16941738
75	0xbf1a6d3d	-0.60322934
76	0x3ee8ceeb	0.45470366
77	0xbdfbb66d	-0.12290654
78	0xbd84517b	-0.06460854
79	0xbe6feb55	-0.23429616
80	0xbe8c947a	-0.2745703
81	0xbe17a236	-0.14807972
82	0x3e6c2b79	0.23063459
83	0xbe0fcffc	-0.14044183
84	0x3f2ca29e	0.67435634
85	0x3e43a47d	0.19105716
86	0xbde364ca	-0.11103208
87	0x3f0b62eb	0.5444781
88	0x3efc46bb	0.49272713
89	0x3f1ad64d	0.6048325
90	0xbd65e4d0	-0.056126416
91	0x3e88bfe4	0.267089
92	0xbed7ea91	-0.42171147
93	0xbec77ed8	-0.38963962
94	0x3e234ebf	0.15948008
95	0x3eba07e3	0.36334142
96	0xbe969936	-0.29413766
97	0xbea66ca3	-0.32504758
98	0x3f028bb6	0.5099443
99	0xbd74ca34	-0.05976315
100	0x3ecacd06	0.39609545
101	0x3f0e3a4d	0.5555771
102	0x3d110089	0.0354009
103	0x3e27821b	0.16358225
104	0xbbfda031	-0.0077400436
105	0xbe7b9b67	-0.24571
106	0x3ee12afb	0.43978104
107	0xbefb3c7a	-0.49069577
108	0xbde4270d	-0.11140261
109	0x3eb389c9	0.3506606
110	0x3e81f3ac	0.2538122
111	0x3efb3aeb	0.49068388
112	0x3e3bc591	0.18337084
113	0xbdff03bf	-0.124518864
114	0xbe2c8ab4	-0.16849786
115	0xbea3f926	-0.32026023
116	0x3e37b20e	0.17939016
117	0xbed67e1f	-0.41893098
118	0x3d32695b	0.043557506
119	0xbd307fe5	-0.04309072
120	0xbe88fa31	-0.2675338
121	0x3e721843	0.23642068
122	0xbbeba3cc	-0.007191157
123	0x3f53e603	0.82772845
124	0xbe41fbd4	-0.18943721
125	0x3f12d7f8	0.5736079
126	0x3eaf86cf	0.34282538
127	0x3f12c231	0.5732756
128	0xbeae41af	-0.34034488
129	0x3eb277ca	0.34857017
130	0x3eb5366e	0.3539309
131	0x3f00bc50	0.5028734
132	0xbe55f518	-0.20894277
133	0x3f0549ad	0.52065545
134	0xbf2b5376	-0.66924226
135	0x3d3041dd	0.043031562
136	0x3e91ab96	0.28451222
137	0x3d957d3a	0.07299276
138	0x3c7bcadc	0.01536819
139	0x3d4d3167	0.050095942
140	0xbe48ad29	-0.19597305
141	0xbe94ce93	-0.29063854
142	0xbe7d9d19	-0.24766959
143	0x3c1bc833	0.00950818
144	0xbea2a706	-0.31768054
145	0x3c26d90a	0.010183582
146	0x3ec64716	0.3872611
147	0xbd942e3c	-0.07235381
148	0xbe5d93c6	-0.21638402
149	0xbd3382a7	-0.04382577
150	0x3ee639c0	0.44965935
151	0xbd3f476b	-0.04669897
152	0x3db43953	0.08799996
153	0x3e8298d4	0.25507224
154	0x3d964df7	0.07339089
155	0x3f11daaa	0.5697428
156	0xbd49a5d8	-0.049230427
157	0x3d93ff85	0.07226471
158	0x3eb08751	0.34478238
159	0x3e8b0468	0.271518
160	0x3e8ac4e1	0.27103332
161	0xbe21dca8	-0.1580683
162	0xbe978800	-0.29595947
163	0x3e83faa4	0.2577716
164	0x3de7f113	0.11325278
165	0x3ee7daf8	0.45284247
166	0x3f2a3e6f	0.66501516
167	0x3deb094a	0.11476381
168	0x3c5af6d6	0.013364514
169	0xbf0ece81	-0.5578385
170	0x3dbc662a	0.09199174
171	0x3dd47de6	0.10375576
172	0xbe86eec1	-0.2635403
173	0x3dccaaf6	0.09993546
174	0xbe0cd921	-0.13754703
175	0x3f26db44	0.6517832
176	0xbf00f495	-0.503732
177	0x3f1adc33	0.6049225
178	0x3f2d3efd	0.6767424
179	0xbe92f117	-0.28699562
180	0x3f40f5dd	0.7537516
181	0xbea29281	-0.317524
182	0x3ebaf5c1	0.3651562
183	0xbd82602f	-0.06366002
184	0xbf0b057d	-0.5430525
185	0xbdb80419	-0.089851566
186	0x3ed90fa5	0.42394748
187	0x3cf7d740	0.030254006
188	0x3de57422	0.11203791
189	0x3ea8584b	0.32879862
190	0x3ea2b944	0.3178197
191	0x3e167f42	0.14696983
192	0xbe654a12	-0.22391537
193	0x3e188999	0.1489624
194	0xbe376456	-0.17909369
195	0x3f11c721	0.5694447
196	0xbd7cf3a3	-0.061755788
197	0xbe83ebb4	-0.25765765
198	0xbe68f1d4	-0.227485
199	0x3ee3ec36	0.44516152
200	0x3dfda1c9	0.12384374
201	0xbe46ff18	-0.19433248
202	0xbe0ac924	-0.13553292
203	0x3e9da7c6	0.30792063
204	0xbddebb82	-0.10875608
205	0x3e4f76d3	0.20260172
206	0x3eeb0b36	0.4590699
207	0x3ed4e4f9	0.41580942
208	0x3ed26f67	0.41100618
209	0xbf3a3020	-0.7272968
210	0x3e1b371f	0.15157746
211	0x3eb74abb	0.35799202
212	0xbecf3ba1	-0.4047518
213	0x3eba0b4b	0.3633674
214	0x3f0a9408	0.5413213
215	0xbe96e591	-0.2947202
216	0xbdda256f	-0.10651671
217	0x3e1ed698	0.15511549
218	0x3eaf3ba1	0.3422518
219	0xbe8579b4	-0.26069415
220	0x3f04dca8	0.51899195
221	0xbe444c5d	-0.19169755
222	0xbdb1261a	-0.086498454
223	0x3f78a29f	0.9712314
224	0xbd18970e	-0.037253432
225	0xbe928082	-0.2861367
226	0xbe12089d	-0.14261098
227	0xbf08bdd9	-0.53414685
228	0x3d8acf22	0.06777789
229	0x3e6d27ad	0.23159666
230	0x3ee0756f	0.43839595
231	0x3f4ca73a	0.7994267
232	0xbd5b81ce	-0.05359059
233	0x3e3d5e8f	0.18493102
234	0xbec7c7bc	-0.39019573
235	0xbd2f663d	-0.04282211
236	0xbe9aa21c	-0.30201805
237	0xbe05ed1a	-0.13078728
238	0xbe4faf29	-0.20281662
239	0xbe8719ab	-0.2638677
240	0xbe94be12	-0.29051262
241	0xbe272470	-0.16322494
242	0xbec5e882	-0.38653952
243	0x3dcce2fa	0.1000423
244	0x3f0d3ab9	0.5516773
245	0xbe1ff64c	-0.15621299
246	0x3d492e6b	0.049116533
247	0x3e98f4ed	0.29874364
248	0x3f618b96	0.88103616
249	0x3e239f22	0.15978673
250	0xbdce15e5	-0.1006277
251	0x3f086a93	0.5328762
252	0xbe1b67d2	-0.15176323
253	0xbe7d8240	-0.24756718
254	0x3e87763e	0.264574
255	0x3ca4bbfc	0.02010917

fc_numerical.2.running_mean f4 [256]
0	0x401a2982	2.4087834
1	0x3fc25ad2	1.5183966
2	0x3f91257e	1.1339567
3	0x400156c6	2.0209212
4	0x4017b880	2.370636
5	0x4002b660	2.0423813
6	0x408d1d26	4.409808
7	0x404c3274	3.1905794
8	0x400e4925	2.2232144
9	0x3fd7eea2	1.68697
10	0x406815e4	3.626336
11	0x3fe9e2f7	1.8272389
12	0x3fcb3613	1.5875877
13	0x3f87d8d6	1.0613048
14	0x3fca1fef	1.5790995
15	0x4081cd9c	4.056349
16	0x402bafe0	2.6826096
17	0x3fbfc25c	1.4981189
18	0x403a6887	2.9126298
19	0x40272a01	2.6119387
20	0x3f560096	0.83594644
21	0x3fb51e4f	1.4149874
22	0x4007083b	2.1098773
23	0x3f7ce460	0.9878597
24	0x3fa580f5	1.292998
25	0x3f8a5912	1.0808432
26	0x3f0de89e	0.5543307
27	0x400bc93d	2.1841576
28	0x3ef062df	0.46950433
29	0x3fca7916	1.5818202
30	0x3f9da131	1.2314817
31	0x3f329c8e	0.69770133
32	0x401c7d97	2.4451654
33	0x40095506	2.1458144
34	0x4003017f	2.0469663
35	0x3f823976	1.0173786
36	0x3f94be0f	1.1620501
37	0x3fd29338	1.6451178
38	0x3eb4260c	0.35185277
39	0x40349f54	2.8222246
40	0x40405cdc	3.0056677
41	0x4037f91b	2.8745792
42	0x400fb6f6	2.245542
43	0x402e35f0	2.722042
44	0x40039384	2.0558786
45	0x3fda0e6c	1.7035651
46	0x3f959260	1.1685295
47	0x400226c5	2.0336163
48	0x4007b0f4	2.1201754
49	0x4002cfac	2.0439253
50	0x40022abc	2.0338583
51	0x3fd7e9c5	1.6868216
52	0x401a345b	2.4094455
53	0x3f987608	1.191102
54	0x40686237	3.6309946
55	0x40333c99	2.8005736
56	0x400ceb8c	2.2018766
57	0x3faea21f	1.3643225
58	0x408523d7	4.160625
59	0x40095ae3	2.1461723
60	0x404a92d9	3.1652129
61	0x3fa6589c	1.2995791
62	0x403fba2c	2.995738
63	0x3fe12aa2	1.7591136
64	0x3f5d85c5	0.8653224
65	0x403090aa	2.7588296
66	0x40a4bc7f	5.14801
67	0x3fa5e651	1.2960912
68	0x3f5a4de3	0.85275096
69	0x3ef7b89b	0.4838303
70	0x3fb03fd8	1.3769484
71	0x3fd4a58a	1.6613019
72	0x3fc11eea	1.5087559
73	0x3ff1dd3d	1.8895642
74	0x3fb29ae8	1.3953524
75	0x4034bf77	2.824186
76	0x408122ac	4.0354824
77	0x3f99bd34	1.2010865
78	0x402c4ba2	2.6921163
79	0x3fa3e583	1.2804416
80	0x4033dbff	2.8103025
81	0x401086e6	2.2582335
82	0x403ebaae	2.980144
83	0x400f8523	2.242501
84	0x3f01a40f	0.5064096
85	0x3f6c16ec	0.92222476
86	0x3fcd0a9f	1.6018866
87	0x4044c876	3.0747352
88	0x3f81fdb6	1.0155551
89	0x40331220	2.7979813
90	0x3fb21ed5	1.3915659
91	0x3fc9b694	1.5758843
92	0x3fd1ba5c	1.6384997
93	0x40a9faa8	5.3118477
94	0x407db4cd	3.9641602
95	0x3f96ba2c	1.1775565
96	0x40288a03	2.6334236
97	0x3f6f0b25	0.9337638
98	0x400efe98	2.2342892
99	0x3fa9083a	1.3205636
100	0x3fc50a15	1.5393702
101	0x3faacca2	1.3343699
102	0x3fe86c54	1.8158059
103	0x4022183f	2.5327299
104	0x3f90d532	1.1315062
105	0x3fd07708	1.6286325
106	0x40384c27	2.879648
107	0x3fc7c578	1.5607138
108	0x400f7588	2.2415485
109	0x3f858c15	1.0433375
110	0x4044cbeb	3.0749462
111	0x3fc2f4ea	1.5230992
112	0x4013359d	2.3001473
113	0x404fb72d	3.2455552
114	0x40452bfc	3.0808096
115	0x3f93cad2	1.1546271
116	0x3fa18533	1.2618774
117	0x3fe5f064	1.7963986
118	0x3f1347d6	0.5753149
119	0x3fca6556	1.5812175
120	0x3f462d39	0.77412754
121	0x3f4ed3e2	0.8079206
122	0x3f9b6a54	1.2141824
123	0x40376be5	2.8659604
124	0x40141ac5	2.314134
125	0x4031722e	2.772594
126	0x3f75a6aa	0.95957434
127	0x3fd060ce	1.6279542
128	0x400c805b	2.1953342
129	0x40908106	4.51575
130	0x3fe30052	1.7734473
131	0x400b68d9	2.1782744
132	0x3f9173c0	1.1363449
133	0x3fede7ee	1.8586404
134	0x400eef5d	2.2333596
135	0x404e232a	3.2208962
136	0x40395f75	2.8964512
137	0x3fccbec9	1.5995723
138	0x3fdb6eaa	1.7143147
139	0x3f57e229	0.8432947
140	0x3fd56787	1.6672219
141	0x3fa27925	1.269322
142	0x4016b52b	2.3548076
143	0x3f8dfcf8	1.1092825
144	0x3fc11a8e	1.5086229
145	0x3f9e574e	1.2370393
146	0x408b451f	4.3521876
147	0x3f9d0009	1.2265636
148	0x40031776	2.048307
149	0x3f91f076	1.1401508
150	0x40236bc5	2.5534527
151	0x3ed49ba0	0.41524982
152	0x3fdf654d	1.745279
153	0x40c6c6e8	6.2117805
154	0x3fc3432a	1.5254872
155	0x402138a4	2.519082
156	0x4076bad1	3.8551524
157	0x40668d9e	3.6023936
158	0x401cb7d8	2.448721
159	0x3f8b3af5	1.0877367
160	0x3fded17d	1.7407681
161	0x4004fde4	2.0779963
162	0x3f8796f3	1.0592941
163	0x3fa0ee88	1.2572794
164	0x3ffc3c55	1.9705912
165	0x3fe07525	1.753575
166	0x4022e33b	2.545119
167	0x3fdf8ae8	1.7464266
168	0x3e27ff4e	0.16405985
169	0x3fb43992	1.4080069
170	0x407443f9	3.8166487
171	0x4033603e	2.8027492
172	0x3f5bf1bd	0.8591574
173	0x3fa3aa63	1.2786373
174	0x400197a1	2.0248797
175	0x402f0623	2.7347496
176	0x401eb7e2	2.4799733
177	0x3fef31a5	1.8687025
178	0x40025e67	2.0370119
179	0x3fc005f3	1.5001816
180	0x4090bebc	4.523283
181	0x3fa2a6cb	1.2707151
182	0x3f8f0564	1.117352
183	0x3ee9f4da	0.4569462
184	0x40429b55	3.0407307
185	0x3f749ebc	0.9555471
186	0x3ff28ccc	1.8949218
187	0x400ba1d0	2.1817513
188	0x3f2d8080	0.677742
189	0x3fb0a408	1.3800058
190	0x3f53c038	0.8271518
191	0x40428226	3.0391936
192	0x400cbaa6	2.198892
193	0x3f743043	0.9538614
194	0x404ccf4c	3.2001524
195	0x3fa20569	1.2657901
196	0x3fb78151	1.4336339
197	0x3ffd6d40	1.9798965
198	0x3fdabfd6	1.7089794
199	0x3fd5a1f8	1.6690054
200	0x3f530acd	0.82438356
201	0x3f876139	1.0576545
202	0x3fd524c6	1.6651847
203	0x3f8fc64b	1.1232389
204	0x40389566	2.8841186
205	0x40299a7d	2.6500542
206	0x4029e2ef	2.654476
207	0x3fc79a4e	1.5593965
208	0x3ff49be0	1.9110069
209	0x3fa9bce3	1.3260769
210	0x3fe35031	1.7758847
211	0x3fe596d6	1.7936656
212	0x4006fd02	2.1091924
213	0x3f81828c	1.0117965
214	0x404d035b	3.2033298
215	0x3ee9fe4e	0.45701832
216	0x3f92b58d	1.1461655
217	0x3f623323	0.8835928
218	0x3f987b61	1.1912652
219	0x3f99eb51	1.2024938
220	0x40083de0	2.1287766
221	0x4047fbff	3.1247556
222	0x3f6b4f34	0.9191773
223	0x3fa30da9	1.2738544
224	0x400c0e29	2.1883643
225	0x3f966644	1.1749959
226	0x4053364f	3.3001897
227	0x3f8c0956	1.0940349
228	0x3fd373f1	1.6519758
229	0x3fa6a0b2	1.301779
230	0x403fa2b8	2.9943066
231	0x4097b4a0	4.740799
232	0x3fbdca50	1.4827366
233	0x400a8e6b	2.1649425
234	0x3fceb441	1.6148759
235	0x3fba3d1a	1.4549897
236	0x401f52e5	2.4894345
237	0x3f11672d	0.5679806
238	0x3ffa7e89	1.9569865
239	0x400ec4cc	2.2307615
240	0x402944d4	2.644826
241	0x402a98ad	2.6655686
242	0x3fc992c5	1.5747916
243	0x3fff05ab	1.9923605
244	0x3fda538a	1.7056744
245	0x3f9219de	1.1414144
246	0x3f4970e5	0.7868789
247	0x3fc7ac7a	1.5599511
248	0x4028b3c8	2.635973
249	0x4034cce9	2.8250067
250	0x3fbdcbf9	1.4827873
251	0x3f9c3c86	1.220597
252	0x3f8ee0be	1.1162336
253	0x3fc912e6	1.5708892
254	0x3f082e90	0.5319605
255	0x40a04494	5.0083714

fc_numerical.2.running_var f4 [256]
0	0x41e2e0ae	28.359707
1	0x41a61d4b	20.764303
2	0x4159ca81	13.611939
3	0x4207df10	33.967834
4	0x42215860	40.336304
5	0x41a2f26a	20.368366
6	0x42c2e9e5	97.456825
7	0x4207dbbc	33.964584
8	0x41cf1a7c	25.887932
9	0x419bc035	19.468851
10	0x42215ed1	40.342594
11	0x41e9c987	29.223402
12	0x41acde89	21.60866
13	0x40eb1103	7.3458266
14	0x40ff65cb	7.981176
15	0x429a7a0a	77.23836
16	0x420ba006	34.906273
17	0x41476159	12.4612665
18	0x4213ae8a	36.92045
19	0x42001616	32.02157
20	0x41161798	9.38076
21	0x4124dbe5	10.303685
22	0x41d0e4f7	26.1118
23	0x413fb415	11.981465
24	0x414bb967	12.732764
25	0x4189b684	17.214119
26	0x416d7f1c	14.843533
27	0x4182cdb5	16.350443
28	0x4123a5c2	10.227968
29	0x4155f249	13.371652
30	0x41c3b34f	24.462553
31	0x4130bf6b	11.046733
32	0x41dbc86c	27.472862
33	0x419c1c47	19.513807
34	0x41a7b4d6	20.963299
35	0x4186a64a	16.831196
36	0x41256c43	10.338931
37	0x41ed7c8f	29.68582
38	0x40dbbf32	6.8670893
39	0x41fff574	31.99485
40	0x42038699	32.881443
41	0x4222c99e	40.69689
42	0x422542f9	41.315403
43	0x42083145	34.048115
44	0x42035624	32.83412
45	0x41dc8b2f	27.56796
46	0x418cc80c	17.59768
47	0x41c8cf53	25.101233
48	0x41b7fa38	22.997177
49	0x41b5e5b8	22.737167
50	0x41bbba04	23.465828
51	0x41d634e7	26.775831
52	0x41767dd5	15.405721
53	0x413f8ed1	11.972367
54	0x4248702e	50.10955
55	0x420e5569	35.58341
56	0x41c19407	24.197279
57	0x418b9263	17.446478
58	0x422d11a1	43.267216
59	0x42039eb9	32.905003
60	0x4218df8c	38.218307
61	0x41469583	12.411502
62	0x4259bc1a	54.433693
63	0x41e7c8a8	28.972977
64	0x410d020b	8.812999
65	0x41e12d2c	28.147057
66	0x42bbdd4f	93.93224
67	0x40dc21da	6.8791323
68	0x413e1a3e	11.881407
69	0x40db35ac	6.8503017
70	0x4130be62	11.04648
71	0x41d14123	26.156805
72	0x417a5c91	15.647599
73	0x417ab26e	15.668562
74	0x411eb592	9.919329
75	0x41cbbb74	25.46653
76	0x4237d8c8	45.9617
77	0x412dbe9a	10.859034
78	0x41eb7762	29.433292
79	0x41000356	8.000814
80	0x4210394b	36.05595
81	0x41e8f85c	29.12127
82	0x42018ed3	32.389477
83	0x41eeea2f	29.864347
84	0x410a0980	8.627319
85	0x409bfdce	4.874732
86	0x41c0ff6b	24.124716
87	0x42856108	66.689514
88	0x4181c8fb	16.223135
89	0x42353dea	45.310463
90	0x41883d18	17.02983
91	0x422d1809	43.27347
92	0x41b7c68c	22.971947
93	0x42a055d8	80.16766
94	0x41dc68b6	27.551128
95	0x41a3dbc5	20.48231
96	0x4209b7c3	34.429455
97	0x41894fb9	17.163927
98	0x41d94235	27.157328
99	0x40ff256e	7.973319
100	0x419f6747	19.925428
101	0x4192ddb2	18.35825
102	0x41da2b0b	27.271017
103	0x41d8eac0	27.114624
104	0x4190f1d9	18.11809
105	0x415dbc70	13.858505
106	0x422849ba	42.072
107	0x4197e1ae	18.985195
108	0x421b1509	38.770542
109	0x416cc4f9	14.798089
110	0x41c210d8	24.258224
111	0x417e7e2c	15.905804
112	0x41c26965	24.301462
113	0x426dd6d2	59.459785
114	0x42421041	48.515873
115	0x410d956e	8.848982
116	0x41227af1	10.155015
117	0x4110d630	9.052292
118	0x40a5a731	5.176659
119	0x413fe295	11.992818
120	0x4112cdac	9.175213
121	0x4115862d	9.345258
122	0x40ca355d	6.319014
123	0x41de65bf	27.79968
124	0x41ff846d	31.939661
125	0x428476c9	66.232
126	0x4142053a	12.126276
127	0x41a9d28c	21.227806
128	0x41adfed1	21.749422
129	0x4285c639	66.88715
130	0x41dfc1ff	27.969725
131	0x420c1dbb	35.029034
132	0x41c33a1c	24.403374
133	0x41ba30f1	23.273897
134	0x41f9e58b	31.237082
135	0x41f20cf1	30.256319
136	0x4221e5b5	40.474323
137	0x41bdffda	23.749928
138	0x415e1d6e	13.882185
139	0x4136c0b4	11.422047
140	0x41ff4e1a	31.913136
141	0x41035dab	8.210368
142	0x41b2c71f	22.347227
143	0x40e573d9	7.1703916
144	0x4155a68a	13.353159
145	0x40ee8c4d	7.4546266
146	0x4268682b	58.101727
147	0x413d33b8	11.825127
148	0x41e8e113	29.1099
149	0x4194ee07	18.616224
150	0x421a93b0	38.644226
151	0x40aaeb8b	5.341253
152	0x41800d0e	16.006374
153	0x42697d8b	58.3726
154	0x4168be2a	14.546427
155	0x41f99eef	31.202604
156	0x4264c3d7	57.19125
157	0x4235e5cc	45.47441
158	0x41f30e0c	30.381859
159	0x41a16903	20.176275
160	0x41cc83cc	25.564354
161	0x41f8e2ad	31.110682
162	0x4157d781	13.490113
163	0x41817afb	16.18505
164	0x41d4eded	26.616175
165	0x41a0dc39	20.10753
166	0x420d22ce	35.28399
167	0x41ab4cbb	21.412466
168	0x4110c80e	9.048841
169	0x41d771ed	26.930628
170	0x421a142e	38.519707
171	0x42131260	36.767944
172	0x41c44e86	24.538342
173	0x4188e783	17.113043
174	0x41adc9f1	21.723604
175	0x4215d269	37.45548
176	0x41ba1ca7	23.26399
177	0x41a47881	20.55884
178	0x419f0cd7	19.88127
179	0x40e10d87	7.0329013
180	0x42cb8f59	101.779976
181	0x41481d81	12.507203
182	0x41111bd5	9.069295
183	0x40505578	3.2552166
184	0x425bc226	54.939598
185	0x40d2909a	6.5801516
186	0x418c416d	17.531946
187	0x414176c7	12.091498
188	0x408729f7	4.2238727
189	0x417860b9	15.523614
190	0x416ac3c2	14.672792
191	0x41c7d803	24.980474
192	0x41d7f261	26.99335
193	0x4118f53e	9.559874
194	0x4237aef7	45.920864
195	0x416a792d	14.654584
196	0x414c3089	12.761849
197	0x41a6c757	20.847334
198	0x41b6272d	22.769129
199	0x41df6300	27.92334
200	0x418394c9	16.447649
201	0x41930846	18.37904
202	0x41b7f89f	22.996397
203	0x4156a68c	13.415661
204	0x422aaae2	42.666878
205	0x41a95fc6	21.171764
206	0x41e41717	28.511274
207	0x41eb21d9	29.391527
208	0x41ea8497	29.314741
209	0x413bdf1f	11.741973
210	0x4235e4ed	45.47356
211	0x41efc6d9	29.972094
212	0x4116b097	9.418113
213	0x4151737a	13.0906925
214	0x423098aa	44.149086
215	0x415271ca	13.152781
216	0x40fb48f4	7.8526554
217	0x4174e095	15.30483
218	0x4174b19f	15.293365
219	0x4137dfc0	11.492126
220	0x41ae2513	21.768103
221	0x42161fd0	37.531067
222	0x41295a6c	10.584576
223	0x414c6159	12.7737665
224	0x42020fba	32.515358
225	0x41425f5c	12.148281
226	0x42359006	45.390648
227	0x4169e95d	14.619473
228	0x4180282d	16.019617
229	0x419e2d66	19.772167
230	0x42429800	48.648438
231	0x42e4f517	114.47869
232	0x419627c7	18.769423
233	0x41bd35c9	23.651262
234	0x4168247b	14.508906
235	0x41b6aa71	22.833223
236	0x41ce5aa2	25.794254
237	0x40e49cbd	7.144133
238	0x41a6765a	20.807789
239	0x41bdd16e	23.72726
240	0x41a02643	20.018682
241	0x427b4060	62.812866
242	0x41874fb9	16.913927
243	0x41f10cee	30.131313
244	0x4192824e	18.313625
245	0x411469d0	9.275833
246	0x41927ca1	18.310854
247	0x418fbd5c	17.96746
248	0x42214932	40.32148
249	0x4225cf23	41.452282
250	0x422ab7ac	42.679367
251	0x413b89e6	11.721167
252	0x419825ac	19.018394
253	0x41435742	12.208803
254	0x414e6dd1	12.901811
255	0x4287ecf4	67.9628

fc_numerical.3.weight f4 [64, 256]
0	0x3db34a5f	0.087544195
1	0x3db648ab	0.08900579
2	0xbd0206b5	-0.031744678
3	0xbe2c592d	-0.16830893
4	0xbe01c010	-0.12670922
5	0x3d2d3b23	0.042292725
6	0x3d9ec2a1	0.07751966
7	0x3d36e93a	0.044656016
8	0xbbdd4760	-0.0067528933
9	0x3be78135	0.007064963
10	0x3dc8e34c	0.098089784
11	0x3e058488	0.13038838
12	0x3dc7c9f6	0.09755318
13	0xbcaaab95	-0.02083377
14	0xbcfdc8cc	-0.030979536
15	0x3ea657ad	0.32488766
16	0xbed473e4	-0.41494668
17	0x3dea9311	0.11453832
18	0xbce751e0	-0.028237283
19	0x3ab9c1d9	0.0014172151
20	0x3e4cd8be	0.20004556
21	0x3d59605c	0.05307041
22	0x3e78dff7	0.24304186
23	0xbe0bc193	-0.13648061
24	0x3bba9b47	0.00569478
25	0xbdb84120	-0.089967966
26	0x3d30703d	0.04307579
27	0x3d1a5e6e	0.03768771
28	0xbcf5f54c	-0.030024193
29	0x3de4de45	0.11175207
30	0xbe324304	-0.17408377
31	0x3c6ad4e7	0.014332986
32	0x3d755fdf	0.059905883
33	0xbc4466bd	-0.011987385
34	0x3dcf41f9	0.10120005
35	0xbdeac1ff	-0.11462783
36	0x3d96e1bc	0.07367274
37	0xbbf58015	-0.007492075
38	0xbd7e6d9f	-0.06211626
39	0x3cbd8008	0.02313234
40	0x3dd13671	0.10215462
41	0x3d93b45e	0.07212137
42	0x3c9b8caa	0.018987972
43	0x3e8f5104	0.27991498
44	0x3e21eb48	0.15812409
45	0xbdb0d7b4	-0.08634892
46	0x3d949f2d	0.07256923
47	0x3e05d6aa	0.13070169
48	0x3e097e68	0.13427126
49	0xbcfaa23b	-0.030594936
50	0xbc905c82	-0.017622236
51	0x3dfb2b7e	0.12264155
52	0xbd794964	-0.060861006
53	0x3dd1bf62	0.102415815
54	0x3d536653	0.051611256
55	0xbe7737ec	-0.24142426
56	0xbe15a47b	-0.14613526
57	0xbdb68797	-0.089125805
58	0xbd3dd3b6	-0.04634448
59	0x3cb75fdd	0.022384578
60	0xbe10217c	-0.14075273
61	0x3e5458d2	0.20737007
62	0xbd584e1c	-0.052808866
63	0x3c8c3586	0.017115366
64	0xbd755604	-0.059896484
65	0x3df34c55	0.118797936
66	0x3e273ebb	0.16332524
67	0xbd417f78	-0.047240704
68	0x3e0a17ca	0.13485637
69	0x3ce1c01b	0.027557423
70	0x3deb0e19	0.11477298
71	0xbdc11209	-0.09427268
72	0xbde53031	-0.111908324
73	0x3e070c56	0.131883
74	0xbd9b922d	-0.0759624
75	0xbd579fba	-0.05264256
76	0x3dc83162	0.09775044
77	0x3db8f26f	0.090306155
78	0xbda1026a	-0.078617886
79	0xbcc1c26d	-0.02365228
80	0x3e26109f	0.16217278
81	0xbde37aa7	-0.111073785
82	0x3e010919	0.12601127
83	0xbc726f09	-0.014796981
84	0xbe536637	-0.2064446
85	0xbc366704	-0.011132959
86	0xbe3ee161	-0.18640663
87	0x3c5dc60d	0.0135359885
88	0xbca4e277	-0.020127518
89	0xbe075472	-0.13215807
90	0xbe22dbbf	-0.15904139
91	0xbdd1afa8	-0.10238582
92	0xbdcdd0e9	-0.10049612
93	0xbe424be7	-0.18974267
94	0xbc704992	-0.014665978
95	0x3e104f1b	0.14092676
96	0x3e610c39	0.21977319
97	0xbe3cd1b1	-0.18439366
98	0x3d292289	0.0412927
99	0x3c397a3a	0.011320645
100	0xbd506817	-0.050880518
101	0xbc3e13ec	-0.011601429
102	0xbcac184a	-0.021007676
103	0x3d9df6f0	0.07713115
104	0x3dff6bdf	0.12471747
105	0x3d62a949	0.055337224
106	0xbb660721	-0.0035099464
107	0x3d762643	0.060095083
108	0xbe8e5f87	-0.27807257
109	0x3c2638a2	0.010145338
110	0xbca2c715	-0.01987032
111	0x3c88dce4	0.016706891
112	0xbe9feb29	-0.312341
113	0xbe9b70fc	-0.30359638
114	0xbe8b1578	-0.27164817
115	0x3e13709b	0.14398424
116	0x3dd5ec4f	0.10445463
117	0x3d86211a	0.06549282
118	0x3e162f5e	0.14666507
119	0x3d232e9e	0.03983938
120	0xbc2fd836	-0.010732701
121	0xbe465067	-0.19366609
122	0xbcab3b8b	-0.020902416
123	0xbd413e38	-0.047178477
124	0x3d7a091c	0.061043844
125	0x3d03eb8e	0.032207064
126	0x3deb0261	0.11475063
127	0xbe0ba200	-0.13636017
128	0x3dce71ed	0.10080323
129	0x3e06d9cb	0.13169019
130	0x3dcf3561	0.10117603
131	0xbdfdc814	-0.123916775
132	0xbd6187a7	-0.05506101
133	0xbe2c827d	-0.16846652
134	0x3d71d648	0.059042245
135	0x3ec7ad7e	0.38999552
136	0xbe4986c8	-0.19680321
137	0x3dc598fd	0.09648321
138	0x3e58e903	0.21182637
139	0x3dbc3396	0.09189527
140	0xbe252916	-0.16128954
141	0x3c322571	0.010873185
142	0x3e01ebdf	0.12687634
143	0x3d81acc1	0.06331778
144	0x3e03f85b	0.12887709
145	0x3db24a38	0.08705562
146	0x3f08924f	0.5334825
147	0xbcfb4021	-0.030670227
148	0x3dac456f	0.08411681
149	0xbd596f60	-0.05308473
150	0xbb0ca2b7	-0.002145929
151	0xbda52b81	-0.08064938
152	0xbc171e35	-0.0092235105
153	0x3dd70e25	0.10500745
154	0xbd884caa	-0.066552475
155	0x3d3b0a84	0.045664325
156	0xbe59587d	-0.21225162
157	0x3db3826b	0.0876511
158	0xbe3adcd1	-0.18248297
159	0xbdc77209	-0.09738547
160	0x3f086e98	0.5329375
161	0xbd7c3f91	-0.06158406
162	0xbda4463b	-0.08021208
163	0xbe874141	-0.26416972
164	0xbe0d5b86	-0.13804445
165	0x3d84511c	0.06460783
166	0xbc2ccf34	-0.010547448
167	0xbe49d7ec	-0.19711274
168	0x3c77f46f	0.015133961
169	0xbd2911a0	-0.041276574
170	0xbb865cd7	-0.004100423
171	0xbdadbad7	-0.084829025
172	0xbdcbc36f	-0.099493854
173	0xbdd93c4f	-0.10607206
174	0xbe0e959c	-0.13924259
175	0x3e11d4eb	0.14241378
176	0x3daffa3b	0.085926495
177	0x3e8f527a	0.27992612
178	0x3e03da4e	0.12876245
179	0x3c9071a0	0.017632306
180	0x3e070fcf	0.13189624
181	0x3dc5c4df	0.09656691
182	0x3d1b697f	0.037942406
183	0x3d5338b0	0.051567733
184	0x3d86724d	0.0656477
185	0xbe4d2b61	-0.20036079
186	0xbd3328a0	-0.043739915
187	0x3d3cf3f3	0.046131086
188	0xbce99c64	-0.028516956
189	0x3dbf323e	0.09335755
190	0xbd5f3ff0	-0.054504335
191	0x3cd3ea7d	0.025868649
192	0x3e4f779b	0.2026047
193	0x3ebaebaf	0.36507937
194	0x3db5cecf	0.08877336
195	0x3e172f3e	0.14764115
196	0xbbe7de4e	-0.0070760613
197	0xbe31b2e8	-0.17353404
198	0x3dba2ac8	0.09090191
199	0xbdeba7d5	-0.11506621
200	0xbe09b530	-0.13448024
201	0x3c9fd2ee	0.019509759
202	0x3beca1a0	0.0072214156
203	0x3d80f715	0.06297127
204	0x3ed36e92	0.41295296
205	0xbd391b9d	-0.04519235
206	0x3dbea450	0.09308684
207	0x3eb57e2f	0.35447833
208	0xbded0dbe	-0.11574887
209	0x3ce04ffb	0.027381888
210	0x3c4a406c	0.012344461
211	0x3e0d9978	0.13828075
212	0x3c280bd4	0.010256726
213	0x3dc0dac6	0.09416728
214	0x3caeda20	0.021344244
215	0xbdaf9fc3	-0.08575394
216	0x3db652bc	0.08902499
217	0x3ca2151b	0.019785454
218	0xbdb2768b	-0.087140165
219	0x3e1285c6	0.14308843
220	0xbd80b45d	-0.062844016
221	0xbdda2c4d	-0.10652981
222	0x3d842aa8	0.064534485
223	0xbbdadf66	-0.006679463
224	0x3dfd50f9	0.1236896
225	0xbcea8012	-0.028625522
226	0xbdc00bd5	-0.09377257
227	0xbd4aa199	-0.049470518
228	0x3dafd0cd	0.085847475
229	0xbd8257d6	-0.063644096
230	0xbbf2922d	-0.0074026794
231	0x3c636149	0.013878175
232	0xbb326d59	-0.002722582
233	0xbe16de59	-0.14733256
234	0x3e448af4	0.19193631
235	0xbde93d1f	-0.11388611
236	0xbc8a92d9	-0.016915726
237	0x3c58ee30	0.013240382
238	0xbe027042	-0.12738135
239	0xbe605d28	-0.21910536
240	0xbdc7a165	-0.097475804
241	0xbd3c8841	-0.04602838
242	0x3e350856	0.17678961
243	0xbe744834	-0.23855668
244	0xbc93a9d7	-0.018025322
245	0x3dc553a5	0.096350946
246	0x3dc576b6	0.09641783
247	0x3ddabea7	0.10680895
248	0x3e068875	0.13137992
249	0xbe21d24f	-0.15802883
250	0x3be6cf38	0.0070437454
251	0x3d973ac2	0.07384254
252	0xbe92c9b6	-0.28669518
253	0x3cde17c9	0.027110951
254	0xbd15a9a1	-0.036538724
255	0xbf1adc7e	-0.60492694

fc_numerical.3.bias f4 [64]
0	0x3d53bd4d	0.051694203
1	0xbf18a521	-0.59626967
2	0x3e044587	0.12917148
3	0xbcecd51d	-0.028910214
4	0xbde7111b	-0.112825595
5	0x3dae5e42	0.08514072
6	0x3d88471e	0.066541895
7	0xbe14b7f8	-0.14523304
8	0xbe92b84d	-0.28656235
9	0xbe6e7203	-0.2328568
10	0xbd869aac	-0.0657247
11	0xbd678c51	-0.0565303
12	0x3e3e5f85	0.18591125
13	0x3cbfd1cb	0.023415467
14	0xbe85234f	-0.260035
15	0xbe125f3b	-0.1429414
16	0xbea7a79d	-0.32745066
17	0x3d126e45	0.035749692
18	0xbd924276	-0.07141583
19	0xbeda0572	-0.4258228
20	0xbec788ef	-0.3897166
21	0xbf6c23f5	-0.92242366
22	0xbe2a7700	-0.16646957
23	0xbdca1738	-0.0986771
24	0xbdbacac8	-0.09120709
25	0xbf25869c	-0.6465852
26	0x3e8499ce	0.25898594
27	0xbd686419	-0.056736086
28	0x3e6f58c0	0.23373699
29	0xbe6b5590	-0.22981858
30	0xbe3d76a1	-0.18502285
31	0xbf10d27b	-0.5657117
32	0xbfc4ef1f	-1.5385474
33	0xbf9b58ae	-1.2136438
34	0x3dead3c1	0.1146617
35	0x3d9f1cd6	0.07769172
36	0xbeb75746	-0.35808772
37	0xbeda222f	-0.42604205
38	0xbcfced35	-0.030874828
39	0x3e57f91b	0.2109112
40	0xbd323f0c	-0.043517157
41	0xbdf332c3	-0.118749164
42	0xbd746338	-0.059664935
43	0x3e87919b	0.26478276
44	0xbdbfb271	-0.09360207
45	0xbda26c9e	-0.07930873
46	0xbe14aeba	-0.14519778
47	0x3f1cd762	0.6126615
48	0xbda7f2fc	-0.082006425
49	0xbe6fbe9f	-0.2341256
50	0x3e617b80	0.22019768
51	0x3e2e84d9	0.17042865
52	0xbd8ce8d1	-0.06880344
53	0xbf2a16b7	-0.6644091
54	0xbe19a8c7	-0.1500579
55	0xbe1a3ec7	-0.1506301
56	0xbe007797	-0.1254562
57	0xbdb3dfe7	-0.0878294
58	0xbf8ef030	-1.116705
59	0x3e91041f	0.28323457
60	0xbd4da045	-0.050201673
61	0x3d09a7ac	0.03360717
62	0xbde2dc11	-0.110771306
63	0xbd5c1138	-0.05372736

fc_numerical.5.weight f4 [64]
0	0x3e605777	0.21908365
1	0x3ee2d5b7	0.44303676
2	0x3c5678e9	0.013090351
3	0x3d6bf502	0.057606705
4	0x379d5b46	1.8758361e-05
5	0x3c582967	0.013193465
6	0x3cf5a8ce	0.029987719
7	0xb60e55c2	-2.1209567e-06
8	0x39b74992	0.00034959294
9	0x3c131025	0.008976017
10	0x388e632a	6.7895584e-05
11	0x39b403d7	0.00034335136
12	0x3eb11b97	0.34591362
13	0xb9a14243	-0.00030757682
14	0xb9bfb481	-0.00036564845
15	0x39d54c2f	0.00040683287
16	0x3e6629c4	0.2247687
17	0x3ef38063	0.4755889
18	0xb96e4465	-0.00022722928
19	0x3e50af3f	0.20379351
20	0x3f0118f2	0.5042869
21	0x3e74f07e	0.23919865
22	0x3e70b1bd	0.23505302
23	0x3e1ec7b0	0.15505862
24	0x3f0cdd6b	0.55025357
25	0x39162457	0.00014318652
26	0x38085a1a	3.250884e-05
27	0x39ad88e1	0.00033099114
28	0x3ce32c86	0.027731191
29	0x391ba417	0.0001484308
30	0x39437f60	0.000186441
31	0x3e528401	0.20558168
32	0x3e89c25e	0.26906103
33	0x3e8fa618	0.28056407
34	0x3eb2fb9c	0.34957588
35	0x3f0614b2	0.5237533
36	0x3e952480	0.2912941
37	0x3f29bf69	0.66307694
38	0x3abd9e41	0.0014466719
39	0x3e9b74ea	0.30362636
40	0xb91ef21d	-0.00015158248
41	0xbe3f9d85	-0.18712433
42	0x3a817607	0.0009877094
43	0x3ea35836	0.31903237
44	0x3d44b378	0.048022717
45	0xb9813cac	-0.0002465
46	0x3daeaade	0.08528684
47	0x3ef512c3	0.47865877
48	0xb66d3c9a	-3.5351027e-06
49	0x37798e60	1.4874706e-05
50	0xb9bd895f	-0.0003615124
51	0xb8d354b6	-0.00010077043
52	0x399423a7	0.00028255323
53	0x3ec2ccab	0.38046774
54	0x3f115866	0.5677551
55	0xb973cdd5	-0.00023250964
56	0x38fd996e	0.000120925586
57	0xb750059c	-1.2399072e-05
58	0x3ead41e1	0.33839324
59	0x3dec41c3	0.115359806
60	0xb9a2f147	-0.00031078813
61	0xbd5b80be	-0.053589575
62	0x3ed81263	0.42201528
63	0xb6a60df6	-4.948811e-06
