numerical_model_best_1.pth (torch, 245010 bytes, 13 tensors)

fc_numerical.0.weight f4 [256, 163]
000000 1e b2 a8 3c 42 2b 01 be 7f 67 65 bc dc 06 56 3e
       0.020592745 -0.12614158 -0.014001726 0.20901054
000010 5d 79 53 3e 17 5e 34 3f 93 bc bb 3e ab 39 f2 bd
       0.20651765 0.7045607 0.36667308 -0.118274055
000020 5e 2d 29 be 18 fd 0b 3e af 1a 67 3e d4 10 af 3d
       -0.16521212 0.13670766 0.22568773 0.085481316
000030 99 a8 92 3c 06 4e 12 3e 45 1f ed 3d 35 8f b6 3d
       0.01790266 0.14287576 0.1157823 0.08914033
000040 c0 4f c5 3d 85 45 d2 bc 5e 9e 6c 3e 3b c4 25 be
       0.09634352 -0.025667915 0.23107287 -0.16188137
000050 2a 68 33 3e ff 34 1f 3e 8c a5 5b 3d 3d 2f 5c 3d
       0.17520204 0.1554756 0.053624675 0.053755987
000060 ef cb cf bd 73 4c 0b bd 04 d4 4f bd f9 ff cd 3d
       -0.10146319 -0.034008455 -0.050739303 0.100585885
000070 cc f3 af bc 42 ee 2a 3d 8c 8d 2a bb 05 51 bf 3e
       -0.021478556 0.041731127 -0.002602431 0.373665
000080 8f ea 0a 3e 09 53 3d 3e bd d2 81 be 21 0b 9b 3d
       0.1356604 0.18488707 -0.25356093 0.07570482
000090 f8 2d 23 bf 57 5b 36 3e 19 9d 8c 3e b6 b1 72 be
       -0.6374202 0.17808281 0.27463606 -0.23700604
0000a0 7c 07 ec 3e fa 72 2f bd 27 16 3b 3f 35 e8 04 3f
       0.4609946 -0.04283426 0.73080677 0.5191682
0000b0 1f a1 16 3f 0d c4 09 3f d9 c3 02 3f fe 5d ec 3e
       0.588396 0.53814775 0.5108009 0.4616546
0000c0 ce b9 d1 3e 88 38 84 bd 6d f6 8d be 6d 34 ec bd
       0.4096207 -0.06456095 -0.2772707 -0.11533437
0000d0 eb 73 2e be 1b fb 17 be 6b 39 54 bd d1 dc 72 3e
       -0.17036407 -0.14841883 -0.05181257 0.23717047
0000e0 1a 17 8f 3e bc c9 7a 3d 3f c1 b3 3d 7f df a4 3d
       0.27947313 0.061227545 0.08777093 0.08050441
0000f0 3b 57 94 3d 0a c1 23 3e 2c 4b f2 3e 5d b0 d0 3e
       0.072432004 0.15991607 0.47322977 0.40759555
000100 40 f6 fb 3e a8 4a a1 be 4a 7f 95 3e f9 e3 11 3e
       0.4921131 -0.3150227 0.29198676 0.14247121
000110 44 b2 1c 3e b2 d6 96 bd ef 5e 63 bd 0c 4c fd 3d
       0.15302378 -0.07365169 -0.055510458 0.123680204
000120 c4 35 32 3e d7 47 7e 3f ae b9 ec bc 2a c3 f4 3d
       0.17403322 0.9932837 -0.028897133 0.11951287
000130 fc 34 ff 3e f0 b8 91 3e f6 b2 1e 3f 14 b1 ff bd
       0.4984511 0.2846141 0.6199182 -0.12484947
000140 85 eb bf bd 9a 79 00 3e 5e 73 88 3d e7 bc 0b 3e
       -0.09371094 0.12546387 0.066626295 0.1364628
000150 62 29 12 be cf 19 30 be a0 87 2a 3e 71 1c 56 3e
       -0.14273599 -0.17197345 0.166533 0.20909287
000160 d6 06 b8 3e a6 eb e0 3c c1 68 34 3d f5 83 7e 3e
       0.35942715 0.027456116 0.044045214 0.24855025
000170 c0 63 d4 3e 88 cd d0 3e 31 10 9d 3e 32 ac c7 3e
       0.41482353 0.40781808 0.30676416 0.38998562
000180 26 54 aa 3e 06 00 7b 3e 89 2e 03 bd 9e ff 25 3e
       0.33267325 0.24511728 -0.0320268 0.16210791
000190 63 0d 7f 3e a3 fa 65 be 0e 6b ae 3d f2 f6 93 39
       0.2490745 -0.22458892 0.08516513 0.00028222013
0001a0 38 b6 06 3c ed 79 fe 3c 04 29 fc 3d 27 2f 8b 3e
       0.008222155 0.031063998 0.123125106 0.27184412
0001b0 54 59 69 3d d6 ba 54 3d 5f 3d 12 3d a1 8f 53 3e
       0.056969956 0.051935993 0.03570306 0.20660259
0001c0 e4 82 42 bd 23 e4 3b 3e 6d 97 00 be bb 16 14 bd
       -0.04748811 0.18348746 -0.12557764 -0.03615449
0001d0 e1 f1 36 3e 31 31 1d bc a0 fc 04 3e 36 8a 5c be
       0.17865707 -0.009594248 0.12986994 -0.21537098
0001e0 ce 29 85 bd 34 f5 d8 bd 50 ed 03 bd 85 ab 22 3f
       -0.06502114 -0.10593644 -0.03220874 0.6354297
0001f0 f4 87 85 be 9c a1 74 be 63 09 8e 3e 34 9b ef 3b
       -0.26080287 -0.23889774 0.27741536 0.007312203
000200 da 23 b7 3d f4 87 c1 3d 0b 15 6a bd 49 12 24 be
       0.08942385 0.09449759 -0.057148974 -0.160226
000210 6c 41 d8 be 73 e3 e3 be bc 8f 8e be 56 85 9c be
       -0.42237413 -0.44509467 -0.27844036 -0.30570477
000220 d3 33 07 be 60 b6 56 bb 5b 37 48 3d b0 ce 55 3e
       -0.13203363 -0.0032762513 0.048880916 0.20879626
000230 8a 1c 54 be 22 d0 7f 3d 04 90 12 3d 60 51 f0 bd
       -0.20714012 0.06245435 0.035781875 -0.11734271
000240 6b 40 79 be 46 d3 40 3d 03 01 6f bc ce a3 38 be
       -0.2434098 0.047076486 -0.014587644 -0.18031237
000250 65 72 bb 3c 15 76 db 3d 0b 9b 39 be 3a 39 97 3e
       0.022881696 0.10715882 -0.1812555 0.29535848
000260 a9 e8 36 3e b1 6c cc 3e e6 d9 25 3e 8a f3 94 3e
       0.1786219 0.39926675 0.16196403 0.29092056
000270 1f f2 a5 bc 45 1e 39 3e ce 20 a1 3e 52 d9 42 3e
       -0.020257054 0.18077953 0.3147034 0.19028214
000280 24 88 a7 3e 1d 5a a1 3e e7 53 8f 3e 14 a1 1e bf
       0.32721055 0.31514063 0.279937 -0.61964536
000290 a9 1e ce 3f d7 13 51 3f 23 7a 23 40 c2 a2 01 c0
       1.6103107 0.816709 2.5543296 -2.025559
0002a0 3b ad c1 bf 66 f0 ab 3e 92 c5 e4 3e 2f 7e 68 3f
       -1.5130991 0.33581847 0.44681984 0.9081754
0002b0 da 2a 6e 3f c3 b3 fd 3e 2f 3d 1c 3f 5d 89 31 bf
       0.93034136 0.4955121 0.6103086 -0.69350225
0002c0 cf 58 18 bd cf b2 c7 be 31 7d d9 be 8e ed 11 bf
       -0.03719407 -0.39003608 -0.42478326 -0.57003105
0002d0 c9 4f 4b 3e 44 a9 16 bc 51 ed 7d 3f ec 89 43 3f
       0.19854654 -0.0091956295 0.9919024 0.7638233
0002e0 d8 9d 0f 3f c4 e1 f5 3e ff 3f 85 3f 0f b4 4f 3f
       0.56100225 0.48023808 1.0410155 0.8113412
0002f0 95 f8 99 be ed ad 14 bf 2d 7b 5a be a9 31 67 3e
       -0.30072466 -0.5807789 -0.2133605 0.22577538
000300 28 ef 8e be 4b bb 4b bf 53 c5 02 3f 30 49 2e 3e
       -0.27916837 -0.7958266 0.5108234 0.17020106
000310 4c cc 3e bd 17 80 54 bf c2 6b a3 3e 6b 90 b8 be
       -0.04658155 -0.8300795 0.3191815 -0.36047682
000320 cd 2a 05 c0 7d 83 50 3e 9a 94 81 be 75 ff 9a 3f
       -2.0807374 0.20362659 -0.25308686 1.2109209
000330 2d 91 b4 be 2d 03 10 3f 32 29 61 3e d2 ac 9f be
       -0.3526701 0.56254846 0.21988371 -0.3118654
000340 9f dc 43 3e af 1d 5e be 23 e3 2e 3e fe 0d d2 be
       0.19127129 -0.21691011 0.17078833 -0.410263
000350 18 17 2a bf 9a 45 94 3e 4c 51 dd bb 64 1d 90 3d
       -0.6644149 0.28959352 -0.006754076 0.07036856
000360 60 1c be be 19 16 72 3b 44 36 83 3e df e2 08 be
       -0.37131023 0.003693944 0.2562734 -0.13367794
000370 e2 51 ea 3e 5b 0e 81 3d de 18 a8 3e 4a 0e 53 3e
       0.45765597 0.06301566 0.32831472 0.2061092
000380 e6 2b 6b bf 38 f8 80 be f2 4b 78 be 86 94 10 3f
       -0.9186386 -0.25189376 -0.24247721 0.5647663
000390 6c 23 38 bf 7d a0 5e be 9d d0 1b bf 1c 71 42 3f
       -0.7192905 -0.21740909 -0.60865194 0.7595384
0003a0 38 f8 e5 3c 6d 01 1a 3e b8 85 b9 3e 15 9b f3 be
       0.028072461 0.15039606 0.36234832 -0.47579256
0003b0 75 ad 35 be e7 49 03 bf 20 74 74 be 7d 45 07 3f
       -0.1774195 -0.5128464 -0.23872423 0.52840406
0003c0 7e dc 8e bf d7 3d a1 3d 23 17 21 bf cd f8 f0 be
       -1.1161039 0.07873123 -0.6292593 -0.4706482
0003d0 33 74 ad 3e fd 6e 85 bf 22 e2 3c 3f df c1 cc be
       0.33877715 -1.0424496 0.7378255 -0.39991662
0003e0 2a 7b c6 be a7 e9 23 3f 90 54 33 bf 63 23 24 3e
       -0.38765842 0.640284 -0.7005091 0.16029124
0003f0 3b 9e 87 bd 9f 84 c8 3c 99 d2 c3 be 24 68 2f bf
       -0.06621977 0.024477301 -0.3824661 -0.6851828

fc_numerical.0.bias f4 [256]
000000 20 9d ba bf 59 e5 a8 bf 6b 9a 65 3e f4 13 d1 bc
       -1.4579201 -1.3194991 0.22422187 -0.02552221
000010 b1 1c eb bd d1 75 a1 bf 70 1c 44 3f 63 2b 28 bf
       -0.11480082 -1.261408 0.7660589 -0.656912
000020 bf f1 1a bf 49 c6 c3 bf 0f 55 96 3c 66 18 9f bf
       -0.60525125 -1.5294887 0.018351106 -1.2429321
000030 dc ec d4 be 5b 44 82 bf 43 42 33 bf 40 54 ec be
       -0.4158696 -1.017711 -0.7002298 -0.46158028
000040 20 28 04 c0 76 5f 41 3f bc d6 fe bd c2 8c 7a bf
       -2.064949 0.75536287 -0.12443301 -0.9787103
000050 4b b7 21 bf 00 e9 c6 bc 3d 92 49 bf 67 32 2e be
       -0.6317031 -0.024281025 -0.78738767 -0.17011414
000060 87 f0 a0 3d 0e bf d1 bf 32 a3 86 bf 87 3e a7 be
       0.07858377 -1.638643 -1.0518553 -0.32664892
000070 64 96 4d 3f 85 8f 0e c0 4b a7 63 3f 4b a7 a0 bd
       0.803076 -2.2275097 0.88927144 -0.078444086
000080 42 75 35 3f 79 b0 08 bf 9b 1a 7c bf c5 06 18 c0
       0.70882046 -0.53394276 -0.98478097 -2.3754132
000090 7c 27 34 bf 24 f0 4a 3e e5 95 79 3c b2 b8 12 c0
       -0.7037275 0.19818169 0.015233492 -2.292523
0000a0 b3 d5 99 bf 9e 16 1c bd 2c e0 8b bf 2b d1 f7 bf
       -1.2018341 -0.038107507 -1.0927787 -1.9360708
0000b0 72 ec 20 be a1 08 a1 bf b7 79 35 c0 5c 17 a5 bf
       -0.15715197 -1.2580758 -2.835554 -1.2897754
0000c0 21 57 0b bf 18 91 b2 bf 34 3a bb be ae 62 bd 3d
       -0.54429823 -1.3950529 -0.36567843 0.09247337
0000d0 83 18 e9 bf c5 98 99 be 40 8a b0 be 9b 02 17 c0
       -1.8210605 -0.29999366 -0.34480476 -2.359534
0000e0 34 77 d5 bf ed 1a 77 be a3 fe 42 bf f9 e4 cd be
       -1.6677003 -0.24131365 -0.76169795 -0.40213755
0000f0 5f 97 29 bf 74 b2 28 be 48 56 eb be 53 3a f2 be
       -0.662466 -0.16474324 -0.45964265 -0.47310123
000100 bc 90 4f bf 2f df b4 be 7d 2c 6e 3e d8 07 45 bf
       -0.8108022 -0.35326526 0.23259158 -0.76965094
000110 fc f7 6c bf 91 d6 86 be 4d be ee bf b3 4d e3 be
       -0.92565894 -0.26335576 -1.8651825 -0.44395217
000120 06 2a 99 be 65 46 73 be cb 6c ee be 51 5f 0b bf
       -0.29914874 -0.23757322 -0.46567377 -0.54442316
000130 4f c2 2f bf c1 07 c4 be 40 88 7f bd 4c d8 0e bf
       -0.68655866 -0.38287166 -0.062385798 -0.5579879
000140 58 0d 62 bd bf 99 6f c0 4f 5c e5 bf 59 1d b2 3e
       -0.055188507 -3.743759 -1.7918795 0.34788015
000150 ff 60 df be e9 0b 83 be 00 c0 35 bf ec 81 ff bf
       -0.4362869 -0.25595024 -0.70996094 -1.9961524
000160 bb 80 ce bf 6f a3 cc bb 7f 86 6c bf c6 97 e9 3d
       -1.6133035 -0.0062450687 -0.92392725 0.114059016
000170 8a 30 15 bf 5b f4 10 c0 bf 58 a8 bf 39 54 c4 be
       -0.5827719 -2.2649143 -1.3152083 -0.38345507
000180 31 d3 33 3f 5a 04 9e bf 9d 06 0f c0 34 d2 b0 bf
       0.7024413 -1.2345078 -2.2347786 -1.3814149
000190 73 c5 b7 bd 77 0a 5e bf aa 32 18 3f 0d e8 ec 3e
       -0.08973207 -0.8673472 0.5945231 0.4627079
0001a0 65 c2 5a bf 3e fe 8f bf 2c ff 53 bf 24 93 8c bf
       -0.8545287 -1.1249464 -0.82811236 -1.0982404
0001b0 79 dd 8a be 77 43 0d be 49 01 cd bf ab d4 f4 3e
       -0.27122095 -0.13795267 -1.6016017 0.47818503
0001c0 f0 e7 d4 be 02 ee fe be cf ba ad be 5f 6a fe 3d
       -0.41583204 -0.4979096 -0.33931586 0.124226324
0001d0 eb f2 ee be 14 d3 1c bf 1e eb f4 be b1 4c 42 bf
       -0.46669707 -0.6125958 -0.4783563 -0.7589827
0001e0 8d a2 ab be a5 14 29 3e 1a bd a4 3e 8f 28 fc be
       -0.33522454 0.16511782 0.32175523 -0.49249694
0001f0 2d 8d 3f bf 0a ad c5 bf 97 2c af 3c f7 c6 26 bf
       -0.7482479 -1.5443432 0.021383567 -0.65147346
000200 68 99 e0 3d e1 80 c0 3e f5 78 3d bf 60 7d ac be
       0.1096676 0.37598327 -0.7401269 -0.33689404
000210 f9 0f 01 c0 d9 c1 6b bf 54 17 9d be 34 33 96 bf
       -2.0166 -0.92092663 -0.3068186 -1.1734376
000220 b8 0d 07 bf d2 6c 92 bf d7 55 59 bf 95 df 4f bf
       -0.5275531 -1.1439459 -0.84896606 -0.81200534
000230 95 7e ae bf 9e 54 58 bf 1e 2b 35 bf b2 42 42 bf
       -1.363238 -0.84504116 -0.70768917 -0.7588302
000240 f1 5f 14 c0 aa cf d4 bd 20 3a a0 be 8f 07 28 be
       -2.3183558 -0.10391171 -0.31294346 -0.16409133
000250 4d 90 41 c0 aa c9 cd be cd d7 64 bf 08 b4 8c bd
       -3.0244324 -0.4019292 -0.89391786 -0.06870276
000260 5b 58 41 bf 4c ec af bf 54 61 89 bf ab 3b 13 be
       -0.75525445 -1.3743987 -1.0732827 -0.1437823
000270 36 51 f9 be 72 12 8e 3f ee 76 18 bf 44 ed 82 bf
       -0.48694772 1.1099379 -0.5955647 -1.0228658
000280 25 41 ba bf 91 cc 89 bf e3 99 5d 3d fa 95 62 bf
       -1.455113 -1.0765554 0.054101836 -0.88510096
000290 70 09 3d bf cd 66 3e bf b0 12 26 bf 0e 5f 12 c0
       -0.73842525 -0.7437561 -0.64872265 -2.2870517
0002a0 03 de 12 bf a1 d6 28 bf 3d 37 27 c0 21 6d 74 bf
       -0.57370013 -0.659525 -2.6127465 -0.9547902
0002b0 ae 0f 97 bf 16 11 0d c0 ac 8b 3c 3d ff 57 1a bf
       -1.180166 -2.2041678 0.04603164 -0.6029052
0002c0 c9 7e d2 bf 80 de d7 bf 57 a9 14 bf bf 45 bd bf
       -1.6444942 -1.6864777 -0.5807089 -1.478691
0002d0 ca 25 91 bf 14 09 02 bf 96 22 11 be d7 ad 87 bf
       -1.1339657 -0.507951 -0.1417335 -1.0599927
0002e0 11 43 00 3f 39 94 1c bf 70 e4 e1 bf 35 27 0f bf
       0.50102335 -0.6116367 -1.7647839 -0.559192
0002f0 3e a0 cd bf 30 e2 ac bf 3f 4b 13 be 3e e2 92 bf
       -1.6064527 -1.3506527 -0.14384173 -1.1475294
000300 2e a5 50 bf c8 c9 ce be 49 87 b9 be 83 08 d1 bd
       -0.81502044 -0.40388322 -0.36236027 -0.102067016
000310 19 08 c2 bf 24 cf 05 bf 6e 39 7f 3b 9d 2e 79 be
       -1.5158721 -0.52269197 0.0038944143 -0.24334188
000320 11 9b 19 c0 44 15 2c bf cd 88 81 bf fb b6 06 bf
       -2.4000895 -0.6721995 -1.0119873 -0.52622956
000330 0c 1d 7f bf c2 5c b2 3f d2 80 95 bf 32 9e e1 bf
       -0.99653697 1.3934557 -1.1679938 -1.7626402
000340 7a 9a 98 bf d9 29 75 bf 19 b0 48 bf 8d 0f ee bf
       -1.1922143 -0.9576698 -0.78393704 -1.8598496
000350 c0 52 12 bf b0 43 42 c0 21 85 d0 be 0e ec 1b bf
       -0.57157516 -3.0353813 -0.4072657 -0.60907066
000360 a0 01 7c bf 33 43 ce 3e ce a0 37 c0 7e 2a 2e bf
       -0.9843998 0.40285644 -2.8691897 -0.6803359
000370 ec e0 c0 be 1c 59 1a c0 59 f4 47 bf 88 47 19 c0
       -0.37671602 -2.4116888 -0.7810722 -2.394991
000380 bc 8c 08 bf cd b3 34 bf cb 19 95 bf 56 84 71 bf
       -0.53339744 -0.70586854 -1.1648496 -0.94342554
000390 8e 5f 23 bf b8 4b b3 bf ea b4 28 bf ab 29 83 bf
       -0.6381768 -1.4007483 -0.6590105 -1.0247091
0003a0 96 7c c9 be 3a 79 96 bf 7e f2 8a bf 96 c9 23 c0
       -0.39352864 -1.1755745 -1.0855253 -2.5591788
0003b0 49 51 df bf 1f fe d7 bf d5 2a c2 bf 4e 19 ce be
       -1.7446681 -1.6874427 -1.5169321 -0.4025368
0003c0 21 cc 3f bf 7c 86 a1 bd 0f 3f 47 be b6 33 99 3e
       -0.7492085 -0.07886979 -0.19457649 0.29922265
0003d0 0e 63 fb be 5e 75 15 c0 1b b5 a4 bf 18 5d c2 3e
       -0.4909901 -2.3352885 -1.2867769 0.3796165
0003e0 48 06 89 bf e9 1d b3 bf 76 e8 5b bf 8b 00 56 c0
       -1.0705042 -1.3993503 -0.8590158 -3.3437831
0003f0 e6 88 3f c0 f8 39 83 be 4c 41 bf be 43 f9 ae bf
       -2.9927306 -0.25630164 -0.37354505 -1.3669819

fc_numerical.2.weight f4 [256]
000000 82 3a 57 3f 13 b6 fe 3f ab 97 e2 3f ac 4c 6c 3f
       0.8407365 1.9899315 1.7702535 0.9230449
000010 8a 88 87 3f 12 ca 0d 3f 05 5a b9 3e 86 02 57 3f
       1.0588543 0.5538646 0.36201492 0.83988225
000020 2d 2d 17 3f 77 5a 47 3f ec b8 db 3e f8 91 8e 3f
       0.5905331 0.77872413 0.42914522 1.1138296
000030 9e e9 31 3f c5 cc 6b 3f b5 ad b6 3e 82 c8 f3 3e
       0.69497097 0.9210933 0.35679403 0.47613913
000040 cb 76 f6 3f 12 36 38 3f 0c 94 46 3f a7 e7 ce 3e
       1.9255003 0.71957505 0.7756965 0.40411112
000050 f3 81 74 3e af fc bd 3e aa 7a 71 3f 1e 52 1a 3f
       0.23877697 0.37106845 0.94327796 0.6028155
000060 0f 94 3d 3f 34 1b ac 3f 58 b4 d0 3f b9 d0 81 3e
       0.74054044 1.3445802 1.6305037 0.25354555
000070 2e 3d 19 3f 0c f7 83 3f 22 ee e1 3e e7 51 90 3e
       0.5985898 1.0309768 0.44126993 0.28187487
000080 eb 35 2f 3f 22 3e f6 3e a6 f8 00 3f 44 02 4d 3f
       0.6844165 0.4809428 0.5037941 0.8008158
000090 bc 1e 50 3f b6 c6 0e 3f 7d 0e 99 3f 3d 45 9a 3f
       0.81296897 0.5577196 1.1957546 1.205238
0000a0 86 4f 5a 3f 1c 51 b0 3f c6 7d d1 3f f7 f8 13 40
       0.85277593 1.3774753 1.6366508 2.3120706
0000b0 f7 76 1a 3f b1 35 90 3f d7 23 00 40 f2 19 7e 3f
       0.60337776 1.1266385 2.0021875 0.9925834
0000c0 68 4a fd 3e 4a 2d 72 3f 90 10 78 3f 75 ce 3d 3f
       0.4947083 0.94600356 0.9690027 0.74143153
0000d0 7e c7 74 3f d2 a7 d5 3e a0 0a 02 40 34 00 f6 3f
       0.956169 0.417296 2.0318985 1.9218812
0000e0 9b cc 16 3f d9 89 f1 3e 5a 7d 1e 3f 6e df 09 3f
       0.58905953 0.47175482 0.6191002 0.5385655
0000f0 ca b4 70 3f de 72 aa 3e 1f 74 54 3f bf 81 21 40
       0.9402586 0.33290762 0.82989687 2.523544
000100 c0 25 92 3f d8 5c ae 3e 72 0b 8d 3f 4f ad c2 3f
       1.141777 0.3405521 1.1019118 1.520914
000110 22 3a 1d 3f b7 25 56 3e 18 7e d2 3f 5c f6 40 3f
       0.6141683 0.20912825 1.6444731 0.75375915
000120 6b 88 be 3f 36 57 4c 3e c4 b7 83 3f c9 eb 87 3f
       1.4885381 0.19955143 1.0290456 1.0618831
000130 dd 9e 22 3f 8d 7d 86 3f 14 37 49 3e d2 cf 94 3f
       0.63523656 1.0507065 0.19649917 1.1625922
000140 a9 75 5f 3f 0a f3 cd 3f 36 92 98 3f d2 f5 b1 3e
       0.8728891 1.6089795 1.191962 0.3475786
000150 c5 34 ce 3e 8b d9 41 3f 28 b7 c5 3f 99 2f 90 3f
       0.40274635 0.7572257 1.544652 1.1264526
000160 85 5e 00 40 c0 89 12 3f dc d4 2b 3f e0 14 97 3f
       2.005769 0.5724144 0.6712167 1.1803246
000170 d6 85 c7 3f 0a 8d 98 3f 7a cd 7c 3f d1 14 8b 3f
       1.5587718 1.1918042 0.9875103 1.0865728
000180 b8 76 f2 3e 0a 32 c7 3f 82 01 70 3f 7c e9 b5 3f
       0.473562 1.5562146 0.937523 1.4211879
000190 fb eb 46 3f cd 0e 05 3f 95 a8 c7 3f 92 60 0f 3f
       0.7770383 0.5197571 1.5598322 0.5600673
0001a0 6e b2 55 3f d1 b4 bd 3e 14 45 24 3f 82 11 b0 3f
       0.8347539 0.37052014 0.64167905 1.3755343
0001b0 43 54 99 3f c0 89 1b 3f 3f 4b 97 3f fa 73 bf 3e
       1.197884 0.60757065 1.1819838 0.3739317
0001c0 79 60 c9 3e d6 96 7c 3f 6c 49 66 3f 10 af 8f 3f
       0.39331415 0.9866766 0.8995578 1.12253
0001d0 0e 61 63 3f 9c d2 c4 3f 42 b7 78 3d fd 0e f5 3e
       0.8881997 1.5376773 0.060721643 0.47862998
0001e0 6b d5 81 3f 02 77 2a 3f 68 28 9e 3f 63 c8 3a 3f
       1.0143255 0.6658784 1.2356081 0.72962016
0001f0 68 29 96 3f f4 fc 7b 3f b0 e1 8c 3e 0e d0 a1 3f
       1.1731386 0.9843285 0.27515936 1.2641618
000200 11 50 58 3f 9b 98 a9 3f d2 86 d7 3e cb 04 f5 3e
       0.8449717 1.3249696 0.42095047 0.4785522
000210 37 b0 bc 3f 18 93 50 3f 46 ab a2 3e c4 ba 5c 3f
       1.4741277 0.8147445 0.31771296 0.8622248
000220 67 13 14 3f ee ca 0d 3f 67 13 77 3f ef 5f 84 3f
       0.57842106 0.5538777 0.9651398 1.0341777
000230 cd 25 c0 3f 8a f9 73 3f 15 a0 f2 3f 21 ce 72 3f
       1.5011536 0.9530264 1.8955103 0.9484578
000240 6d 9d 8f 3f c7 f4 12 3e 2c e1 e5 3e c6 02 00 3f
       1.1219918 0.14351188 0.44898355 0.5000423
000250 3c 5b d8 3f ed f3 96 3f 45 c2 3d 3f 7c 7f b2 3f
       1.6902843 1.179319 0.74124557 1.3945155
000260 34 a1 b0 3f 67 68 a1 3f ee 1b 60 3f d4 0a 42 3f
       1.3799195 1.2609986 0.8754262 0.7579777
000270 77 24 8d 3f 97 37 86 3f fa 3a 91 3f c5 e1 af 3f
       1.1026753 1.0485715 1.1346123 1.3740774
000280 ae 5b 32 3f d6 a8 aa 3f eb 67 aa 3f 36 4e 42 3f
       0.6967114 1.3332775 1.3312963 0.7590059
000290 8d 44 5e 3f 4b 7b 81 3f b9 96 66 3f e1 c5 eb 3f
       0.8682335 1.0115751 0.90073735 1.8419763
0002a0 3e e5 a1 3f 54 17 e9 3f ca cd 2d 40 7b e2 62 3f
       1.2648084 1.8210244 2.7156854 0.8862683
0002b0 cc aa ca 3f 85 64 01 40 30 80 dc 3e 2b ce 62 3f
       1.5833373 2.0217602 0.4306655 0.8859584
0002c0 b1 29 2a 3f 96 75 d0 3f 80 1b f1 3f 55 ad 2b 3f
       0.66469866 1.6285884 1.8836517 0.6706136
0002d0 22 97 a8 3e a7 f9 ea 3e c8 3b 83 3e 76 11 94 3f
       0.32927805 0.45893595 0.25631547 1.1567829
0002e0 ab 6a 85 3e 68 79 24 3f 31 79 f6 3f 9e 15 34 3f
       0.26057944 0.6424775 1.9255735 0.70345485
0002f0 37 bf 75 3f 44 3a 36 3f 7b c8 e0 3e 1e 3e 0c 3f
       0.95994896 0.71182656 0.43902954 0.54782283
000300 57 73 f0 3e e8 e8 40 3f 89 45 86 3f 70 db 72 3d
       0.46962997 0.75355387 1.048997 0.059291303
000310 7c 10 9a 3f 26 fe 00 3f 25 f9 33 3f 7a 6c d8 3e
       1.2036281 0.503878 0.7030204 0.4227026
000320 ca 78 b7 3f ee fe 81 3f a4 1f eb 3f e3 85 81 3f
       1.4333737 1.0155923 1.8369031 1.0118984
000330 95 ad 2e 3e 40 44 8d 3f ca 91 e6 3f 5b 9d e0 3f
       0.17058404 1.1036453 1.8013241 1.7548021
000340 87 06 b1 3f 6c 2d a5 3f 39 01 84 3f ff 49 d8 3f
       1.3830117 1.2904487 1.0312873 1.6897582
000350 14 2f 80 3f fa 20 10 40 ad b9 52 3f 15 ac af 3f
       1.0014367 2.2520127 0.8231457 1.372439
000360 c5 a0 20 3f 44 7c a7 3e 99 3a c7 3f 5e 52 03 3f
       0.62745315 0.32711995 1.5564758 0.5129756
000370 26 c9 12 3f 77 c2 bd 3f 42 f4 a0 3f 5f 3e db 3f
       0.5733818 1.4824971 1.2574542 1.7128409
000380 9a 4c aa 3f 3c f7 72 3f 52 87 a3 3f 5e fe 29 3f
       1.3304627 0.949085 1.2775671 0.6640376
000390 5a 99 91 3f 67 aa 7b 3f 20 e1 1d 3f a0 79 94 3e
       1.1374924 0.9830689 0.6167164 0.28999043
0003a0 6f eb 84 3e 4a fe a4 3f d9 a5 76 3f 18 47 e6 3f
       0.25960872 1.2890103 0.96346813 1.7990446
0003b0 81 83 af 3f 2e 6b 72 3f 3f ff b0 3f 4b 84 23 3f
       1.3712007 0.94694793 1.3827895 0.6387374
0003c0 5a d0 92 3f 47 ba 67 3f c8 6b 19 3f de 10 c0 3e
       1.1469834 0.9051861 0.59930086 0.3751287
0003d0 7b 2b 07 3f 02 f3 ea 3f 73 61 b6 3f 1b cc a5 3e
       0.5280072 1.835541 1.4248489 0.32382283
0003e0 80 ea 9f 3f 65 ff 0b 3f c6 ce ce 3e 95 c5 d6 3f
       1.2493439 0.54686576 0.4039213 1.6779047
0003f0 60 74 04 40 00 ed 3e 3f 98 7f b6 3e df 50 03 40
       2.069603 0.74580383 0.3564422 2.051811

fc_numerical.2.bias f4 [256]
000000 10 f7 09 3f 51 e4 09 3f bd 79 7c 3e 82 5d 09 3e
       0.5389261 0.5386401 0.24655814 0.13414577
000010 b9 8c 66 3e c1 2c c7 3e e5 c4 e9 3d d7 4d c6 3e
       0.22514619 0.38901332 0.11414508 0.38731262
000020 b2 7a c6 3d 09 56 ac 3e 17 d9 b9 3e 8b f0 fe 3d
       0.09691371 0.3365939 0.3629844 0.12448224
000030 33 65 3a 3e 72 3a fc be 18 75 81 3d 48 7c 28 3e
       0.18202667 -0.4926334 0.06321162 0.1645366
000040 1f 49 4c 3f 2d 83 18 3e be bd 7e 3d e0 d7 24 be
       0.79799074 0.1489379 0.06219267 -0.16097975
000050 22 2d ad bc ff 16 86 3e 24 c6 bf be 12 1e 6a 3e
       -0.021139685 0.2618942 -0.37455857 0.22863033
000060 ec 7a 29 3e 2a 70 e9 3e f0 b5 9a 3e d9 9b 16 3e
       0.16550797 0.45593387 0.30216932 0.14707889
000070 6e a8 23 3e ce bf ee 3e 98 27 f6 bd 59 50 a3 be
       0.1598222 0.4663071 -0.12019271 -0.31897238
000080 59 3e 21 3f 8b 15 4b 3e 7e fa f3 bd b2 e2 35 3e
       0.6298576 0.19832437 -0.11913012 0.17762259
000090 64 50 e1 3c 2d 5d 13 3e e5 6b 11 3f 01 ad 0b 3d
       0.027504154 0.14391012 0.5680526 0.034100536
0000a0 71 8d c8 3e cb eb 34 3e af 4e 8e 3c 79 6c 02 3f
       0.3917041 0.17668073 0.017371504 0.50946766
0000b0 40 88 71 3d b2 03 25 bd e7 2d 64 be 54 97 82 be
       0.05896783 -0.040286727 -0.22283135 -0.2550608
0000c0 90 8e 16 be 51 d7 ef 3e 5a ee f9 be 6e 7f 74 3e
       -0.14702821 0.4684396 -0.4881466 0.23876736
0000d0 bb 26 2a bf 8b fd 69 bd 4d 5c e4 3e 67 11 d1 3e
       -0.6646535 -0.057126563 0.4460167 0.4083359
0000e0 3f 00 9e bd 82 f3 4a be d4 53 4b be 29 e0 18 3e
       -0.07714891 -0.19819453 -0.19856197 0.1492926
0000f0 b6 fc b8 3e 8f 5f 7c be 8c 1a 47 3e 58 67 36 3f
       0.36130303 -0.24645828 0.1944372 0.7125144
000100 4b 55 09 3f 0f 42 dd 3e 70 6e 9e bd 0a b9 e3 3d
       0.5364577 0.4321446 -0.07735908 0.11119278
000110 f7 c8 51 3e aa 96 ae 3d 25 a7 bc 3e aa 1e 9f 3e
       0.20486818 0.08524831 0.3684627 0.31078082
000120 a8 8a ab 3d 92 57 b1 3e 38 c0 62 bd c9 82 ea 3c
       0.08376056 0.34637123 -0.055359095 0.028626816
000130 17 34 c4 be 0a 71 4b bd d2 62 b6 3d 68 61 4a 3e
       -0.3832099 -0.04966835 0.08905567 0.1976372
000140 a1 57 36 3f 4b 2b 1c 3e c6 3e c2 bd 60 ac 7f 3e
       0.7122746 0.1525089 -0.09484629 0.249681
000150 e9 99 99 3d b5 9c 51 be dc 33 74 3d 5c e8 1f be
       0.07500059 -0.20469935 0.05961977 -0.15615982
000160 b9 67 a2 3e 66 4a 6c 3d 07 c1 a1 3c e1 95 70 bd
       0.3171976 0.05768814 0.019745363 -0.058736686
000170 d3 a0 40 bd 89 ff 2d 3e 97 f7 b4 be 26 24 19 be
       -0.047028374 0.1699201 -0.35345146 -0.14955196
000180 33 5f e2 bd e0 96 36 be a7 9d 58 3e e6 23 75 be
       -0.11053314 -0.17830992 0.2115389 -0.23939475
000190 7d 8a 90 3e a0 ee 0b 3e af 54 2c 3d b2 b4 8a 3e
       0.28230658 0.13665247 0.042072948 0.27090985
0001a0 31 6b b3 3d 01 26 b8 3d 21 33 9c 3e 60 61 14 3e
       0.087606795 0.08991624 0.30507758 0.1449027
0001b0 33 f2 93 3e aa 76 b0 3e c5 cc 54 3e aa 9c 9c 3d
       0.2889572 0.34465533 0.20781238 0.07647069
0001c0 cf ef b9 3d 80 9e 67 3d 6e fc 4f be ac 07 8a bd
       0.09078943 0.05654764 -0.20311138 -0.067397445
0001d0 b6 be 87 3c f9 4a 89 3e 5e 7d 8c 3e 63 1d 54 3d
       0.01657043 0.26815012 0.27439398 0.051785838
0001e0 f8 8e 80 3e c0 dc 0a be ed 5f 15 bf e0 3b e3 3e
       0.25109076 -0.13560772 -0.58349496 0.44381618
0001f0 0f 03 a9 3e f7 03 81 3e 16 67 e2 3c d9 00 19 3f
       0.33010146 0.25198337 0.027637046 0.5976692
000200 67 07 55 3d b6 4f 08 3e 96 e5 c1 3e 75 5f 0b 3f
       0.052009013 0.13311657 0.37870473 0.5444253
000210 7c ad 04 3e 88 ed fd 3d 25 bd 26 be d2 32 b9 be
       0.12956804 0.12398821 -0.1628309 -0.36171585
000220 07 86 30 3f 29 fa 5c 3e 42 00 e6 3e ad 0f 27 3e
       0.6895451 0.21579804 0.44922072 0.16314574
000230 f2 d8 c1 be 26 fc 17 3e 07 cb 62 3d d2 92 84 3e
       -0.3786083 0.14842281 0.055369403 0.25893265
000240 4a 7e 17 be 7d 4f ac 3c a2 a6 6c be 6a 7c cc bd
       -0.14794269 0.021033997 -0.2311044 -0.099846676
000250 6e ef 8c be b1 eb 5c 3e 18 f2 ed 3e 4f 9e a2 3e
       -0.2752642 0.21574284 0.46473765 0.31761405
000260 6a 6d 09 bf 62 05 8e bd 05 07 6c 3e 30 8b 1e be
       -0.5368258 -0.069346204 0.23049553 -0.15482783
000270 a8 4f ff 3e 06 84 82 3e 00 71 ee 3e ea 84 1d 3f
       0.4986546 0.2549135 0.46570587 0.61530936
000280 5e a8 6b 3e 75 6a d7 3e 6e 9c 49 bc e9 8c 49 3e
       0.23013446 0.42073408 -0.012305362 0.19682659
000290 4d a7 d9 bd de ed ee 3d e6 00 08 be 4a 01 1b 3f
       -0.10627613 0.11666463 -0.13281593 0.6054884
0002a0 8b 4f 10 3f a9 f9 57 3e 93 a6 9e 3f 67 c7 d6 3e
       0.5637137 0.21091332 1.2394584 0.41949007
0002b0 45 f0 cf 3c 35 ee f3 3e 44 60 34 3f 5f 5e 96 bc
       0.025383124 0.47642675 0.7045939 -0.018355547
0002c0 05 f6 91 3e 05 35 82 3e f3 7c 10 3f 5f f7 a3 3e
       0.2850801 0.25431076 0.5644066 0.32024667
0002d0 cd 7c 87 3e db a7 82 3e b7 4e 0c 3e 8b 64 44 3e
       0.26462403 0.2551869 0.13701902 0.19178979
0002e0 27 53 2d ba 27 17 a6 3e d5 15 d2 3e 20 e3 58 3e
       -0.0006611817 0.3243954 0.41032282 0.21180391
0002f0 c4 96 e2 3e 6a 22 76 be 4d 92 15 3b 02 c4 65 be
       0.4425565 -0.24036565 0.0022822798 -0.22438052
000300 38 dd 81 3e ea a5 f9 be 27 d9 9d 3e 0b 19 e5 bb
       0.2536409 -0.48759395 0.30829737 -0.0069915107
000310 b4 0f b5 3d db 85 4d 3e f1 11 a8 be 3d cd 42 3e
       0.08840886 0.20070593 -0.32826188 0.19023605
000320 e3 d6 47 3d 24 40 60 bd ff be 79 3e 8d 90 e5 3b
       0.048788916 -0.05474867 0.24389265 0.007005757
000330 90 9f 20 3e ae 66 92 3e 2e 43 0b 3e 49 71 e8 3e
       0.15685868 0.28593963 0.13599846 0.4539893
000340 99 8a 7e 3e bd 48 e4 3c cc 52 9a 3e 5b 06 11 3e
       0.24857558 0.027866716 0.30141294 0.1416258
000350 7b 4e f4 3d 0e 26 d5 3d 68 c6 ed 3e 3f c4 1f 3d
       0.119290315 0.10407649 0.46440434 0.039005514
000360 db 9d 58 be e1 35 cb 3d 4d 41 ea 3e 6d 34 3f 3c
       -0.21153967 0.09922386 0.45752946 0.011670214
000370 bd 57 f0 be 30 85 3a be 39 0e 56 3e 01 ad c5 3d
       -0.4694194 -0.1821487 0.20903863 0.096521385
000380 f1 71 11 3d dc d3 0f be 5f 39 4d 3e b3 6d a7 3e
       0.035509054 -0.14045662 0.20041417 0.3270088
000390 03 c8 a7 be 8e b2 3f 3e 03 98 a1 be c1 de 82 bd
       -0.32769784 0.18720457 -0.31561288 -0.06390143
0003a0 da 22 12 3c 90 d2 23 be 64 1a 9d bd 37 81 35 3e
       0.008919442 -0.15998292 -0.07671049 0.17725073
0003b0 98 b8 08 3f 0e 86 21 be a5 e6 a2 be d4 f5 87 3e
       0.5340667 -0.15773794 -0.31816593 0.2655474
0003c0 bc 25 65 3e 84 77 8c bd 6f 6b dc bd d9 31 34 be
       0.22377676 -0.06858733 -0.10762679 -0.1759714
0003d0 3d e6 87 be 36 6f 2f bd 74 c5 d8 bc f4 1f 10 be
       -0.26542845 -0.04283067 -0.02646134 -0.14074689
0003e0 f6 2d 53 be 84 3b 0f 3e 9d 81 b5 3e db ca 4d 3f
       -0.20623001 0.13987547 0.3545045 0.8038766
0003f0 10 6f c5 3e 10 e6 32 3e b4 0f cf 3e 19 56 66 3e
       0.38561296 0.17470574 0.40441668 0.22493781

fc_numerical.2.running_mean f4 [256]
000000 36 22 9a 3f 41 e2 46 40 a3 c0 a4 40 9a f7 fc 3f
       1.204169 3.1075594 5.148515 1.9763062
000010 06 1e f4 3f 8e 7c be 3e 35 db d4 3f d2 76 f9 3f
       1.9071662 0.37204403 1.6629397 1.9489386
000020 a6 78 a6 3f 08 9b c7 3f a5 57 be 3f bf 81 4a 40
       1.3005569 1.5594187 1.4870497 3.164169
000030 c9 ad 86 3f 47 01 e9 3f c6 b2 6a 3f 1b ae 78 3f
       1.0521785 1.8203515 0.91679037 0.97140664
000040 6a 73 ef 3f 85 5c 4f 40 a0 55 05 40 fa c7 e6 3f
       1.8707097 3.240022 2.0833511 1.8029778
000050 2c 1c 8c 3f fc 16 b1 3f 7d da 9c 3f fb ba 14 40
       1.0946097 1.3835139 1.2254177 2.3239124
000060 62 d2 4b 40 88 a2 0c 40 56 f8 20 40 3e 7a a1 3f
       3.1847157 2.1974201 2.5151572 1.261543
000070 5b 02 0e 40 7d 50 64 3f 16 48 30 40 fd 65 b2 3f
       2.2188938 0.89185315 2.7543998 1.3937374
000080 11 20 07 40 4c bd 88 3f d0 e9 49 3f 7b 3c 97 3e
       2.1113322 1.0682769 0.78872395 0.2953833
000090 e6 44 1a 40 83 bc 1b 40 9b ac 3c 40 30 5d e1 3f
       2.4104552 2.4333808 2.948035 1.7606564
0000a0 59 e1 a8 3f 34 02 2b 40 2c bb 3b 40 e4 fb 57 40
       1.3193771 2.6720095 2.933299 3.3747492
0000b0 48 63 c8 3f 0d 3d ad 3f c6 1e 82 40 2e c2 57 40
       1.5655298 1.3534256 4.0662565 3.3712268
0000c0 27 cd b5 3f f2 44 d9 3f 77 64 6f 40 12 60 3d 40
       1.4203233 1.6974165 3.740507 2.9589887
0000d0 9a ce ab 3f 01 f4 d0 3f f3 b3 4a 40 24 da 6f 3f
       1.3422425 1.6324464 3.1672332 0.9369223
0000e0 46 38 07 3f a4 70 fa 3f 45 ee af 3f b8 94 b0 3f
       0.5282024 1.9565625 1.3744589 1.3795385
0000f0 ce 34 19 40 cc 10 8e 3f 37 e4 0c 40 88 11 4b 40
       2.393848 1.1098876 2.2014291 3.172945
000100 ba 33 f3 3f ba 53 6d 3f a9 8f 6a 40 c2 17 25 40
       1.9000161 0.9270588 3.6650183 2.579575
000110 24 0d 6e 3f 7d b2 80 3f 00 cf 03 40 cd a5 07 40
       0.929888 1.005447 2.0595093 2.1194947
000120 30 d5 4c 40 28 0d 7e 3f b2 06 25 40 10 39 53 40
       3.200512 0.99238825 2.5785336 3.3003578
000130 bd a4 9c 3f 96 1c 48 40 59 23 6c 3f 2e 06 26 40
       1.2237774 3.1267447 0.92241436 2.5941272
000140 6c d6 80 40 86 70 8d 3f 98 4c 85 3f 80 c1 9b 3f
       4.0261745 1.1049964 1.0414 1.2168427
000150 22 62 80 3f 9a 3a 74 40 03 92 b2 40 05 d7 18 40
       1.0029948 3.8160768 5.5803237 2.3881238
000160 dc 0c 7a 40 8b c1 04 40 42 1c 06 40 77 b0 7d 40
       3.9070349 2.074313 2.0954747 3.9638956
000170 77 01 6c 40 49 ee a4 3f c3 b7 13 40 74 4c 63 40
       3.6875894 1.2885219 2.308091 3.5515413
000180 19 15 0b 40 7b 70 b3 40 26 b4 c0 3f 9c 74 22 40
       2.1731627 5.6074805 1.5054977 2.5383673
000190 09 8e f9 3f 82 19 82 3f 0d 9b a6 40 65 03 4a 40
       1.9496471 1.0164034 5.206427 3.1564572
0001a0 8a 6d 14 40 52 a3 7d 3f 20 d4 f0 3f 9c 3b 11 40
       2.3191857 0.9907733 1.8814735 2.2692633
0001b0 54 0e 68 40 e0 38 59 40 37 5c 0f 40 cb 63 d4 3f
       3.6258745 3.3940964 2.2400033 1.6592954
0001c0 2e 78 73 3f 53 f8 17 40 18 cb 20 40 c0 83 a9 40
       0.95105255 2.3745315 2.5123959 5.297333
0001d0 cd 7f 0f 40 a9 4d 47 40 bf 5a 14 3f dd 97 55 3f
       2.2421753 3.114115 0.5795097 0.8343485
0001e0 0f 4a 1d 40 fe 15 57 40 b5 45 4a 40 0b b3 e9 3f
       2.4576452 3.3607173 3.1605046 1.8257765
0001f0 ca 64 04 40 f8 cd 8c 3f ef 1e 7f 3f a4 e6 29 40
       2.0686517 1.1000357 0.99656576 2.6547022
000200 d8 f6 5c 40 4d 2e 76 40 01 2b a3 3f e0 5f 08 40
       3.4525661 3.846576 1.2747499 2.1308517
000210 ce d9 c5 3f ad f2 d5 3f 86 af a7 3f 85 43 f6 3f
       1.5457094 1.6714684 1.310044 1.9239355
000220 22 2f b5 3f c0 d4 93 3f ee 93 4f 40 e4 29 ba 3f
       1.4155009 1.1549301 3.243404 1.4544034
000230 08 83 99 40 65 9e 01 40 f0 f2 33 40 69 48 fc 3f
       4.797245 2.0252926 2.8117027 1.9709598
000240 ca c0 2f 3e bc 75 a8 3f c2 ed 8a 3f ec e7 c2 3f
       0.17163387 1.316093 1.0853808 1.5227027
000250 2d 51 09 40 1b 29 22 40 10 8a 09 40 7a 0c d3 40
       2.1455796 2.5337589 2.1490517 6.595273
000260 24 1c 8e 40 09 ec 3c 40 3d 98 0d 40 59 b0 dd 3f
       4.440935 2.9519064 2.212417 1.7319442
000270 5f 94 66 40 09 24 41 40 59 7e 06 40 ee 97 0f 40
       3.6028059 3.0178244 2.1014616 2.243648
000280 6f 69 8d 3f 4f 36 33 40 dd d7 8a 40 51 97 97 3f
       1.1047801 2.8001897 4.3388505 1.1843053
000290 91 57 d4 3f 80 6a 17 40 4f 1b 60 40 8d 96 00 40
       1.6589223 2.3658752 3.5016668 2.009189
0002a0 26 cd 18 40 d3 29 97 40 d7 ec 0b 40 b5 cd 1e 3f
       2.3875213 4.7238555 2.1863306 0.62032634
0002b0 9f 1e 10 40 17 fe 1c 40 c9 82 ea 3f 4d 1e 1c 40
       2.251869 2.4530084 1.8321162 2.4393494
0002c0 29 cd 44 3f 07 be 0d 40 62 94 2f 40 10 4c 47 3f
       0.7687555 2.2147233 2.7434316 0.7785044
0002d0 1b d7 42 3f 87 4e a7 3f e9 ea 77 3f e5 97 48 40
       0.76109475 1.307084 0.9684282 3.134271
0002e0 c8 39 14 40 fa 8b 73 3f 2f 55 7d 3f 4c d2 dd 3f
       2.3160267 0.9513546 0.98958105 1.7329803
0002f0 d3 2a 4f 3f dc a5 15 40 6e ea 72 3f 0b ff e3 3f
       0.8092472 2.3382483 0.9488896 1.7812208
000300 4a 52 b7 3f 7c 56 32 40 3a b2 6a 40 6a 50 fa 3e
       1.4321988 2.7865286 3.667128 0.48889476
000310 13 a5 1b 40 7f 5c 62 3f b4 0c 23 40 25 c3 c9 3f
       2.4319503 0.8842239 2.5476503 1.5762678
000320 84 c4 9c 3f a4 45 79 40 4b eb 15 40 e9 72 dd 3f
       1.2247472 3.8948755 2.3424861 1.7300693
000330 48 b2 e7 3e f5 c5 78 40 2d 39 99 40 1a a2 21 40
       0.45253205 3.8870823 4.7882295 2.525519
000340 b6 74 02 40 a3 77 8c 40 24 18 1a 40 b3 b2 ff 3f
       2.0383735 4.389604 2.4077234 1.997641
000350 d3 f6 38 40 83 2b ae 3f fe 4f 33 40 e8 38 7c 40
       2.890065 1.3607029 2.8017573 3.9409733
000360 e3 68 f0 3f e4 2c c7 3f e9 09 b1 3f 31 09 cb 3f
       1.8782009 1.5560575 1.3831149 1.586218
000370 a3 05 ab 3f fa 87 89 40 e2 b1 27 40 22 8f 22 40
       1.3361095 4.2978487 2.620232 2.5399861
000380 7f e2 80 40 e2 15 f9 3f 6f f3 31 40 bf 7d 0c 40
       4.0276484 1.9459803 2.780483 2.195175
000390 1a 0b 14 40 46 44 e7 3e 92 ac b3 3f c0 a1 50 3e
       2.3131776 0.45169276 1.4037039 0.20374203
0003a0 3c 8f 94 3f 9f 07 3b 40 46 39 91 40 f6 03 12 40
       1.1606212 2.9223402 4.5382414 2.2814918
0003b0 ec 02 3e 40 a5 d4 b1 3f 6f bd 06 40 0a b6 f2 3f
       2.9689283 1.3893019 2.105312 1.8961804
0003c0 a7 0d 16 40 0f 38 41 40 9a e7 35 40 b8 8a d0 3f
       2.3445833 3.0190465 2.8422608 1.6292334
0003d0 a9 1e d6 3f 7a 4d 61 40 08 28 7f 40 ad 3f f0 3f
       1.6728107 3.5203538 3.9868183 1.8769432
0003e0 73 8a e7 3f e7 9a 38 3f cc 57 b3 3f d2 26 16 3f
       1.8089126 0.7211136 1.4011168 0.58652985
0003f0 46 14 25 40 26 6e db 3f e4 69 e1 3f a2 f5 6d 40
       2.5793624 1.714299 1.761044 3.7181172

fc_numerical.2.running_var f4 [256]
000000 51 4c e3 41 fe 2f 17 42 00 d8 c1 42 fe be 86 41
       28.412264 37.796867 96.921875 16.843258
000010 3c 21 3b 41 c0 ba 6b 41 a9 99 0a 41 f3 c0 03 42
       11.695614 14.733093 8.662515 32.938427
000020 53 f4 74 41 63 a4 c5 41 8a 9c 45 41 60 46 51 42
       15.309649 24.705267 12.350718 52.318726
000030 d2 80 2b 41 74 cf b2 41 91 88 3a 41 2c 42 3b 41
       10.71895 22.351295 11.658341 11.703655
000040 34 15 e1 41 b8 8d b5 41 80 c8 d7 41 7c c2 d3 41
       28.135353 22.694199 26.9729 26.469963
000050 e2 84 b8 41 88 be 80 41 2b 24 50 41 7e 2e 11 42
       23.064884 16.093033 13.00883 36.295403
000060 b0 45 17 42 f0 d3 59 42 dd c7 ec 41 12 aa 2f 41
       37.818054 54.45697 29.59759 10.979021
000070 6a 50 85 41 8b f1 5d 41 c4 69 80 41 ac 41 3a 41
       16.664265 13.87147 16.051643 11.641033
000080 9f 68 82 41 13 85 55 41 8f 8d fb 40 ab 96 7f 41
       16.301085 13.344989 7.86103 15.974284
000090 b7 27 ff 41 f0 37 d5 41 4c b2 38 42 0a 68 1a 42
       31.894392 26.652313 46.174118 38.6016
0000a0 9a a3 a4 41 f5 11 06 42 9b d4 0e 42 01 04 1e 42
       20.579884 33.517536 35.707623 39.50391
0000b0 a1 35 8c 41 df be c4 41 dc 09 ba 42 d3 af 56 42
       17.526186 24.593199 93.01926 53.671703
0000c0 52 b8 a2 41 05 88 ad 41 03 e8 55 42 cf 62 ee 41
       20.34 21.691416 53.476574 29.798246
0000d0 50 ba 7a 41 52 cd b5 41 0c 53 16 42 b9 d6 69 41
       15.670486 22.725254 37.5811 14.614923
0000e0 9e 56 41 41 90 8a b0 41 a1 67 91 41 ce 30 cf 41
       12.083647 22.067657 18.1756 25.89883
0000f0 d8 6f 04 42 39 37 6c 41 f7 72 24 42 5b be 2b 42
       33.109222 14.763482 41.11227 42.935894
000100 bb ef af 41 5e 33 ff 40 4b a8 59 42 83 f5 2c 42
       21.992056 7.9750204 54.41435 43.239758
000110 01 c3 3e 41 fe 98 91 41 03 56 f1 41 b6 b2 eb 41
       11.922608 18.199703 30.166998 29.462261
000120 c1 4d 1f 42 8e ec 24 41 12 2c ab 41 4c 59 aa 42
       39.82593 10.307753 21.396519 85.17441
000130 d9 ee 3f 41 91 8c 20 42 32 c9 7e 41 82 ec 08 42
       11.995812 40.13727 15.92412 34.230965
000140 c1 b9 7a 42 a7 bf 9d 41 4c 3e 92 41 bf 82 12 41
       62.6814 19.71858 18.280418 9.15692
000150 f2 39 09 41 b2 83 de 41 32 38 5b 42 b6 88 45 42
       8.576647 27.814304 54.80488 49.383507
000160 ff 97 34 42 f4 24 7a 41 40 1e 08 42 58 bf 69 42
       45.148434 15.634022 34.02954 58.43686
000170 07 eb 61 42 2d dc de 41 49 f0 ff 41 95 6f f4 41
       56.47952 27.857508 31.992327 30.554483
000180 1a 9d 5f 41 6b cc c7 42 f0 23 ee 41 0a 52 fe 41
       13.975855 99.899254 29.767548 31.790058
000190 40 db d0 41 e5 f8 34 41 12 d3 97 42 9d b6 02 42
       26.107056 11.310765 75.91225 32.678333
0001a0 ee 56 0f 42 85 68 4e 41 f9 a2 c0 41 ab 1f f2 41
       35.834892 12.900517 24.079576 30.265463
0001b0 29 b6 09 42 47 a7 5c 42 26 bb f8 41 fa e3 1e 41
       34.42789 55.163357 31.091381 9.930658
0001c0 8b 89 45 41 22 a6 e0 41 e8 5e d9 41 e6 10 5d 42
       12.34608 28.08112 27.17134 55.266502
0001d0 0e d8 9c 41 3f 50 3d 42 bd 03 d5 40 95 12 7a 41
       19.605495 47.328365 6.6567063 15.629537
0001e0 e4 d1 05 42 4b 12 a9 41 65 f9 be 41 d0 02 a3 41
       33.45497 21.133932 23.871775 20.376373
0001f0 cc 79 01 42 08 fa a8 41 5b 42 1d 41 62 4d 07 42
       32.368942 21.122086 9.8287 33.82557
000200 ba 21 db 41 ce 1d 2a 42 f1 fa 60 41 ef de d0 41
       27.391468 42.529106 14.061265 26.108854
000210 48 2d 9c 41 5f 60 5c 41 20 85 86 41 2a a2 9e 41
       19.52211 13.773528 16.815002 19.829182
000220 86 e6 95 41 b0 4e 8c 41 20 3e 6a 42 ca e1 8d 41
       18.73756 17.538422 58.56067 17.735249
000230 e7 4b 61 42 3a d7 e0 41 8d 4a ff 41 fd 07 cb 41
       56.324123 28.105091 31.911402 25.3789
000240 8e c4 34 41 68 18 42 41 a2 89 09 41 5e b0 09 41
       11.297987 12.130959 8.596102 8.605558
000250 e4 74 28 42 ef 7b f6 41 81 e9 d8 41 36 9a 99 42
       42.11415 30.810514 27.114016 76.80119
000260 f5 79 50 42 49 02 3b 42 76 d9 f1 41 47 59 e6 41
       52.1191 46.75223 30.231182 28.793592
000270 d6 ff 69 42 79 65 21 42 7f a8 dd 41 13 02 fc 41
       58.49984 40.349094 27.707273 31.501013
000280 4e 4a 8a 41 c9 04 f2 41 dc 2c 7b 42 d5 82 78 41
       17.286282 30.252337 62.793808 15.531941
000290 81 62 a0 41 8f ff e8 41 93 a6 71 42 4b 54 c3 41
       20.048098 29.124784 60.41267 24.416159
0002a0 d5 2d f9 41 cf fa ae 42 0e c5 07 42 bd 82 49 41
       31.147379 87.48986 33.942436 12.594419
0002b0 4b 11 03 42 01 0d f4 41 6e d1 64 41 c7 16 74 42
       32.766888 30.50635 14.30113 61.022243
0002c0 a8 76 cf 41 06 63 08 42 56 15 08 42 72 7d b6 41
       25.932938 34.096703 34.020836 22.811253
0002d0 84 e0 34 41 a2 e1 8d 41 08 ee 29 41 15 63 f4 41
       11.304813 17.735172 10.620613 30.54838
0002e0 02 82 62 41 5f 3e 7f 41 b4 23 85 41 bd de 6a 41
       14.15674 15.952727 16.642433 14.679379
0002f0 57 43 43 41 4a 1b e3 41 5c af 92 41 c3 f0 a8 41
       12.20394 28.388325 18.335625 21.11756
000300 e7 e4 7e 41 bc 32 0e 42 9e 45 4a 42 6c 87 12 41
       15.930884 35.549545 50.567986 9.158062
000310 03 ba f2 41 b8 38 16 41 ba 43 83 41 a2 8c 58 41
       30.340826 9.388847 16.40807 13.534334
000320 40 95 9a 41 51 49 01 42 f3 f0 e5 41 0e 5f d5 41
       19.322876 32.321598 28.742651 26.671413
000330 f2 8e 4b 41 96 27 66 42 d5 87 c4 42 ac 48 de 41
       12.722399 57.53866 98.2653 27.785484
000340 77 65 d5 41 27 10 81 42 ab a1 ee 41 0b 23 cc 41
       26.674543 64.53155 29.82894 25.51711
000350 00 cd 35 42 12 c4 be 41 d3 79 0d 42 c9 a8 4d 42
       45.450195 23.845737 35.36897 51.41483
000360 7e 42 80 41 c8 6d 3e 41 38 e5 eb 41 fd 44 8b 41
       16.032467 11.901802 29.486923 17.408686
000370 ba b2 88 41 d4 f3 99 42 23 7e ec 41 16 46 53 42
       17.087269 76.97623 29.56159 52.818443
000380 f5 0c 7e 42 f5 c8 cc 41 4a 29 19 42 13 a9 f1 41
       63.512653 25.598124 38.29032 30.207556
000390 ba 02 be 41 6e d9 07 41 57 af 81 41 d9 b4 2a 41
       23.751331 8.490583 16.210615 10.669152
0003a0 73 a4 83 41 47 25 13 42 a1 67 37 42 25 10 fb 41
       16.455297 36.786404 45.8512 31.382883
0003b0 d0 39 34 42 a2 df 8d 41 49 0f 2c 42 81 8f 6a 41
       45.056458 17.734196 43.014927 14.660035
0003c0 a3 34 0a 42 34 2e 16 42 14 4d d8 41 98 c4 1b 41
       34.551403 37.54512 27.037636 9.7354965
0003d0 0b 56 8b 41 b9 4f 67 42 72 e8 6a 42 c9 92 29 41
       17.417013 57.827854 58.726997 10.598336
0003e0 7d 53 9a 41 87 a9 40 41 71 3b be 41 d7 31 92 41
       19.290766 12.0413885 23.779024 18.274336
0003f0 c9 ff 70 42 99 d5 be 41 71 59 5d 41 26 8b 32 42
       60.24979 23.854296 13.834336 44.635887

fc_numerical.3.weight f4 [64, 256]
000000 53 ca bf 3d 6c 8a 7d bc 52 63 c5 bd 94 e4 fa bd
       0.09364762 -0.015474897 -0.096380845 -0.12250629
000010 4f 06 f5 3c ad bd 9a 3d 3b 36 67 bd 38 98 69 bd
       0.029910235 0.07555709 -0.056448203 -0.057029933
000020 0b 53 da 3d 4e 19 cc bb 54 af 9e bd b1 3b 80 3e
       0.106603704 -0.0062286025 -0.07748285 0.2504554
000030 e4 8e 23 bf 4c ef 4a be 30 d8 0f 3e c9 c1 29 be
       -0.6388991 -0.19817847 0.14047313 -0.1657783
000040 66 4b 7c bd d8 96 9e bd 04 7e 9f bd 4c c6 36 be
       -0.061595343 -0.07743615 -0.077877074 -0.17849082
000050 ee 06 8f 3d 70 1b 03 3e 8c 2e e0 bd 8f 0e a1 3c
       0.069837436 0.12803435 -0.10946378 0.019660262
000060 e9 46 60 3e 49 44 86 3c fc 6f f5 3d a1 7a 16 3b
       0.2190205 0.016389983 0.1198425 0.0022961276
000070 cb ad 40 3e 76 71 01 3d ad a3 71 3c 46 d7 83 3d
       0.18816297 0.031602345 0.014748496 0.064375445
000080 b1 44 07 bd 4e fa 7b 3d 5c e4 c0 bd f7 77 2b bd
       -0.033024494 0.061518006 -0.09418556 -0.041862454
000090 bc 9b 9f 3d 43 da a2 3d 12 0a 34 bd a9 57 7a 3d
       0.07793376 0.07951786 -0.043954916 0.061118755
0000a0 b8 06 81 3d ec ce 57 3d 4e 63 25 3d 92 8f 01 be
       0.063001096 0.05268757 0.040377907 -0.12652424
0000b0 96 60 c9 3d f1 df e9 bc ce a8 6a be 13 a4 9f 3c
       0.098328754 -0.028549166 -0.22915956 0.019487416
0000c0 3e bc b0 bd 2f af b3 3c 5a 38 9a 3d 22 66 2b bd
       -0.08629654 0.02193412 0.075302795 -0.04184545
0000d0 af e6 7b bd 69 8b d2 bd 7b 7e f4 bd 8b 17 11 3e
       -0.061499294 -0.102804966 -0.11938187 0.14169137
0000e0 56 d1 5c 3d 0e df b4 be 65 93 96 bd d5 5d 82 3d
       0.053910576 -0.35326427 -0.07352332 0.06365553
0000f0 35 07 98 bd 11 bb ed bd 4c 0e d9 3d 25 f3 0c bd
       -0.0742325 -0.11607946 0.1059843 -0.03441157
000100 39 be 72 bd db a9 6d bd ab 03 ac 3c 12 0e 39 bc
       -0.05926344 -0.058023315 0.020997843 -0.0112948585
000110 e9 bb 36 3e f8 42 ac bd 06 0f 86 3e d7 ff c1 3d
       0.1784512 -0.08411211 0.26183337 0.09472626
000120 a0 b5 30 3d ee 17 c0 3a b1 1c 15 bd 90 e3 22 bd
       0.04314196 0.0014655569 -0.036404315 -0.0397678
000130 5d b1 f0 bd e5 04 8c bd 21 f4 c5 3d a9 13 0e 3d
       -0.11752579 -0.06836871 0.096657045 0.034686718
000140 f9 7c fd bd 73 8e 08 bc 2a 54 13 3c 3c fe 26 be
       -0.12377352 -0.008334744 0.008992234 -0.1630792
000150 b8 ea c2 bc de 92 96 bd f6 c0 4a bd d4 dc 52 bb
       -0.023793563 -0.073522314 -0.04950043 -0.003217508
000160 cc fa a2 3d a7 d3 b7 bd f8 7a 80 3e 42 fa a8 be
       0.07957992 -0.08975916 0.25093818 -0.33003432
000170 a8 17 9c bb 00 0a 60 3d 43 98 c1 bd 96 f6 39 bc
       -0.004763562 0.054697037 -0.0945287 -0.011350295
000180 e5 c1 3b 3d db 1d d1 bd d4 3b 2a 3e 20 39 ee 3d
       0.04583921 -0.102107726 0.16624385 0.116319895
000190 d7 77 5e bd 32 7b 8b 3d b4 b4 78 bb 84 89 2c 3e
       -0.054313507 0.06810607 -0.0037949504 0.16849333
0001a0 b7 90 27 3d 5e 92 ad 3d c2 8c 0f 3e 0a 98 8f 3d
       0.040909495 0.08475183 0.14018539 0.07011421
0001b0 d4 b5 da 3c c6 ed 02 3e f0 79 69 3d 30 85 c6 3d
       0.02669803 0.12786016 0.057001054 0.09693372
0001c0 e8 c8 5c 3d 75 4b 36 3d 0d 71 ed 3c 2f 84 5d bd
       0.053902537 0.044505555 0.02898457 -0.05408114
0001d0 21 ac 04 3d ee cc 32 3d aa 96 01 3e b5 59 fb 3d
       0.032390717 0.043652467 0.1265513 0.1227297
0001e0 db aa a7 3d cd 24 58 bd e0 91 d9 bd 87 57 b6 3c
       0.08186885 -0.05276947 -0.106235266 0.022258533
0001f0 d0 1f 10 3d 19 99 5e 3c 62 ab 19 3d d6 84 82 3d
       0.03518659 0.013586306 0.03751696 0.06372993
000200 26 b7 fe 3d dd 81 0d bd 07 fb bb 3d bc 41 f0 3d
       0.124372765 -0.034547675 0.09178739 0.11731288
000210 85 8a d6 bd 1e 68 49 bd 57 19 0c bd e7 29 0b 3e
       -0.10475639 -0.04917156 -0.034203853 0.13590203
000220 dc fa 33 3d 6d 1a 33 3d 9a 95 bb 3d c2 40 05 3e
       0.04394041 0.043726373 0.091593936 0.13012984
000230 db 0b 04 3e 82 83 4f 3d e0 18 1e 3d 9d 8b a1 bd
       0.12895148 0.050662525 0.03859794 -0.07887957
000240 4a 02 d2 bd 5c 3d 0a bd 3d ef 70 bd 48 c5 34 bd
       -0.10254343 -0.033749923 -0.058821905 -0.044133455
000250 21 26 a6 bd 0f 70 b8 3b f7 50 a9 3d 9b b9 33 3d
       -0.08112741 0.005628593 0.08267396 0.04387818
000260 0e ef 50 be 90 82 0d 3d a5 b7 37 3e b4 6b 81 bc
       -0.20403692 0.034548342 0.17941149 -0.015798427
000270 3e 37 b2 3d a2 f6 bf bd 68 ad ae 3d 93 50 ee bc
       0.08701943 -0.09373213 0.08529168 -0.029091155
000280 a2 a2 40 3e 51 74 41 3d 32 17 01 3d ce e9 06 3d
       0.1881204 0.04723007 0.03151626 0.032937817
000290 0e 45 45 be 18 ba ce 3c a3 6b 0d bd 58 e8 70 bd
       -0.19264624 0.02523522 -0.03452648 -0.05881533
0002a0 77 f8 6a bd 17 f2 77 3d 0e cb 98 3d 5d 84 09 bd
       -0.05736586 0.06053361 0.074606046 -0.033573497
0002b0 dd 20 89 bc df d9 31 be 11 c9 39 be c8 b0 e7 bc
       -0.016739303 -0.17368267 -0.18143107 -0.028282538
0002c0 ae 95 f2 3d 81 b4 22 be 7c ae 90 3d c4 05 80 bd
       0.118449554 -0.1588917 0.0706453 -0.062511
0002d0 5f 52 a0 3c 3b d2 1d 3e 9a 4e 08 3e 2f 06 35 3d
       0.019570528 0.15412228 0.13311234 0.04419535
0002e0 47 40 60 bd ba 4c 9b 3c a6 33 a4 bc 17 47 b1 3e
       -0.0547488 0.018957485 -0.02004416 0.3462455
0002f0 b2 aa 2b 3d 15 5a 39 3e 74 5b 93 3d 20 8a d7 3c
       0.041910835 0.1810077 0.07195178 0.02631098
000300 71 c9 fc 3d 83 09 e8 bd df f5 a8 bd 6f dc 80 3d
       0.123431094 -0.11329939 -0.08250021 0.06292044
000310 d9 a5 aa bc 8b e6 35 be 14 88 9b bd d1 35 02 be
       -0.020831035 -0.17763726 -0.07594314 -0.12715842
000320 69 58 d5 3d f7 40 0b 3d ef 11 df 3d 13 d2 82 bc
       0.104172535 0.033997502 0.108920924 -0.015969312
000330 76 00 86 3b f1 83 e2 bc 0c 16 38 bd 67 a6 86 bd
       0.0040894104 -0.027650805 -0.0449429 -0.065747075
000340 f3 32 f2 3d 1a 51 4c bd 76 11 c6 bd a2 1c 7b 3e
       0.11826124 -0.049882032 -0.09671299 0.24522641
000350 ad e9 c6 bd 82 17 0f bf 8c 53 7c 3e c0 71 ed bc
       -0.09712539 -0.55895245 0.24641246 -0.028984904
000360 e1 0a 6c bd 77 79 b9 3d 53 63 75 3d 42 e7 60 3d
       -0.057627562 0.09056371 0.059909176 0.054908045
000370 3c 2a 23 3b d3 87 10 3d 85 29 7b bd 03 0a d5 3e
       0.0024897 0.035285782 -0.061318893 0.416092
000380 21 c6 76 3d f4 2a 9d 3d 0f bf a9 3c 75 65 12 3e
       0.060247544 0.07674208 0.020720987 0.14296515
000390 22 90 46 be 18 e6 65 bd ed 5b 1f 3e a5 a1 9a bd
       -0.1939092 -0.056127638 0.1556241 -0.075503625
0003a0 49 04 ff 3d 5e 00 b9 be bf 8b d0 3d b9 09 7e bc
       0.12451989 -0.36133093 0.101829045 -0.015505248
0003b0 eb fb 72 3e a0 67 d7 3d af f0 1c bd 13 4a 26 3c
       0.23728912 0.10517812 -0.03831547 0.010149497
0003c0 63 88 25 3e 8c 16 fa bd 12 f7 0c bd 06 e1 02 3c
       0.16165309 -0.12211332 -0.034415312 0.00798822
0003d0 8e 37 ee 3d 7d dd 04 3d b1 06 16 bc 8c ea c2 bd
       0.1163169 0.03243779 -0.009156869 -0.095173925
0003e0 13 ab 04 be 7b 1f 1e be cb 68 6d bc 77 ca 86 bd
       -0.12955885 -0.15441696 -0.014490317 -0.06581586
0003f0 61 dd a5 3b 84 c1 15 bc 76 4b d5 3d 55 da 1c bd
       0.005061791 -0.009140376 0.10414784 -0.038294155

fc_numerical.3.bias f4 [64]
000000 6f 11 ac be 9c 89 aa bf f2 45 07 be 1f 02 d5 be
       -0.3360705 -1.3323245 -0.13210276 -0.4160318
000010 d4 7a 0e bf e7 79 1f 3b 22 8c 2c bd 7a 25 bd 3d
       -0.5565617 0.0024334134 -0.04212583 0.09235664
000020 31 36 e3 be c7 f5 95 bc e8 53 a6 bf b2 c4 34 3e
       -0.44377282 -0.018305672 -1.2994356 0.17653158
000030 74 31 f4 bd b1 e6 38 be 03 e0 91 be 4a ad 83 be
       -0.11923495 -0.18056752 -0.2849122 -0.25718147
000040 13 5e e3 bc af d3 2c bb 0c 33 03 3e 91 c2 b9 be
       -0.027754819 -0.002637129 0.12812442 -0.36281255
000050 66 0f 8e 3e 0b 62 63 be 80 b1 cb be 9e a4 70 be
       0.27746123 -0.22205369 -0.3978386 -0.23500296
000060 9f 03 b8 bd d0 a3 4d bf 84 59 1b bf 25 9e a5 be
       -0.08985066 -0.80328083 -0.60683465 -0.32347217
000070 48 2d 3b 3e ee 8a a3 bd 68 60 d9 3d a2 89 9a 3c
       0.18278992 -0.07985483 0.10614091 0.018864457
000080 b3 12 66 be 58 eb 9e be 61 0f b4 be 95 b1 32 3e
       -0.2246807 -0.31038928 -0.35167983 0.17450555
000090 ad 8a 89 bf 49 80 53 3e 3f 17 b1 be 55 9f 88 be
       -1.0745445 0.20654406 -0.34588048 -0.2668406
0000a0 41 38 9c 3d e0 ff 22 be a8 e2 10 3e 70 3b 31 be
       0.07627917 -0.15917921 0.14148962 -0.1730783
0000b0 d3 57 75 bb 1a a8 ac be 1a 17 34 be 35 77 0c be
       -0.003743638 -0.33722 -0.17586938 -0.13717349
0000c0 9b 67 5a be ac ab f9 be 02 aa f6 be 2d 62 01 be
       -0.21328585 -0.48763788 -0.4817658 -0.12635107
0000d0 b5 80 9e bf c4 ce 29 bf 19 2d 9b be 5d 86 3f be
       -1.2383028 -0.66331124 -0.30307844 -0.187036
0000e0 f3 65 30 bf f8 22 83 bf eb 50 ee be bf d4 49 be
       -0.6890556 -1.0245047 -0.4654611 -0.19710062
0000f0 34 48 12 be f4 dc f0 be 1b 13 49 bf 19 39 84 bf
       -0.14285356 -0.47043574 -0.7854478 -1.0329925
