numerical_model_best_2.pth (torch, 245010 bytes, 13 tensors)

fc_numerical.0.weight f4 [256, 163]
000000 be aa 67 bf 35 47 8a be db 27 17 bf 49 39 89 bf
       -0.90494907 -0.27007452 -0.5904519 -1.0720607
000010 96 c4 07 3d 16 f3 08 be 6f 5e fe be 02 4b 73 3e
       0.033146463 -0.1337398 -0.49681422 0.23759082
000020 7d 11 b0 be 96 46 c2 bd 7a 38 59 be 76 5f b3 3c
       -0.34388342 -0.094861194 -0.2121295 0.021896105
000030 f9 8d ad 3d 17 48 ec 3e 8e 76 80 bd 74 59 95 3d
       0.08474345 0.4614875 -0.062726125 0.072924525
000040 18 c5 c4 3d 4d b3 83 3e 62 d9 02 3d b8 bf 83 be
       0.09607905 0.25722733 0.031945594 -0.25732207
000050 1e ce 98 bd b3 81 e8 bd 36 d9 02 3f be 54 06 bf
       -0.07461189 -0.11352863 0.5111269 -0.52473056
000060 93 47 2f 3f 24 22 69 bd 96 1c 52 3e c8 97 a2 bd
       0.6846859 -0.056917325 0.20518717 -0.07939106
000070 57 1e c2 3e e1 a4 65 bd 78 b0 27 3e 5e 50 7d 3e
       0.37913772 -0.056065444 0.16375911 0.24737689
000080 b8 f1 e4 3d 4f 88 7e 3e c5 d4 ca 3c 0e 5a e4 3e
       0.11178917 0.24856685 0.02475966 0.44599956
000090 31 2f b7 3e 4e cd 40 be 15 59 61 3e 06 b2 36 3e
       0.35778192 -0.18828318 0.22006638 0.17841348
0000a0 a9 11 1a 3e d9 43 0d 3e c9 04 ec bd 8e 16 54 bd
       0.150458 0.13795413 -0.1152435 -0.051779322
0000b0 d6 e8 e6 3b f0 ba 1b be dd 0f 3f bc e4 43 0b be
       0.007046799 -0.1520803 -0.011661497 -0.13600117
0000c0 4a 06 bb 3c e4 62 f8 be 2a 7a a8 be 0e 73 ec be
       0.022830147 -0.48512948 -0.32905704 -0.4618153
0000d0 6f bc b8 be 06 04 0a bf 2e d5 8b be 5a 19 8e 3e
       -0.36081263 -0.5391239 -0.2731108 0.27753717
0000e0 72 d7 b2 3e 36 d1 8b 3e 1f be e4 3e e8 fd b3 3e
       0.34929997 0.27308053 0.446763 0.35154653
0000f0 07 a4 a8 3e 3e ed de bd 5a 92 0b 3e 24 3d 6b 3e
       0.32937643 -0.10885094 0.13630047 0.22972542
000100 62 ae 88 3d f3 b1 c1 bd 73 cc a2 3d 16 bc 57 be
       0.06673886 -0.09457769 0.07949152 -0.21067843
000110 d1 89 39 bd d5 c5 89 be 0b 0d 41 bd c8 eb a8 3e
       -0.045297448 -0.26908746 -0.04713158 0.32992387
000120 53 2a c2 3e e5 03 b8 3d 8c 6e a0 3e 69 04 de 3e
       0.37922916 0.08985118 0.3133434 0.4336274
000130 82 28 c7 3e 9e 94 f5 3b 35 d1 83 be 27 ee 3c be
       0.38898093 0.007494523 -0.2574555 -0.18450223
000140 d4 ea dc bc ad cd 6d 3e 63 c7 0e 3e ed c9 50 3e
       -0.026967444 0.2322299 0.13943247 0.20389529
000150 df 36 c8 3d 2b 2e d5 3d 0f 9c a6 3e 0f 9f 8a be
       0.09776091 0.104091965 0.32540938 -0.27074477
000160 d2 d6 98 be 9c f5 b0 be 53 e4 85 be fc 8e 2f 3e
       -0.29851395 -0.34562385 -0.2615076 0.17144388
000170 fa b1 5b be 42 b1 33 be 96 ba 71 be 5e 19 b1 bd
       -0.21454611 -0.17548087 -0.23606333 -0.086474165
000180 7b e9 38 3e 80 24 33 be 41 ec 88 be 97 11 5b be
       0.18057816 -0.17494392 -0.26742747 -0.21393429
000190 6d ca 0c be 16 57 1e 3e 90 61 f6 bd 20 2a b1 be
       -0.13749094 0.15462908 -0.12030327 -0.3460245
0001a0 cd c0 94 be 24 4b 71 be d7 b6 28 bd 5e 67 8e bd
       -0.29053345 -0.2356382 -0.041189995 -0.069533095
0001b0 de 6c 79 be ea 80 18 bf 78 4b 1a be 3d 5f 10 bd
       -0.24357936 -0.5957171 -0.15067852 -0.035247076
0001c0 91 cd 61 3e 53 a3 9f be fd 3d 99 be 33 6b a8 bd
       0.22051074 -0.31179294 -0.29930106 -0.08223572
0001d0 9f 66 45 bd 46 3d 7e 3e 91 df 6f be cc 7f 2b be
       -0.04819357 0.24828061 -0.23425128 -0.1674797
0001e0 5b 7b 35 3e 7f 4a fa 3c 08 08 a7 3e 7d ef 77 3d
       0.17722838 0.0305531 0.32623315 0.06053113
0001f0 f7 f9 03 3e b8 39 b6 3e 2c 1a 40 3e 82 b2 4f 3e
       0.12888323 0.3559091 0.18759984 0.20282939
000200 30 9c cc 3e ab a4 af 3e 25 19 9b 3e 7b 02 95 3d
       0.39962912 0.3430532 0.3029262 0.07275864
000210 16 4d 57 3e 8c 52 f8 3d e0 a6 ff ba 11 17 ca bc
       0.210255 0.121251196 -0.0019504689 -0.024669202
000220 0e 96 82 bd d5 7b ed 3c 03 3d 8f bd 94 83 67 be
       -0.06376277 0.028989712 -0.06994059 -0.22608787
000230 55 9b b6 3c b6 b0 1a be 6b 3e 32 be 69 c3 61 bd
       0.022290865 -0.15106472 -0.17406623 -0.055118
000240 2a 59 0f be 14 08 62 be fe 56 63 be 53 ae d0 bd
       -0.13998857 -0.22073394 -0.22201154 -0.101895
000250 d6 b4 31 be 75 f1 4a be a4 b1 4f be 3a 5c 16 be
       -0.1735414 -0.19818671 -0.20282608 -0.14683619
000260 9f e0 fc 3d fa 16 43 bd 5d b5 cf bc 73 c2 a3 bd
       0.123475306 -0.047629334 -0.025355035 -0.079960726
000270 dc 47 87 bd 7a 3f 93 bd 8e 70 b7 be 8b 49 a0 be
       -0.06605503 -0.071898416 -0.3582806 -0.3130611
000280 ee a6 9b be f7 8d be be 70 41 22 be b6 3e 82 3f
       -0.30400795 -0.37217686 -0.15845275 1.0175388
000290 0b 09 13 3e df fb ea bc d3 c7 ef be 9d fb f3 3d
       0.14358918 -0.028684555 -0.4683214 0.11913226
0002a0 b9 d5 91 bd cb a9 b7 3d 1e d5 79 3e 1d 48 30 3d
       -0.071208425 0.08967932 0.24397704 0.043037523
0002b0 c9 70 93 3e f6 3d ae 3d 50 1a b0 3e 36 83 88 3e
       0.28796986 0.08507912 0.34395075 0.26662606
0002c0 24 88 0d be fa 18 7d 3e 74 f7 f5 3d b3 60 62 3e
       -0.13821465 0.24716559 0.120100886 0.221072
0002d0 62 ff 1a be 27 72 98 3e 9b c5 93 3e 0f cd 05 3f
       -0.15136483 0.2977459 0.28861699 0.5226602
0002e0 2f ee b4 3e 5d 09 62 3e 03 bf 0d 3f 86 10 2f bd
       0.3533797 0.22073884 0.55369586 -0.042740367
0002f0 33 df 2d 3e 6c f4 f1 bd f1 05 7a 3e ed 29 c0 bc
       0.16979675 -0.11814198 0.24416329 -0.023457492
000300 05 66 60 3e ac 80 65 be e9 5d 11 bf 64 68 ea be
       0.21913917 -0.22412366 -0.5678392 -0.4578277
000310 ad 9b 20 bf 63 35 1b 3e f1 e1 50 bf 73 9e 9b be
       -0.6273754 0.15157084 -0.8159476 -0.30394325
000320 4f a9 06 be c5 ef ed 3d 0f 1d 11 3f 47 83 c9 3d
       -0.13150524 0.11617998 0.56684965 0.09839492
000330 2f 74 03 3e 12 12 a3 3d 95 54 dd bd 9f 8f dd 3e
       0.1283729 0.07962431 -0.10807148 0.43273637
000340 df 49 57 3e ea 3c ca 3e 4f 5d 88 3d 5a 7a b4 3e
       0.21024273 0.394996 0.06658422 0.35249597
000350 94 d9 9e 3c be f7 eb 3b 9c 71 9e 3d ab dd 87 3c
       0.019390859 0.007201164 0.07736513 0.016585192
000360 4d 93 f3 3c 0b 81 93 bd 15 df f2 bc 3a eb e8 bd
       0.029733324 -0.07202347 -0.02964739 -0.11372991
000370 d8 11 a5 bd 9c 6e 1e be 5e d5 10 be 18 50 d2 bc
       -0.08060044 -0.15471882 -0.14143893 -0.025672957
000380 03 02 4b bc 39 75 b1 3e 30 19 69 3e b2 a3 5f 3e
       -0.012390616 0.34659746 0.22763515 0.21839789
000390 06 e3 a1 3e 46 30 a6 3e 21 55 9d 3d 55 51 10 3e
       0.31618518 0.32458705 0.07682253 0.14093526
0003a0 3a 89 d1 bd 8e 91 9c bd 34 0b 22 be 33 92 96 3d
       -0.10231252 -0.0764495 -0.15824586 0.07352104
0003b0 0b 6d 3b be 41 4d d4 bd 78 4b 19 be 74 89 61 be
       -0.18303315 -0.103662975 -0.14970195 -0.2202509
0003c0 61 d2 35 3e ca 99 07 3e 88 e1 8f 3d d0 57 31 3d
       0.17756034 0.1324226 0.070254385 0.043296635
0003d0 e6 ee ee bd 7c 79 a0 3d 45 a2 ca 3d e0 c6 ca bc
       -0.1166666 0.07835671 0.09894232 -0.024753034
0003e0 ab 32 cb bc f1 48 98 bd 0a c9 8d bd 83 4d e7 3d
       -0.024804434 -0.074357875 -0.06923111 0.11294081
0003f0 af 50 fd bd 3b e8 a1 bd 4d b7 1e be 19 d0 b1 be
       -0.12368905 -0.079056226 -0.15499611 -0.34729078

fc_numerical.0.bias f4 [256]
000000 0f 1d a6 3e 37 3c b2 be b7 96 49 3e 8e 8e a8 3e
       0.32444045 -0.34811565 0.196864 0.3292126
000010 f6 87 32 be 7e 88 67 bf f1 79 e4 be 5a 52 8d be
       -0.17434677 -0.90442646 -0.44624284 -0.27601892
000020 9f ec 0b bf d5 bb 1d bf 18 4c ce bd f0 c2 61 be
       -0.5465793 -0.61614734 -0.100731075 -0.22047019
000030 d6 c8 aa be f3 ca 05 bf 31 91 c1 be 1b 6d 37 bf
       -0.3335635 -0.522628 -0.37806085 -0.71650857
000040 e1 db 80 3e d5 c3 f5 bd 2c da 08 3e 4a dd 46 bf
       0.25167754 -0.120002426 0.13364476 -0.7768141
000050 c8 ab be 3d 1d 21 a1 bf 51 e6 9b bf 01 94 28 be
       0.093101084 -1.258823 -1.2179662 -0.16462709
000060 20 b1 90 be ad 2c a3 3d 03 b4 93 bf af a0 9b be
       -0.28260136 0.079675056 -1.153931 -0.3039603
000070 26 93 4d bf d0 f9 d4 3e 4f 69 76 bf 16 c6 e8 bd
       -0.80302656 0.41596842 -0.9625444 -0.11365907
000080 65 be f6 be c4 19 b5 be 72 a4 ae 3e cd 2f 9f bf
       -0.48192134 -0.3537122 0.34109837 -1.2436463
000090 3d 9e 6c 3e 50 58 60 be b2 36 71 be 8b af 17 bf
       0.23107238 -0.21908689 -0.23556021 -0.5925223
0000a0 3a e1 49 bf 22 39 a3 3e 08 98 51 3e 6e f3 10 3e
       -0.78859293 0.31879526 0.20468152 0.14155361
0000b0 cf 87 81 bf 10 47 61 bf 79 0a f8 be 56 a3 21 bf
       -1.011957 -0.8799906 -0.4844549 -0.63139856
0000c0 3a a0 c0 bf 36 14 c6 be e3 f6 89 be 07 f6 90 3e
       -1.5048897 -0.38687295 -0.26946172 0.28312704
0000d0 97 45 40 bf ac f3 cb bf 7b e7 55 3e e4 92 93 bd
       -0.75106186 -1.5933738 0.20889084 -0.072057515
0000e0 a9 f2 41 bf 76 05 36 3e ab bd 11 bc 58 09 8b be
       -0.75760895 0.1777552 -0.008895318 -0.27155566
0000f0 3d 25 bb be 20 34 e1 bd 8d 9a 90 3e 32 ab 20 bf
       -0.36551848 -0.1099627 0.28242913 -0.62761223
000100 af cb 05 bf 30 65 6b bd cf 9e 01 bf 30 80 5f bf
       -0.5226392 -0.057469547 -0.5063295 -0.87304974
000110 10 e2 17 bd 48 32 11 bf e4 27 62 b9 64 fb e7 3e
       -0.037080824 -0.5671735 -0.000215679 0.45308983
000120 9c 45 80 3e cb e1 0a bf d3 2a b9 be ba 6e 8d 3e
       0.25053108 -0.5425078 -0.36165485 0.2762354
000130 5d 19 ec 3d 35 32 bf bf c9 a4 12 bf 06 63 a0 bf
       0.11528275 -1.4937197 -0.5728269 -1.253022
000140 bf 1c 8a bf 2e 32 9e 3e 5b a0 da bf 66 55 35 be
       -1.0790023 0.3089766 -1.7080187 -0.17708358
000150 36 90 89 bf 65 5d e0 be 39 80 06 bf f0 e5 cc be
       -1.0747135 -0.43821254 -0.525394 -0.40019178
000160 7d 07 2f 3d ec 80 a9 be 5f cd c2 be 6e a8 4b bf
       0.04273175 -0.33106172 -0.3804731 -0.7955388
000170 e9 83 75 be 48 0a 9b bf f9 94 83 be 28 8f 1c bf
       -0.23976101 -1.2112513 -0.25699595 -0.6115594
000180 12 c6 bb bd f6 d2 96 3d 19 b0 09 bf 66 15 7c 3d
       -0.09168638 0.07364456 -0.5378433 0.061543845
000190 9a 54 64 3d d0 76 a5 3e 85 1c 26 3e 0f 62 1e 3c
       0.055744745 0.3231721 0.16221817 0.009666934
0001a0 10 09 98 be 3e 76 47 be 50 95 c3 3b dd f2 66 3e
       -0.29694414 -0.194787 0.005968727 0.22553582
0001b0 69 18 a4 be 1e f0 7e be 4e 17 30 3d e2 3b 17 bf
       -0.32049873 -0.24896285 0.042990975 -0.5907575
0001c0 4f 66 28 bf bf c8 1d 3e c4 98 56 3e 83 f5 de bf
       -0.6578111 0.1540861 0.20956713 -1.7418674
0001d0 c1 56 53 3e cd 22 66 3e 66 4a 3c bd b6 22 2a bd
       0.20638563 0.22474213 -0.04596939 -0.04153701
0001e0 2d ae af 3e 46 7f 5c be cc ca c9 bd bb 95 17 bf
       0.34312573 -0.21532926 -0.098531336 -0.59212846
0001f0 34 62 37 3c 9b 78 77 be d2 f3 a1 be 4c 62 81 be
       0.011192847 -0.24167101 -0.31631333 -0.25270307
000200 3a 38 82 be b4 7f 22 be 76 8f 8e be 36 dd 19 be
       -0.25433522 -0.15869027 -0.27843827 -0.15025792
000210 a8 2a 4c bf 03 5f 40 bd 64 44 78 be e8 1c 3a bf
       -0.7975259 -0.04696561 -0.24244839 -0.7270036
000220 ee dc 59 bf 90 f9 80 bf 02 67 77 be 95 63 52 3e
       -0.85102737 -1.007616 -0.24160388 0.205458
000230 96 f4 66 bd 5a 88 37 3e 1c 1e b8 bd 13 b7 d2 3c
       -0.0563856 0.17923108 -0.08990118 0.025722062
000240 1c dc 22 bf 3b 86 05 be 25 ba a7 3c fe e9 b0 bf
       -0.6361711 -0.13039486 0.020474503 -1.3821409
000250 04 c7 83 bf c6 39 a7 be 9a 18 84 bd 8e cc d8 be
       -1.029511 -0.32661265 -0.06450005 -0.42343563
000260 42 8e f4 3d 86 8b c5 bd 5e a2 69 bf 16 ad f9 bf
       0.11941196 -0.096457526 -0.9126338 -1.9505947
000270 d1 43 6b be c3 b5 f5 be 4e 34 10 be ac ea e1 3d
       -0.22975089 -0.47990236 -0.14082453 0.11031088
000280 84 87 59 3e 5c 3d 38 be 63 dc 2f 3d d0 8f 86 be
       0.21243101 -0.17992157 0.042934787 -0.26281595
000290 f1 2d 32 3e 2b fb 7a 3c 9b 7c 9b be e2 62 6b 3e
       0.17400338 0.015318672 -0.30368504 0.2298694
0002a0 09 58 e3 be af 19 e5 bf 6e f9 06 bf ca 42 b6 3e
       -0.44403103 -1.7898463 -0.5272435 0.3559783
0002b0 11 ad e4 3d 22 12 80 be 4f 0e 87 bd 40 a0 a2 3d
       0.11165822 -0.25013834 -0.06594526 0.079407215
0002c0 f0 51 0f 3d b1 60 bf 3e 01 56 24 3e 7a 2c 0a be
       0.03499025 0.37378457 0.16048433 -0.13493529
0002d0 a6 36 03 bf 37 1d 5a be 7c 8e cf 3d 88 cd 88 be
       -0.5125526 -0.21300207 0.101345986 -0.26719308
0002e0 b4 fb 1d bf 1e 9b 27 3e 29 cc b1 be 8d d9 1b bd
       -0.61712193 0.16367766 -0.34726074 -0.03804927
0002f0 a6 5c 93 be e9 21 93 bf 2f 85 05 3d d4 4e 95 bf
       -0.28781623 -1.1494724 0.032597717 -1.1664681
000300 5c e0 76 be bd 05 31 be 02 58 d2 be a8 89 58 be
       -0.24109024 -0.17287345 -0.4108277 -0.21146262
000310 e5 ac 9d bf f7 e7 84 bd 81 27 ee be 52 03 ba 3d
       -1.2318388 -0.06489556 -0.46514514 0.090826645
000320 e7 89 9c 3e e4 73 1d c0 f4 f1 83 bb ad 73 84 bf
       0.3057396 -2.4601984 -0.004026646 -1.0347801
000330 3d 69 f8 bc da 93 b3 3d 13 b7 8e 3e bd a4 1a 3e
       -0.030323619 0.08768435 0.2787405 0.15101905
000340 38 99 91 be db 88 0b be ee ad cd bd 26 97 ef be
       -0.2843721 -0.13626425 -0.1004294 -0.46795005
000350 67 4c ba bd 0e d6 13 bf 32 bc 13 be 67 81 e6 bd
       -0.09096604 -0.57748497 -0.1442726 -0.1125515
000360 60 88 4e bf ad 6b ad bf 02 1e c2 be 0b c7 d4 be
       -0.8067684 -1.3548485 -0.3791352 -0.41558108
000370 ac de f7 be 0d 16 07 3e 9c ce ae bd 20 85 52 bd
       -0.48412073 0.13192005 -0.08535501 -0.05139649
000380 af 1a 14 3e 21 21 94 be a8 81 a3 3c a7 10 d3 3d
       0.14463304 -0.28931525 0.019959286 0.103059106
000390 75 51 fc 3e 84 f2 f1 be 28 1f 47 bd 4d c6 db bd
       0.49280897 -0.47255337 -0.048613697 -0.10731182
0003a0 8c 32 b5 3e 94 da fe bd 39 39 9d 3e 34 4b 7d 3e
       0.35390127 -0.12444034 0.3070772 0.24735719
0003b0 7b 77 40 be 78 0d 15 3f 13 29 8a bf a5 e6 bf bd
       -0.18795578 0.58223677 -1.0793785 -0.09370164
0003c0 27 36 1f be a4 15 9d be e8 27 f1 be 88 6d bb be
       -0.15548001 -0.30680573 -0.4710076 -0.36607003
0003d0 0d 85 18 bf c5 dd 06 be 20 66 c1 be ff 92 95 3c
       -0.5957802 -0.13170536 -0.37773228 0.01825857
0003e0 61 ec be bf 3d 66 dc be 17 7f 57 be 3c 4b 9d bf
       -1.4915887 -0.43046752 -0.21044575 -1.2288585
0003f0 9b a8 92 bf 22 a4 c0 be 6d 0e 9b 3e 16 36 f1 bd
       -1.1457704 -0.37625223 0.30284443 -0.11777894

fc_numerical.2.weight f4 [256]
000000 b0 0b 9b 3f 6f 48 96 3f f9 a0 a1 3f 44 88 63 3f
       1.2112942 1.1740855 1.262725 0.888798
000010 5d 71 4e 3f cc 7c 3d 3f 63 df 5b 3f 7a a9 4c 3f
       0.8064173 0.7401855 0.85887736 0.799461
000020 22 ef 82 3f cd 5c 59 3f 91 ef 6b 3f a0 76 ef 3e
       1.0229228 0.8490723 0.92162424 0.4677019
000030 1d aa 94 3f 6c 8b a4 3f 5c ea 67 3f ff dc 2d 3f
       1.1614414 1.2855048 0.9059198 0.6791534
000040 2b 9e 93 3f 3a ce 6c 3f c5 c6 03 3f b3 8c 67 3f
       1.1532644 0.92502177 0.51475173 0.90449065
000050 72 dc 6a 3f 5d 07 f6 3f 5c d2 93 3f d7 aa 29 3f
       0.9174262 1.9220997 1.1548572 0.66276306
000060 dd 88 58 3f c7 02 81 3f 33 bd 8e 3f 52 e3 a0 3f
       0.84583837 1.0078973 1.1151489 1.2569373
000070 b3 a3 8d 3f 00 b0 76 3f 56 10 c9 3f 92 78 4d 3f
       1.1065582 0.96362305 1.570811 0.802621
000080 7a 05 5b 3f 4c a8 8e 3f aa 23 63 3f 9d f3 df 3f
       0.8555523 1.114511 0.88726294 1.749622
000090 b7 a3 2e 3f e4 e3 84 3f 26 9d 4e 3f 26 49 90 3f
       0.6821856 1.0382047 0.8070854 1.1272323
0000a0 cd 6e ab 3f 7c 41 76 3f 96 01 1f 3f ec 45 4f 3e
       1.3393189 0.9619367 0.62111795 0.20241517
0000b0 5e 08 99 3f 8e 9b 28 3f fb a7 ac 3f e0 26 42 3f
       1.1955678 0.6586236 1.3488764 0.7584057
0000c0 16 ae e1 3f 97 49 3a 3f f3 f9 3e 3f ac 6c 4a 3f
       1.7631252 0.7276854 0.7460014 0.7907207
0000d0 1c 6e 88 3f 89 f3 ca 3f d5 bf 40 3f e6 9a 2c 3f
       1.0658603 1.5855571 0.7529271 0.67423856
0000e0 67 9e 8b 3f 54 36 48 3f e1 fb 3d 3f 5c e6 ce 3e
       1.0907716 0.782079 0.7421246 0.40410125
0000f0 89 60 78 3f 2f 5f 71 3f b2 39 d3 3e 10 4c 67 3f
       0.970223 0.94285864 0.41254956 0.9035044
000100 af 40 43 3f 9f e1 41 3f db ec 7a 3f f0 1b 93 3f
       0.76270574 0.75734895 0.9801766 1.1492901
000110 7d fc 02 3f 1c 21 9b 3f 04 dd 87 3f 95 87 19 3f
       0.51166517 1.2119479 1.0614324 0.59972507
000120 10 50 3f 3f e8 3e 3f 3f b8 56 93 3f 36 1e 44 3f
       0.7473154 0.7470536 1.151084 0.766086
000130 21 be 4e 3f 18 31 b5 3f 29 d2 63 3f 68 c4 e2 3f
       0.80758864 1.4155607 0.88992554 1.7716188
000140 9b b3 b7 3f 22 66 48 3f 6e 2c 9f 3f 28 d9 5c 3f
       1.4351686 0.7828084 1.2435434 0.86268854
000150 fd 1f ae 3f f2 2e 87 3f 46 65 9d 3f 72 da 26 3f
       1.3603512 1.0561202 1.2296531 0.6517707
000160 4b eb 3a 3f 1d 4b ad 3f 83 94 68 3f 11 e5 bf 3f
       0.7301528 1.3538548 0.9085161 1.499178
000170 c0 62 47 3f f0 c6 9e 3f 13 f8 7b 3f 2f 68 aa 3f
       0.77885056 1.2404461 0.98425406 1.3313044
000180 50 a9 87 3f 35 4d 62 3f 22 b6 ac 3f 46 65 94 3f
       1.0598545 0.8839906 1.3493083 1.1593406
000190 8b e9 63 3f 03 cd 92 3f ad 1a f5 3e 26 2d 78 3f
       0.89028233 1.1468815 0.47871915 0.9694389
0001a0 08 fc 43 3f c4 07 7d 3f 1f d8 81 3f 1e 27 41 3f
       0.76556444 0.98839974 1.014408 0.75450313
0001b0 bf b4 74 3f 4f be 77 3f 0c 27 5e 3f e6 08 a1 3f
       0.95588297 0.9677476 0.8677833 1.258084
0001c0 11 5d 9a 3f b5 a8 55 3f a9 b9 62 3f d8 79 b7 3f
       1.2059652 0.8346055 0.88564545 1.4334059
0001d0 03 f3 47 3f 9b 97 c6 3f 9a 5e 71 3f e3 3e 83 3f
       0.7810518 1.5515016 0.94284976 1.0253567
0001e0 e8 d8 78 3f 7b 5c 49 3f 79 6f 6c 3f 5a f3 62 3f
       0.9720597 0.7865674 0.92357594 0.88652575
0001f0 ee a4 55 3f bd ad 1d 3f 48 bf 95 3f fc e7 14 3f
       0.8345479 0.6159323 1.1699 0.5816648
000200 f4 8d 62 3f ce 83 49 3f 25 1c a1 3f 9e 51 31 3f
       0.88497853 0.78716743 1.2586714 0.6926516
000210 be 10 e7 3f 62 10 80 3f 80 fc 34 3f 6c 53 d2 3f
       1.8051984 1.0005 0.70697784 1.6431708
000220 9c b6 f8 3f 81 51 b3 3f aa a0 62 3f ba f6 12 3f
       1.9430728 1.4009248 0.88526404 0.57407725
000230 d4 1d 21 3f 70 13 72 3f 51 56 95 3f 5a 30 4b 3f
       0.6293614 0.9456091 1.1666967 0.79370654
000240 e8 4c 88 3f 15 4c 36 3f 86 c4 70 3f 64 22 e2 3f
       1.064847 0.7120984 0.9404987 1.7666745
000250 b3 bc 53 3f 66 41 89 3f 38 ba 6c 3f 66 c5 a3 3f
       0.8270981 1.0723083 0.9247165 1.2794616
000260 4d 42 61 3f 59 e5 60 3f ce c4 89 3f 60 2e a0 3f
       0.8799179 0.87849957 1.0763185 1.2514153
000270 fb e2 a3 3f 4c ac 7a 3f 09 85 49 3f 25 7e 4c 3f
       1.2803644 0.97919154 0.7871862 0.7987998
000280 a1 0c 75 3f 38 48 2a 3f a3 f3 61 3f 17 f3 75 3f
       0.95722395 0.6651645 0.88262385 0.9607405
000290 a7 7c 42 3f 95 d1 92 3f 63 24 9e 3f 94 12 3c 3f
       0.75971454 1.1470209 1.2354854 0.7346585
0002a0 c2 15 85 3f c3 a6 8b 3f 81 ab 25 3f 29 2c 5a 3f
       1.0397265 1.0910267 0.6471482 0.85223633
0002b0 72 e5 87 3f 8c d6 46 3f c9 78 3c 3f 86 81 64 3f
       1.0616896 0.7767112 0.73621804 0.8926014
0002c0 23 1d 9d 3f e0 de 7d 3f b8 1e 29 3f 5f b0 5e 3f
       1.2274517 0.99168205 0.660625 0.8698787
0002d0 7c 33 f1 3f 10 2f 79 3f 1e ea 4b 3f 52 38 96 3f
       1.8843837 0.97337437 0.7965411 1.1735938
0002e0 c3 a7 f6 3f 85 e5 37 3f 36 70 5f 3f ba ac 22 3f
       1.9269947 0.71834594 0.87280595 0.6354481
0002f0 40 53 8c 3f 89 d5 f1 3f 6f ad 62 3f 35 3f b1 3f
       1.0962906 1.8893291 0.8854589 1.3847414
000300 6e 4c 80 3f dc 10 67 3f b7 be 4b 3f 48 25 0c 3f
       1.0023324 0.902601 0.7958788 0.54744387
000310 ac f4 98 3f 8e 9f 4f 3f 68 eb 9c 3f b4 fc 3d 3f
       1.1949668 0.81102836 1.225934 0.7421372
000320 fb 78 38 3f 89 41 d1 3f 71 7c 21 3f d9 4c aa 3f
       0.720596 1.6348125 0.6308051 1.3304702
000330 a4 6a 6b 3f 68 49 51 3f 6b 81 55 3f af ac 16 3f
       0.91959596 0.81752634 0.834006 0.58857244
000340 97 13 8d 3f fe 03 88 3f 25 e4 34 3f ed 49 9b 3f
       1.1021603 1.0626218 0.7066062 1.2131935
000350 bf 9f 10 3f 16 8e 6c 3f 68 c4 80 3f 57 38 98 3f
       0.56493753 0.92404306 1.0059938 1.1892194
000360 62 db df 3f 3b f2 d3 3f fa 07 bd 3f bd c0 de 3f
       1.7488825 1.6558298 1.4768059 1.7402569
000370 7c 26 26 3f d2 04 4a 3f b1 4a 40 3f 52 3d 3f 3f
       0.6490247 0.78913605 0.7511397 0.7470294
000380 71 b2 1a 3f ac c3 4d 3f 70 bd 77 3f 50 61 20 3f
       0.6042853 0.80376697 0.96773434 0.6264849
000390 5c ef 19 3f 2a 08 9b 3f 75 f1 3c 3f f8 46 71 3f
       0.6013086 1.2111866 0.73805934 0.94248915
0003a0 40 ee 6d 3f a3 a0 5d 3f 75 9c 67 3f a4 29 51 3f
       0.92941666 0.8657324 0.9047311 0.81704164
0003b0 a2 d7 2f 3f 3c 3e a6 3f 80 1e b5 3f 11 20 8c 3f
       0.68688405 1.2987742 1.4149933 1.0947286
0003c0 bf 68 8a 3f cc 2c 52 3f 88 08 4f 3f 62 1a 87 3f
       1.0813216 0.82099605 0.8087239 1.0554926
0003d0 df 34 d0 3f 14 61 78 3f 07 25 6f 3f c2 c9 af 3f
       1.6266135 0.9702313 0.93415874 1.3733447
0003e0 97 de d7 3f 30 a6 88 3f 73 56 ad 3f 66 01 92 3f
       1.6864804 1.0675716 1.3542007 1.1406677
0003f0 70 2a a6 3f 83 46 a4 3f f7 f3 26 3f 6f 38 57 3f
       1.2981701 1.2834018 0.6521601 0.84070486

fc_numerical.2.bias f4 [256]
000000 d6 c7 92 3e 16 1f ac be 39 4e 7d 3f 93 75 c8 be
       0.28668088 -0.33617467 0.98947483 -0.39152202
000010 05 72 a0 be 31 1b c9 be 59 61 7b be 35 75 cb bb
       -0.3133699 -0.39278558 -0.24548854 -0.0062090405
000020 42 11 87 3e 91 d2 b7 3d 33 40 4c 3e 54 b2 84 3e
       0.26380354 0.08975709 0.19946365 0.25917304
000030 5d 6f 38 3f 72 ed 39 3e 6a a8 1c 3f 91 6a 58 bd
       0.72044927 0.18156984 0.6119448 -0.052836005
000040 d7 73 f2 bd cf 6a be 3e 3d e4 82 be f7 60 ef 3e
       -0.11838501 0.37190863 -0.25564757 0.46753666
000050 fe 2c 5e be 06 4c 01 3f a7 87 5f 3e d0 a5 2b 3e
       -0.2169685 0.5050663 0.21829091 0.16762471
000060 31 f0 3c 3e 8b bb 23 3f 2c 11 ff bd e9 94 82 3e
       0.18451001 0.6395804 -0.12454447 0.25504234
000070 d2 98 cb bc 1f 94 ad 3e bd ad a3 3d 55 7d da bc
       -0.024853144 0.3390207 0.07992122 -0.026671091
000080 e5 59 8f be 39 b1 9e bd ed 3a b6 3e 37 0b cd 3e
       -0.27998272 -0.07748646 0.35591832 0.4004762
000090 60 f3 02 3f 9f f1 68 3e 0d c6 2c 3e 5f b6 77 3d
       0.5115261 0.22748421 0.16872425 0.060476657
0000a0 75 0d 2e 3f 6d 7f 17 3f 2a 09 ba be 22 3d b6 3d
       0.67989284 0.5917881 -0.36335117 0.08898379
0000b0 72 e7 61 be da 6f 76 be 85 30 e0 3e dc 1e 8c 3e
       -0.22060946 -0.24066105 0.43787017 0.27367294
0000c0 69 41 c2 3e f5 6b 07 bd 55 35 98 be f7 57 02 be
       0.3794053 -0.03306194 -0.2972819 -0.12728868
0000d0 c7 5d ff bd 55 20 30 3c d6 88 00 3f 40 13 91 3e
       -0.124690585 0.010749896 0.50208795 0.28335
0000e0 c3 a7 b2 3d f2 81 b6 3e 2d e1 a5 be e9 e0 bb bb
       0.08723404 0.35646015 -0.32398358 -0.0057335985
0000f0 a1 16 83 3e 96 64 a2 3d 59 73 93 be 6d c0 bb 3e
       0.25603202 0.079293415 -0.2879894 0.36670247
000100 37 42 7a bd 11 c8 ab be 7f 13 ce 3e 8a 93 c7 3e
       -0.061098304 -0.33551076 0.4024925 0.3897975
000110 2e 36 e8 3e 4a 28 3e 3e dd ec 9d 3e 1a ff c1 3e
       0.45353836 0.18570057 0.30844775 0.3788994
000120 53 2b 35 3e bf 29 93 be 8e d7 eb 3e 44 64 93 be
       0.17692308 -0.28742787 0.46062893 -0.28787434
000130 88 4f 04 be 4f f3 e9 be 48 10 9b 3e f1 1d 37 be
       -0.12920964 -0.45693442 0.3028586 -0.17882515
000140 f7 f6 1a 3f ba 07 8c be ab ef d2 3e b7 2a b7 be
       0.6053309 -0.27349645 0.41198477 -0.35774776
000150 69 1a 03 bd 3c 7c 38 3e c4 70 aa 3e 0b db 35 be
       -0.03200761 0.18016142 0.33289158 -0.1775934
000160 92 85 d5 bd 9d ea 01 3f 33 b9 c0 3c 35 db b1 3e
       -0.10425867 0.50748616 0.02352581 0.34737554
000170 14 db 53 3c 21 73 25 3e 5a da e8 3e df 6c 29 3f
       0.01293065 0.161572 0.4547909 0.6618175
000180 cc 13 e0 bd 12 c0 b6 3c 1e c2 c3 3e 57 52 18 3e
       -0.10941276 0.022308383 0.38234037 0.1487516
000190 60 41 d4 3e ab 93 44 be 5e 41 8f 3b e9 56 ac 3e
       0.41456127 -0.19196956 0.004371806 0.33660057
0001a0 f9 ff 18 be 19 da 26 3f 66 1d 51 3e 91 a7 d8 be
       -0.14941396 0.6517654 0.20421371 -0.42315343
0001b0 7c 54 c7 3d d7 c0 68 3e ad 9c 0d be e8 b3 1a bf
       0.09732911 0.22729813 -0.13829298 -0.60430765
0001c0 a5 dd 00 3e 00 10 a2 be 6b 8c 45 3e 7f fd 11 3e
       0.1258455 -0.31652832 0.19291846 0.14256857
0001d0 72 bd e8 3d da fc 97 be 56 fa ce bc 12 d5 a9 3e
       0.11364259 -0.29685098 -0.025265854 0.33170372
0001e0 a9 e5 cc 3e 8d f3 94 3e b8 74 ae 3d f2 64 d7 3e
       0.40018967 0.29092064 0.08518356 0.42069203
0001f0 81 37 0f 3f 70 24 8f be 83 66 f3 be b3 3f 8e be
       0.5594407 -0.27957487 -0.47539148 -0.27782974
000200 f8 86 ef 3e b3 6f ac be 04 b5 a9 be 27 14 d5 be
       0.4678266 -0.3367897 -0.33145916 -0.41616938
000210 27 8f c4 be f8 41 04 be 81 1d de bd 6e 92 ab 3e
       -0.38390467 -0.1291579 -0.10845471 0.33510154
000220 fa 70 ac bc 82 ab dc 3e a1 a4 a9 be a3 c7 a4 3e
       -0.021049965 0.430996 -0.33133414 0.3218356
000230 f6 d0 a0 be ca b9 8e bd 22 ce 6a 3e 4b 56 d9 3e
       -0.31409425 -0.0696903 0.22930196 0.4244865
000240 36 9e 22 3f 7a 54 3c 3e f5 b0 83 bc a1 b3 b9 3e
       0.6352266 0.183916 -0.01607559 0.36269858
000250 f8 1f 53 be ac 17 a7 3e 3b 4f 89 be da 1b bd 3e
       -0.20617664 0.32635248 -0.2681826 0.36935312
000260 2b a8 a5 3e c7 22 d8 3e f2 c1 40 be bd 3d 0e be
       0.32354864 0.42214033 -0.18823984 -0.13890739
000270 9c 19 90 bd 54 c1 c6 be 65 aa 39 be b5 c9 94 3e
       -0.070361346 -0.38819373 -0.18131407 0.2906014
000280 45 ad 06 3f 04 b9 ef bd f1 b9 fe 3e b0 30 ff 3d
       0.5260814 -0.11705211 0.49751237 0.12460458
000290 a6 f8 dd 3e 6d ba 07 3f 35 6f bc 3e ba b3 a8 be
       0.43353766 0.5301884 0.36803594 -0.3294962
0002a0 7e 53 c7 3e fa e7 0f bf 45 06 d1 bd 53 90 b3 3e
       0.38930887 -0.56213343 -0.10206274 0.35071048
0002b0 e2 fc fd 3e 53 91 84 be 39 4c 99 3e 14 be 48 3e
       0.49606997 -0.25892124 0.29940966 0.19603759
0002c0 3b 2f 11 3f f4 fc da 3e 67 1d d7 be 9b ee 3d 3e
       0.5671269 0.42771113 -0.4201462 0.18548052
0002d0 c5 cc 1c bf 2d 59 be be be 0b 76 3e 79 5f 4b 3e
       -0.61249954 -0.3717741 0.24027917 0.19860639
0002e0 53 6d 84 3f 74 02 43 be fc 46 02 3f ee 20 a0 3e
       1.0345863 -0.19043905 0.50889564 0.31275123
0002f0 87 b4 a9 be ed 15 25 3e 4b 15 75 3e 91 ec f1 3e
       -0.33145544 0.16121645 0.23933904 0.47250798
000300 99 0e f0 bd 4e ee 36 3f 12 fc cc 3c 5e 06 a8 be
       -0.11721534 0.71457374 0.02502254 -0.32817358
000310 d5 3e c5 be a3 d7 eb be 62 4a 26 3f 19 aa c0 be
       -0.385245 -0.46062955 0.6495725 -0.37629774
000320 f1 5d cd be 07 ab 16 be f5 45 90 bd 7e e2 e6 be
       -0.40110734 -0.14713679 -0.07044593 -0.45094675
000330 1e 9a 8f be 6f ba 13 be 9c 1b c1 be c1 c6 1d 3e
       -0.2804727 -0.14426588 -0.37716377 0.1540785
000340 01 5d ab bd 8c 20 2b 3f bc 66 b6 be 18 ba 80 3e
       -0.083673485 0.6684654 -0.35625255 0.25141978
000350 c4 d7 51 be 50 38 30 be 92 5b 9c 3e 8e b8 b4 3e
       -0.20492464 -0.17208982 0.30538613 0.35297054
000360 d9 8e d3 3e 6e 7a 1b 3f aa 83 79 bd 34 df ef 3e
       0.41319922 0.6073369 -0.06091658 0.46849978
000370 e7 db 1d be 9a a0 df 3e c4 da 13 3e ac 2f 67 be
       -0.15415917 0.43677217 0.14438921 -0.22576779
000380 42 eb cc be 0a 73 3b be 73 c9 ec 3d 2a a9 26 3e
       -0.40023237 -0.18305603 0.11561861 0.16275468
000390 01 11 3f bd 8f af e7 3e 38 11 76 be 2f 09 27 3d
       -0.046647076 0.45251128 -0.24030006 0.040780243
0003a0 c6 42 ad 3e 83 61 5a be ab ce 27 3f 95 c9 26 be
       0.33840007 -0.2132626 0.65549725 -0.16287835
0003b0 7c 4c 81 be d0 5c aa 3e c0 d6 6e 3e b0 9a a3 3e
       -0.25253665 0.33273935 0.23324108 0.31953955
0003c0 f7 95 fc 3e b0 6a 8c bd cd cf 16 3e cc 77 df 3e
       0.49333164 -0.068562865 0.14727707 0.43646085
0003d0 0f 79 2d 3f 11 3d 85 3e 03 b3 bd 3c e0 fa 7b be
       0.67762846 0.26023152 0.023156649 -0.2460742
0003e0 32 8a 08 3f 38 1d 8b be 07 83 96 3e d3 8c 95 be
       0.5333587 -0.2717073 0.2939684 -0.29209003
0003f0 19 6a cd 3e fa 54 ec 3e d6 39 1b be 1e e4 ae 3d
       0.4012001 0.46158582 -0.15158781 0.08539604

fc_numerical.2.running_mean f4 [256]
000000 db 71 f7 3f c4 32 8c 3f 50 27 0a 40 ad 3c 0f 40
       1.9331621 1.0952992 2.1586494 2.2380784
000010 ed 2e ad 3f 0a f5 a5 3e 01 c7 86 3f 74 28 1b 3f
       1.3529946 0.32413512 1.0529481 0.606086
000020 f0 14 1c 40 89 f4 a3 3f d4 37 0d 40 ae 9c 9e 3f
       2.438778 1.2809001 2.2065325 1.2391565
000030 65 30 a8 3f b3 2e d6 3f 3e 9e c9 3f f6 73 47 3f
       1.3139769 1.6733001 1.5751417 0.7791132
000040 a4 6c 52 40 d1 87 84 3f b0 bd 80 3f 16 af 0f 3f
       3.287881 1.0353948 1.0057888 0.56126535
000050 ed 4f 1d 40 d7 4b 19 40 4b 5b 9b 3e 8a 71 9a 3f
       2.4580033 2.395254 0.30343089 1.2065899
000060 e3 b5 9b 3f 7b c1 06 40 1e c2 aa 3f 2e a0 3a 40
       1.2164882 2.105559 1.334049 2.9160266
000070 a4 f8 0c 40 96 b4 e1 3f 6e 09 9d 3f 59 5d 28 3f
       2.2026758 1.7633235 1.2268503 0.6576744
000080 98 20 9c 3f 2e 31 31 3f 0b 46 7d 3f ad c7 a9 3f
       1.2197447 0.6921567 0.98935 1.3264061
000090 fb 42 92 3f 1e 59 c2 3f b9 c2 a5 3f 5f 8a 24 40
       1.1426691 1.5183446 1.295005 2.5709455
0000a0 4f 4b 1c 40 82 b7 cc 3f cd 9f eb 3f 02 3c 72 3f
       2.4420965 1.5993502 1.8408142 0.94622815
0000b0 ca 98 00 40 05 db 1a 3f 0d ef ec 3f d8 9b 25 3f
       2.0093255 0.6049045 1.8510453 0.64690924
0000c0 19 58 40 3f 8a f0 70 3f 79 57 ab 3f 47 be e2 3f
       0.75134426 0.94117033 1.338607 1.7714318
0000d0 f7 4a a3 3f 8c 51 c4 3f bb 6d be 3f bf 96 be 3f
       1.2757252 1.5337386 1.4877237 1.4889754
0000e0 30 ad 04 40 00 94 e9 3f e8 07 b0 3f 07 c8 10 3f
       2.0730705 1.8248291 1.3752413 0.5655522
0000f0 18 e0 dd 3f be 48 4e 3f 89 31 b3 3f f4 2a 17 3f
       1.7334013 0.80579746 1.3999492 0.59049916
000100 d9 91 53 3f 91 93 c8 3f 10 cc 8d 3f 7e 19 a8 3f
       0.8264442 1.5670034 1.10779 1.313278
000110 e3 98 94 3f 64 90 bf 3f 77 e3 04 40 ac d8 68 3f
       1.1609157 1.496594 2.0763834 0.90955615
000120 2b b7 08 40 ef 83 cc 3f 76 af 8f 3f 9b a3 ba 3f
       2.1361797 1.5977763 1.1225421 1.4581178
000130 99 5e 20 3f 27 18 9d 3f 22 9e 88 3f af f4 2f 40
       0.62644345 1.2272996 1.0673258 2.7493093
000140 08 b1 dc 3e ea c7 ec 3f 07 be 01 40 b1 61 c6 3f
       0.43103814 1.8498509 2.0272233 1.5498563
000150 60 7a ed 3f f0 6e f2 3f 46 14 d3 3f 8b 1b 9f 3f
       1.8552971 1.8940105 1.6490562 1.243028
000160 b4 8a be 3f 1a ca 1a 40 30 db c2 3e 73 6b 07 40
       1.4886079 2.4185853 0.38057852 2.1159332
000170 0b 7d dc 3f 1c ad 1c 3f 4e b9 76 3f 40 5c ff 3f
       1.722566 0.61201644 0.963765 1.9950027
000180 4e 13 dc 3f e3 60 ab 3f fa 94 f3 3f 0b 91 3b 40
       1.7193391 1.3388942 1.9029839 2.9307277
000190 c0 fa bb 3f a6 db f2 3f bd e8 62 3f 8e 1f 83 3f
       1.4685898 1.8973281 0.8863638 1.0244005
0001a0 91 90 28 3f b9 c2 15 40 07 6a a8 3f 52 1b 02 40
       0.6584559 2.34001 1.3157357 2.0329175
0001b0 b0 4c fb 3f 3f c8 42 3f 5b e2 35 3f 6c 00 96 3f
       1.9632778 0.760868 0.71048516 1.1718879
0001c0 32 0f 02 40 db 46 82 3f 25 3e d1 3f 6a 3b 45 3f
       2.0321774 1.0177873 1.634709 0.77043784
0001d0 bc 91 c9 3f 8d cb 25 40 09 e2 dc 3f 5e 0f e6 3f
       1.57476 2.5905488 1.725648 1.797344
0001e0 b0 16 eb 3f d8 69 e1 3f 62 89 41 3f 43 f3 20 3f
       1.8366299 1.7610426 0.75600255 0.6287119
0001f0 d0 19 91 3f db cd 11 3f 99 1d 1a 40 cb 47 a7 3f
       1.1336002 0.56954736 2.4080565 1.3068784
000200 fa 09 aa 3f be e3 5f 3f 6d 4b d4 3f 4f 18 ce 3f
       1.3284295 0.8745688 1.6585518 1.6101168
000210 28 49 4e 40 98 62 09 40 5a 53 a1 3f 80 13 a3 3f
       3.223215 2.1466427 1.2603562 1.2740326
000220 db 40 22 40 01 28 d2 3e e0 d5 48 3f 0e f5 c6 3f
       2.5352085 0.41046146 0.7845135 1.5543535
000230 f7 0c 2c 3f 91 88 05 40 54 ad 47 40 e4 b4 8c 3f
       0.6720728 2.0864604 3.119954 1.0992703
000240 7b cb 4f 3f 2c 95 2d 3f 27 63 39 3f fa b5 91 3f
       0.8116986 0.67805743 0.7241692 1.138366
000250 00 e4 4c 3f b4 c5 0e 40 b3 23 7b 3f 50 79 19 40
       0.800354 2.2308168 0.9810135 2.3980293
000260 f3 7b e0 3f 93 41 36 3f 0c 57 00 3e 61 91 8f 3e
       1.7537826 0.7119381 0.12533206 0.28040603
000270 d2 6e d4 3f 87 34 d7 3f 10 e2 80 3f 99 52 90 3f
       1.659632 1.6812905 1.0068989 1.1275207
000280 6f 45 9e 3f a3 a1 02 3f a9 ac c7 3f de 32 70 3f
       1.236494 0.5102789 1.5599567 0.9382762
000290 24 b7 a7 3f b3 3d 18 40 e1 9a eb 3f 77 3c 88 3f
       1.3102765 2.3787658 1.840664 1.0643452
0002a0 7a 67 d2 3f e7 da 7f 3f 8c 33 66 3f 40 b7 d2 3f
       1.6437829 0.99943393 0.89922404 1.6462173
0002b0 d5 38 d3 3f d2 cd 83 3f 5e 1f 5e 3f e2 d2 e6 3f
       1.6501719 1.0297186 0.8676661 1.8033106
0002c0 ea c2 02 40 16 08 e2 3f 6f 18 a1 3f a4 03 75 3f
       2.0431466 1.7658718 1.2585582 0.9570868
0002d0 2f 96 bc 3f 65 bb 81 3f de f5 ab 3f 02 38 fe 3f
       1.4733332 1.0135313 1.3434408 1.9860842
0002e0 43 58 27 40 2b 66 c3 3f 40 10 be 3f 10 05 89 3f
       2.614762 1.5265554 1.4848709 1.070467
0002f0 2c 93 c3 3f 05 2d bf 3f 20 00 82 3f bb e2 5c 3f
       1.5279288 1.4935614 1.0156288 0.86283463
000300 25 5d 87 3f 30 2b 54 3f 95 1c e6 3e 9d 1e 61 3f
       1.05753 0.828784 0.4494368 0.8793734
000310 1e 16 77 3f e6 2c e3 3f 8a 26 3b 3f 48 4d e1 3f
       0.96518123 1.7748077 0.7310568 1.7601709
000320 e7 23 89 3f 39 32 c7 3f ae 45 4e 3f 21 70 25 40
       1.0714082 1.5562202 0.8057507 2.5849688
000330 66 65 cb 3f 10 60 57 3f 84 55 cf 3f 32 f4 a4 3f
       1.5890319 0.84130955 1.6197972 1.2887022
000340 41 d6 cf 3f 19 3c a3 3f a6 81 9f 3f c4 77 d5 3e
       1.623726 1.2752715 1.246144 0.41692936
000350 c4 a5 a0 3f 04 2f c8 3e 5a 00 85 3f 8e f7 c6 3f
       1.2550588 0.3909837 1.0390732 1.5544298
000360 9d b6 00 40 5b 2a 0f 40 e1 18 73 3f 78 58 b5 3f
       2.0111458 2.2369602 0.9495984 1.4167624
000370 48 0c b3 3f c9 08 12 40 54 19 c3 3f 92 4b bb 3f
       1.3988123 2.2817862 1.5242105 1.4632437
000380 16 e3 9c 3f 56 6f 95 3f ba 2a ae 3f bc fa 74 3f
       1.2256801 1.1674602 1.3606789 0.9569509
000390 2d 4c b3 3f 99 2a 73 3f 1a 53 94 3f 7a 86 8a 3f
       1.4007622 0.94986874 1.158786 1.0822289
0003a0 6d 13 c2 3f 95 76 5f 3f 50 5d a3 3f bc 65 cf 3f
       1.5162178 0.87290317 1.2762852 1.6202922
0003b0 96 17 a4 3f 5d 7d 37 40 39 44 99 3f 2c cc 97 3f
       1.2819698 2.8670266 1.1973945 1.1859183
0003c0 60 7e 1f 3f db f8 04 3f 39 64 26 3f be aa a9 3f
       0.6230221 0.51942223 0.6499668 1.3255231
0003d0 a8 a0 08 40 d1 71 6b 3f fc 0e 5f 3f e8 2d 00 40
       2.1348057 0.91970545 0.8713224 2.002802
0003e0 a8 a0 36 40 2d 3c 1a 40 36 75 f1 3f 62 af e8 3f
       2.8535557 2.4099228 1.8863895 1.8178523
0003f0 fa 13 4c 3f 79 ca 20 40 42 fe d3 3f 66 a9 b5 3f
       0.7971798 2.512358 1.6561968 1.4192321

fc_numerical.2.running_var f4 [256]
000000 d6 47 9f 41 16 87 11 41 38 d1 df 41 bd 08 5b 41
       19.910076 9.09548 27.977158 13.689633
000010 a8 81 03 41 c1 db 15 41 4e 53 5c 41 fa 09 41 41
       8.219154 9.366151 13.770338 12.064936
000020 ca 5b 17 42 72 98 41 41 25 10 57 41 5d 22 52 41
       37.839638 12.099718 13.441442 13.133389
000030 99 31 aa 41 4c ec 98 41 25 f4 88 41 29 d3 ca 40
       21.274218 19.11538 17.119211 6.3382764
000040 66 5d f7 41 43 df 8b 41 84 a8 84 40 81 8d 03 41
       30.920605 17.484015 4.1455708 8.222047
000050 a9 ab 88 41 25 a1 06 42 7f ab 36 41 e5 ff 48 41
       17.083818 33.657368 11.416869 12.562474
000060 4e ba b6 41 85 0b cd 41 6b c6 ae 41 6d 11 4b 42
       22.84097 25.630625 21.846884 50.767017
000070 e3 86 88 41 8c 0c a5 41 67 ac 8a 41 7f 5a 07 41
       17.065863 20.631126 17.33418 8.459594
000080 20 ba 4a 41 e1 2c 04 41 ac db 51 41 30 08 85 41
       12.670441 8.260957 13.116131 16.628998
000090 ca 3b 0d 41 ff 70 8f 41 7f 2c 51 41 80 49 b4 41
       8.827097 17.930174 13.073363 22.535889
0000a0 c7 a3 03 42 a8 45 72 41 47 b7 33 41 c9 50 07 41
       32.90994 15.142006 11.232245 8.457223
0000b0 3a 11 ae 41 f7 0c 04 41 de 99 d9 41 ba 01 02 41
       21.758411 8.253165 27.20013 8.125422
0000c0 53 db 22 41 d7 41 3d 41 7a 9a 92 41 04 98 5e 41
       10.178546 11.828574 18.325428 13.912113
0000d0 d3 df 79 41 9f bb cd 41 57 e6 7f 41 87 2d 58 41
       15.617145 25.716612 15.993735 13.511115
0000e0 73 8e cc 41 06 81 0b 41 15 c5 04 41 46 df cb 40
       25.569555 8.719 8.298116 6.371005
0000f0 0f f2 9f 41 93 23 e2 40 d8 2d 4e 41 49 2c c9 40
       19.993193 7.0668426 12.886192 6.286656
000100 d6 f7 fc 40 15 64 38 41 e9 28 8d 41 f4 d8 78 41
       7.9052534 11.524434 17.644976 15.552967
000110 d7 4e 6c 41 c9 7d 5a 41 71 31 be 41 f3 b4 38 41
       14.769248 13.655709 23.774141 11.544177
000120 d1 e4 5f 41 1c 2f 84 41 b2 37 a3 41 07 54 c3 40
       13.993363 16.523003 20.402195 6.1040072
000130 4b 63 e2 40 a3 46 9e 41 5e cd 90 41 c3 76 12 42
       7.0746207 19.78449 18.100277 36.61598
000140 66 56 d9 40 1c c6 52 41 c8 5c 33 42 cb c6 83 41
       6.7917967 13.173367 44.840607 16.472067
000150 1c 2e 88 41 d3 6b 00 42 60 a1 8f 41 67 95 85 41
       17.022514 32.105297 17.953796 16.69795
000160 88 81 81 41 0e ba c5 41 6a 41 1c 41 b7 e6 a3 41
       16.188248 24.715847 9.76597 20.487654
000170 cc f9 72 41 a4 1b 10 41 3f 37 c7 41 13 70 e5 41
       15.185986 9.006748 24.901976 28.679724
000180 eb 82 3b 41 d6 da 87 41 74 05 a6 41 5f f5 8a 41
       11.719462 16.981853 20.752663 17.36981
000190 7e 8a 93 41 0d d5 5a 41 c2 d5 79 40 bc ae 90 41
       18.442623 13.677014 3.9036717 18.08532
0001a0 c7 e8 fd 40 c3 f0 d0 41 90 09 35 41 7b 54 6f 41
       7.934665 26.11756 11.314835 14.958125
0001b0 99 cc 95 41 b8 62 75 41 30 8f 11 41 71 19 21 41
       18.724901 15.336601 9.097458 10.068711
0001c0 8d bc 8e 41 e6 78 a9 40 77 9d 90 41 6a 74 4d 41
       17.842066 5.296008 18.076887 12.840921
0001d0 73 7b 35 41 f7 d9 bd 41 4b 10 3f 41 88 17 e0 41
       11.342639 23.731428 11.941478 28.01149
0001e0 57 d3 6c 41 8a ec 8a 41 8d 43 0c 41 ac 01 0b 41
       14.801597 17.365498 8.766492 8.687908
0001f0 16 75 95 41 5c 6c 2c 41 fc 55 ce 41 e4 93 37 41
       18.68217 10.776455 25.791985 11.473606
000200 1c fc 8a 41 d0 c2 df 40 7b 9c a1 41 22 8c 4e 41
       17.3731 6.992531 20.201406 12.909212
000210 34 f0 2f 42 87 50 6a 41 4d 33 3d 41 03 d8 5a 41
       43.984573 14.64466 11.825025 13.677737
000220 a3 57 d2 41 83 44 f3 40 c2 6e 8f 41 76 16 27 41
       26.292791 7.6021132 17.929081 10.442984
000230 66 47 00 41 ac c6 58 41 59 4c 9c 41 eb 23 41 41
       8.017431 13.548504 19.53728 12.071269
000240 4b 2b ba 41 d3 93 30 41 0a 5f 68 41 7e 9f a2 41
       23.27114 11.03609 14.523203 20.327877
000250 e5 be e1 40 1f f8 13 42 68 ee 2c 41 08 38 fd 41
       7.0545526 36.992306 10.808205 31.652359
000260 5e e5 46 41 d2 57 85 41 1f 7a b5 40 11 42 0b 41
       12.430998 16.667881 5.6711574 8.7036295
000270 73 2d 3d 41 b3 8a bd 41 9c fb 77 41 59 51 85 41
       11.823596 23.692724 15.498928 16.66472
000280 38 12 7b 41 27 8e 68 41 0e a7 c7 41 87 fb fa 40
       15.691948 14.534705 24.95657 7.843204
000290 d4 77 6e 41 41 de c1 41 50 01 d8 41 7e 60 8e 40
       14.904255 24.233522 27.00064 4.449279
0002a0 1f 8e 90 41 3b 92 90 41 bf 06 34 41 29 df 12 41
       18.069395 18.071402 11.251647 9.179482
0002b0 0b 61 db 41 3d 43 31 41 35 c0 2c 41 ee d9 b7 41
       27.422384 11.078916 10.796926 22.981411
0002c0 f3 f2 e5 41 3d 0e aa 41 e9 2a e2 40 8a 8b ba 41
       28.743628 21.256952 7.067738 23.318134
0002d0 4b 2a 48 41 11 06 8e 41 d2 21 4e 41 f5 36 c1 41
       12.510325 17.752962 12.883257 24.151834
0002e0 22 9b 39 42 a9 cf 91 41 0e f1 a8 41 cb f9 1b 41
       46.401497 18.226397 21.117702 9.748485
0002f0 c5 0c 8a 41 81 4f 54 41 2b 01 f4 40 59 17 69 41
       17.256235 13.26941 7.6251426 14.5682
000300 2d a9 93 41 94 3f ec 40 be 3e 12 41 ab 0e ad 40
       18.457605 7.382761 9.140318 5.4080405
000310 7b a8 2e 41 e3 51 45 41 a1 60 54 41 d4 c3 2e 41
       10.916133 12.332492 13.273591 10.92281
000320 c6 3b 50 41 bf 8d a1 41 bc e6 a7 40 c4 f9 58 42
       13.014593 20.194212 5.246916 54.24391
000330 aa ad 55 41 ff 51 3a 41 6f 3f d5 40 a1 83 dd 40
       13.354898 11.645019 6.6639934 6.922318
000340 13 79 b9 41 9e c0 66 41 1f 9e 15 41 4a 39 eb 40
       23.184118 14.422026 9.351104 7.3507433
000350 22 d1 16 41 2e 6a 9d 40 72 dc 51 41 c4 c9 b6 41
       9.426058 4.9192114 13.11632 22.848518
000360 47 65 07 42 c6 92 15 42 b7 33 49 41 30 91 50 41
       33.848904 37.393333 12.575126 13.035446
000370 7d 60 54 41 b7 09 91 41 4d 8f 7c 41 56 14 9f 41
       13.273557 18.129744 15.784986 19.88493
000380 59 68 1e 41 7f 93 09 41 e5 1c d4 41 ff 00 40 41
       9.9004755 8.59851 26.514109 12.000243
000390 d7 89 ad 40 34 f2 8c 41 13 2a 35 41 00 a2 87 41
       5.423076 17.618263 11.322772 16.954102
0003a0 25 f0 2f 41 77 ed 90 41 94 a2 2a 41 ba 10 f9 40
       10.996129 18.11595 10.664692 7.783292
0003b0 fd eb 52 41 05 e6 38 42 b0 ce 68 41 09 b8 55 41
       13.182614 46.22463 14.550461 13.35743
0003c0 f8 d7 e4 40 e0 77 92 40 66 61 93 41 14 04 48 41
       7.1513634 4.577133 18.422558 12.500996
0003d0 c4 d9 c4 41 c4 5c 82 41 10 41 96 41 e6 ed b2 41
       24.60633 16.295296 18.781769 22.366161
0003e0 d7 09 32 42 b9 10 14 42 18 61 a7 41 2a fd 12 42
       44.50961 37.01633 20.92241 36.74723
0003f0 c8 7d 23 41 83 c1 d8 41 f6 aa 15 41 4a 13 93 41
       10.218208 27.094488 9.3542385 18.384418

fc_numerical.3.weight f4 [64, 256]
000000 5b 74 72 3d 2f 37 67 bd db d9 c4 3d 3c f8 5d bd
       0.059192996 -0.05644911 0.09611865 -0.054191813
000010 6d c4 c0 bd d8 7b 09 bd 9e f0 7d 3d db d5 9e 3c
       -0.09412465 -0.033565372 0.06199705 0.019389084
000020 a4 7e 13 bd c2 8c 56 bd 8b f0 b7 3d 87 56 0b 3d
       -0.036009446 -0.05238033 0.08981427 0.034018066
000030 aa 27 43 bc 29 ea b9 3d e0 90 05 3e c2 0c 14 bd
       -0.011911312 0.09077866 0.13043547 -0.03614498
000040 f6 3e ed bc 78 94 3c bc f8 03 91 bd 68 07 fa 3d
       -0.028960686 -0.011510007 -0.07080835 0.12208444
000050 b8 2c ab bd 54 92 12 3c e1 69 fa bd c2 a7 bc bd
       -0.08358139 0.00894602 -0.12227226 -0.09211685
000060 3d 6e 28 bc 35 ea 47 bd 02 25 99 bd 29 61 63 3d
       -0.010280189 -0.04880734 -0.07477762 0.05551258
000070 a1 1c 0b bd 77 f4 20 bb 63 e8 cd bc 68 10 21 3d
       -0.03396285 -0.0024559775 -0.025135225 0.039322287
000080 ab 71 19 be 24 43 9e bc c7 f9 48 3d 05 52 a1 3d
       -0.14984767 -0.019319125 0.04906633 0.07876972
000090 1e cd 05 bd c2 48 a1 3d 15 c2 ce bd ac 8d 4c bd
       -0.032666318 0.078752056 -0.10095612 -0.049939796
0000a0 d8 60 75 3d 37 31 21 3d 8a ca 06 be 9e cd ca bd
       0.05990681 0.039353576 -0.131632 -0.099024996
0000b0 88 64 77 bd c4 74 ee bd b4 4b 83 3c 56 f2 f1 bd
       -0.06039861 -0.11643365 0.016027309 -0.118138
0000c0 3f 04 02 3e c6 ea b2 3a 92 ff 56 bd be d7 f1 bc
       0.12696932 0.001365029 -0.052489825 -0.02952182
0000d0 cc 8d 82 3d fd d9 fc 3d a9 dc 02 bc 81 ff 3e 3c
       0.06374702 0.123462655 -0.00798718 0.011657597
0000e0 71 11 ba bc d5 6a 15 3d fb 40 87 bd 2c e7 0f be
       -0.022713395 0.036478836 -0.06604191 -0.14053029
0000f0 66 4e b4 bd 88 f1 ae bc d9 07 ed bd 8b 4d 1f 3d
       -0.08804016 -0.021355405 -0.115737624 0.03889231
000100 57 06 5a bd 01 6e 58 bd 87 3f 08 bd 33 33 14 3d
       -0.053228702 -0.052839283 -0.03326371 0.03618164
000110 ee 12 7e bc cc 67 cf bc b2 b9 75 3b df 84 e0 3d
       -0.015507443 -0.025318049 0.0037494716 0.10962843
000120 d1 48 d3 bd 5d 03 95 bd dc a7 a9 3d c7 8f ad bd
       -0.10316623 -0.07276032 0.0828397 -0.08474689
000130 96 d9 44 3c 77 8d 96 bd 9b 3c 54 3d 05 dc 80 be
       0.012014767 -0.07351201 0.05181561 -0.25167862
000140 f1 c1 5e 3d 90 f6 e9 bb fd 3e 9f 3d 0f 57 01 be
       0.054384176 -0.0071399882 0.07775686 -0.12630866
000150 1e e6 08 3e 50 ce bc bd d5 fd 4d bc 8d 8a 95 bd
       0.13369033 -0.092190385 -0.012572725 -0.07301817
000160 4f 8e 14 3c 6d 5f f6 3d aa a9 c0 3d 05 ab 0d 3d
       0.009067132 0.1202992 0.09407361 0.034586925
000170 cd b1 9b bd d3 48 11 3d 07 ff 76 bc 71 19 14 bd
       -0.07602272 0.03546984 -0.015075452 -0.036157075
000180 11 3e ca bd f4 2a 20 bd ed a0 77 3d 2b 8e bf bd
       -0.098751195 -0.039103463 0.060456205 -0.09353288
000190 26 68 e8 bd 2e e8 97 3b 46 9f eb bc 7f a1 8b 3c
       -0.1134799 0.0046358323 -0.02876247 0.01704478
0001a0 70 6f 95 3a 4f d3 af bd 21 8d 82 3d 4d 60 b7 bd
       0.0011401009 -0.08585226 0.063745745 -0.08953915
0001b0 aa 68 2e bc ee 8a 20 3c a4 23 c3 3d 56 c3 6f 3d
       -0.010645071 0.009798748 0.09528282 0.058535896
0001c0 0f 69 2f be 45 20 11 3c 23 03 ec bc 89 30 9a 3d
       -0.1712992 0.008857791 -0.02881009 0.075287886
0001d0 b5 5a a0 bd 7e 2e 4f 3d ec bd 6e bd 4a f9 94 bc
       -0.07829801 0.050581448 -0.058286592 -0.018185277
0001e0 31 d3 7f 3d 23 df da 3a 9c ea f2 bd a0 45 e5 bc
       0.062457267 0.001669858 -0.118611544 -0.027987301
0001f0 1e 97 3a 3d 77 7a 4c bd 65 fd b3 bd 68 0d e0 bc
       0.045554273 -0.04992148 -0.087885655 -0.027350143
000200 ab 96 8e bd 23 45 11 bd fc d8 e6 bc 0d 51 e3 bd
       -0.069623314 -0.035466325 -0.028179638 -0.110994436
000210 cf 46 9b bd 29 c8 85 bc 16 63 d3 bd 18 4d e8 3d
       -0.07581865 -0.016330795 -0.103216335 0.113428295
000220 20 b3 75 3d 36 58 75 3d 9b ff 46 bd c6 2e 44 bd
       0.05998528 0.059898578 -0.048583608 -0.04789617
000230 f1 9e 19 3d f9 e6 d3 bc cd aa be bd 44 c7 69 3d
       0.037505094 -0.025866972 -0.093099214 0.0570748
000240 e2 1e 77 bd 4c 69 74 bd e2 34 7e 3c 8f 47 c7 3d
       -0.060332187 -0.05967073 0.015515538 0.097304456
000250 8a 86 fe bd 3e 3c 0d bc e0 07 3e bd 90 55 3b 3d
       -0.12428005 -0.00862032 -0.04639423 0.045735896
000260 64 95 24 bd 0c fb b7 3d da 7a fb bc 0b 81 b5 bc
       -0.040181533 0.0898343 -0.030698229 -0.022156259
000270 8f 8a 1b 3d 35 34 15 3d 7e 17 cc bd 32 4b 9f 3c
       0.037973937 0.03642674 -0.09965418 0.019445036
000280 3f 46 6c 3d 0b 43 6d 3d cf 6c 59 3c 75 9d 2c 3c
       0.05768418 0.057925265 0.013270571 0.010535588
000290 86 c6 9f 3d 74 6d 81 3d 2a da d8 3d 2c 6a c8 bd
       0.07801537 0.06319705 0.105884865 -0.09785876
0002a0 a9 0a b0 3d 44 fa 8c 3c 6e 89 7a bd da c2 89 bd
       0.08595783 0.01720918 -0.06116622 -0.06726618
0002b0 6d 48 94 3d 6a 08 6e bd 7f 01 2f 3d f3 d6 82 bc
       0.072403766 -0.058113493 0.042726036 -0.015971636
0002c0 d7 62 90 bc 49 46 1a bd 4c 81 cc bc 7a 8a 2f 3e
       -0.017625256 -0.037664685 -0.024963997 0.17142668
0002d0 7e 93 ce bd bd 49 8f 3c 98 e2 64 bd 5b 59 b6 bc
       -0.10086726 0.017491216 -0.05588016 -0.022259405
0002e0 86 fe fc 3d c6 2b 2b bd e8 f0 b4 bd da 8c 5b 3d
       0.12353234 -0.041789792 -0.08835012 0.053601123
0002f0 4e fe 49 bc 01 c7 4f 3d b0 8f 82 bd 16 e9 84 3d
       -0.012328697 0.050726894 -0.063750625 0.0648977
000300 a8 86 36 3d 9a bf bd bb af f6 be bd 84 ef 9b bd
       0.044562012 -0.005790663 -0.09324395 -0.07614043
000310 e7 a2 f1 bd 63 92 96 bd 3d 85 00 bd f2 6e 8f bd
       -0.11798649 -0.0735214 -0.031377066 -0.07003583
000320 0e 09 c7 bc e2 84 cc 3c d8 c5 d5 bc 21 9e 95 bd
       -0.02429631 0.024965707 -0.026095316 -0.07305551
000330 bc ae a6 3c 6f 21 08 bc ae 01 ad bd 84 93 b7 bd
       0.020346992 -0.008308752 -0.08447586 -0.08963683
000340 58 67 70 3c f6 85 45 3d 89 76 04 bd c8 9e 95 3b
       0.014673077 0.04822346 -0.032339606 0.0045660473
000350 7a 66 86 bd 91 fa c3 38 2c b4 c0 3d b3 66 6e bd
       -0.065625146 9.344996e-05 0.09409365 -0.05820341
000360 35 05 9e bc 6a 62 90 3d 2e 86 93 3a 28 ca 48 bb
       -0.019289592 0.07050021 0.0011255199 -0.0030638073
000370 31 40 59 bc 4c 82 dd 3b be 95 4a bd 2b 53 3f 3d
       -0.013259933 0.0067599174 -0.04945921 0.046710175
000380 fa e1 32 bd 72 fb b4 bc 90 f8 e4 3d 1c af d7 3d
       -0.04367254 -0.022092555 0.11180222 0.10531446
000390 a3 e9 11 3d 0c ce ce 3d fe 3e 88 bd 9c 7c 17 3d
       0.035623204 0.10097894 -0.0665264 0.03698407
0003a0 18 cd 89 3d 58 68 bf 3d d7 d2 20 3c 1a b1 9b bd
       0.06728572 0.09346074 0.009815893 -0.07602139
0003b0 88 ae 96 bd 7b 96 e2 3d 74 c7 19 bc d0 80 c3 3c
       -0.07357508 0.11063858 -0.009385932 0.023865134
0003c0 60 b8 ab 3d b3 d3 6b 3c 7c 72 25 3d 98 6e 55 3b
       0.08384776 0.014393735 0.040392384 0.003256714
0003d0 30 07 89 3d 75 50 5d 3d 60 ee e0 3d 02 7b a6 3c
       0.06690824 0.054031808 0.109829664 0.020322327
0003e0 2f 68 dc 3d 61 ac 1e 3d 1a b7 8b bc 8a e8 07 be
       0.10762059 0.038738612 -0.017055083 -0.132723
0003f0 2f 16 1e 3d 52 0d b2 3d 89 ba f0 bd b9 00 66 bb
       0.038595375 0.08693947 -0.11754329 -0.0035095646

fc_numerical.3.bias f4 [64]
000000 a1 0c 53 be 3b f9 c3 be 00 7f d6 bd ae c4 10 3e
       -0.20610286 -0.38276085 -0.10473442 0.14137527
000010 ca 74 0e bd 35 dd 24 bf 31 1f 1d bf 37 bc 5e bd
       -0.034779347 -0.64400035 -0.6137572 -0.054378714
000020 6b d2 b1 3d 49 31 3d be e3 bc ae 3e 0c 4e 76 bd
       0.08682712 -0.18475832 0.34128484 -0.060133025
000030 88 14 ac be 23 ec ef 3d 47 42 b5 be 47 5d f8 bd
       -0.33609414 0.117149614 -0.35402128 -0.12127166
000040 9e 7b 59 be af 34 27 be 08 02 31 3e 8f 7d ca bd
       -0.21238562 -0.16328691 0.17285931 -0.0988723
000050 7a ad bc be fb 7a a1 be 6b 1a 14 3e d9 7a 23 be
       -0.36851102 -0.3153914 0.14463203 -0.15964831
000060 38 73 4d bf b0 fd 16 bf 9a a3 d0 bc f4 01 52 be
       -0.80253935 -0.58980846 -0.025468636 -0.20508558
000070 0e 83 e5 be 14 cd fc be bb 30 99 bd e6 09 4a 3c
       -0.4482655 -0.49375212 -0.07479998 0.0123314615
000080 4b 94 f5 bc 52 fa 03 bf 92 f5 cc bd ba f7 5d be
       -0.029977938 -0.51553833 -0.10007776 -0.21676531
000090 aa 65 36 3d 67 b1 24 bf da 1d 86 3e 4a b9 51 3b
       0.04453055 -0.64333194 0.2619465 0.003200131
0000a0 ba 1d 60 be a2 56 51 be bc 75 e7 be e8 70 e6 3c
       -0.2188634 -0.20443204 -0.45207012 0.02813001
0000b0 55 50 fb be ef 3b a5 bd 6b bb 93 3d b3 40 41 bf
       -0.49084726 -0.08068072 0.072134815 -0.7548935
0000c0 d4 15 47 bf d6 08 ed bc 2b 1d 2d 3e 26 46 95 be
       -0.7776768 -0.028934877 0.16905658 -0.29155082
0000d0 30 b2 16 bd 69 5d ca be 70 47 a1 be cc 5b 7a bd
       -0.036791027 -0.3952439 -0.31499815 -0.0611227
0000e0 53 79 76 be 61 a2 d3 bd fa d1 01 bf fb 10 9d bc
       -0.24069719 -0.10333706 -0.50711024 -0.019173136
0000f0 12 58 71 be 62 ca 40 bb a9 3c c5 3e 02 b6 2e 3e
       -0.23568752 -0.0029417505 0.38522843 0.17061618
