numerical_model_best_0.pth (torch, 245010 bytes, 13 tensors)

fc_numerical.0.weight f4 [256, 163]
0.16974285 0.06238167 -0.02535318 0.026935756 0.11083981 0.082016654 0.10964192 0.07212355
0.06695572 0.028671322 0.06688833 0.08187175 0.03503857 0.026187466 0.07137336 0.06478507
-0.0037673165 0.08343276 -0.0227818 0.047632776 0.04571702 0.017561112 -0.041492447 0.029674442
0.07103029 0.025959913 0.10726632 0.03025788 0.08740229 0.00200202 -0.027433252 0.032682862
-0.047847487 -0.022786854 0.0029386387 -0.0759527 0.019325973 0.050770335 -0.035667796 0.039559018
-0.118329614 -0.027562568 -0.029711686 0.18232015 0.11313066 0.15707505 0.20833702 0.118269555
0.25921077 -0.04256138 -0.061134476 -0.08921841 0.027448276 0.008251464 -0.1052678 0.04246629
-0.019994391 0.09834281 0.08494252 0.016575823 0.046964046 -0.08303328 0.028986307 0.03643697
-0.10255109 -0.09712636 0.010709708 0.05493956 -0.04090454 -0.012823099 0.08610938 0.0049941326
0.026655711 -0.07404625 0.14925094 0.0020064772 -0.086104564 0.13561252 -0.15272889 0.046922512
0.030842982 -0.09203778 0.11079211 -0.06290689 0.011982621 0.024968602 -0.05594151 0.031213151
-0.1073232 -0.019695569 -0.0011188881 -0.018284751 0.018939743 -0.14237495 -0.023384342 0.024137147
-0.054798655 0.10188329 -0.110743016 -0.012834072 0.009171261 -0.098965734 0.119827226 -0.05586551
0.10792588 0.0013640405 0.0015407364 0.010401217 0.0036600442 0.14189331 0.067810975 0.005362184
0.06270217 0.036163233 0.0448359 0.14191338 -0.053037893 0.118632115 0.09421622 0.15499684
0.049060073 0.08909773 0.076360345 -0.030365622 0.03947399 0.10740154 -0.0029436701 0.029425228
-0.12553737 -0.07413755 -0.09979386 0.0047890735 0.031075634 -0.02310396 -0.045951854 0.024316685
0.06722034 0.09623364 -0.035018712 0.04420529 -0.15782954 -0.17219415 -0.034913383 0.023197265
0.006689546 -0.050906725 0.018527439 0.06412754 0.06009114 0.044029173 -0.09944902 0.037198253
-0.10898769 -0.08924112 -0.079255745 -0.018697789 0.058910966 -0.032198016 -0.0010258792 0.09890412
-0.035136696 0.09042367 0.014179272 -0.2990435 -0.124988645 -0.03748703 0.023621555 0.009204976
0.124601126 0.14177538 0.055908863 0.079041824 0.11897743 0.08255941 0.023546059 -0.13399613
-0.068770595 -0.11201292 -0.09419025 -0.015461467 -0.13852382 -0.031847026 -0.04799577 -0.028704397
-0.11939208 0.012371795 -0.049242362 -0.02376292 -0.039149996 -0.13315934 -0.09739219 -0.0037298386
-0.12963176 -0.023881303 -0.04723969 -0.12717737 -0.021814888 -0.14031109 -0.016043324 0.024126811
0.031829957 -0.056050852 0.06650613 -0.12265923 -0.01913362 -0.05857672 0.11305834 -0.016009325
0.0016336801 0.07840552 0.07297879 0.052433275 0.08915554 0.11685805 0.10845352 0.05518134
0.044802926 0.1304965 -0.01245651 -0.04067742 -0.09697788 -0.08353095 -0.070334375 -0.045656383
-0.09395961 0.044849735 -0.10157142 -0.06363612 -0.050488435 -0.030878564 0.076653466 0.057250828
-0.07201634 0.018805156 -0.008362188 0.069177434 -0.08092674 0.09064478 0.1305137 0.04859397
-0.027294978 0.0600647 -0.012417663 0.025495348 -0.024828387 0.0037851084 0.065323256 -0.06311259
0.00095456844 0.03115549 -0.081270315 -0.023435134 -0.030120531 -0.031102639 0.08428375 -0.070843585
00000000: 12d1 2d3e ec83 7f3d 79b1 cfbc 60a8 dc3c
00000010: fbff e23d 59f8 a73d f18b e03d 83b5 933d
00000020: 1520 893d 1fe0 ea3c c0fc 883d 60ac a73d
00000030: 9b84 0f3d 1987 d63c 322c 923d 09ae 843d
00000040: 15e5 76bb cbde aa3d e6a0 babc 961a 433d
00000050: c541 3b3d 52dc 8f3c fcf3 29bd d117 f33c
00000060: 5478 913d e2a9 d43c 72ae db3d 60df f73c
00000070: f9ff b23d 5234 033b b3bb e0bc 77de 053d
00000080: bafb 43bd 7fab babc 2d96 403b 178d 9bbd
00000090: 8151 9e3c 8ef4 4f3d 6518 12bd a308 223d
000000a0: cc56 f2bd e5ca e1bc ec65 f3bc 22b2 3a3e
000000b0: 0cb1 e73d 48d8 203e 4d56 553e 4f37 f23d
000000c0: 46b7 843e d754 2ebd 2568 7abd 24b8 b6bd
000000d0: 35db e03c 2631 073c a596 d7bd 22f1 2d3d
000000e0: 47cb a3bc f567 c93d 58f6 ad3d 05ca 873c
000000f0: 5f5d 403d 5a0d aabd b174 ed3c ef3e 153d
00000100: 4e06 d2bd 2fea c6bd c577 2f3c 4e08 613d
00000110: 858b 27bd fa17 52bc 1d5a b03d d2a5 a33b
00000120: 145d da3c 8fa5 97bd 3dd5 183e 1a7f 033b
00000130: 9757 b0bd 02de 0a3e f664 1cbe d231 403d
00000140: 6caa fc3c 4e7e bcbd f9e6 e23d 54d5 80bd
00000150: c152 443c f48a cc3c ed22 65bd b9b2 ff3c
00000160: 44cc dbbd 9a58 a1bc a8a7 92ba e7c9 95bc
00000170: 8527 9b3c bdca 11be 8590 bfbc 44bb c53c
00000180: 8e74 60bd 30a8 d03d 3ccd e2bd 0046 52bc
00000190: 0f43 163c 8cae cabd fa67 f53d 3cd3 64bd
000001a0: 3e08 dd3d 9bc9 b23a 89f2 c93a de69 2a3c
000001b0: 5add 6f3b 7b4c 113e 7be0 8a3d 42b5 af3b
000001c0: ff69 803d e61f 143d d9a5 373d be51 113e
000001d0: 433e 59bd 65f5 f23d 6ff4 c03d 7eb7 1e3e
000001e0: 37f3 483d df78 b63d d062 9c3d 53c1 f8bc
000001f0: 7baf 213d 57f5 db3d 97ea 40bb 2d0d f13c
00000200: de8c 00be 6ed5 97bd b960 ccbd a9ed 9c3b
00000210: 5492 fe3c 8444 bdbc 0338 3cbd c933 c73c
00000220: d1aa 893d 2516 c53d c86f 0fbd 9b10 353d
00000230: 119e 21be aa53 30be 5601 0fbd 3108 be3c
00000240: fb33 db3b 9283 50bd dbc6 973c 4d55 833d
00000250: 2122 763d ef57 343d eeab cbbd 325d 183d
00000260: f034 dfbd 0cc4 b6bd d650 a2bd 1b2c 99bc
00000270: a04c 713d 11e2 03bd cb76 86ba 3e8e ca3d
00000280: 7feb 0fbd 0c30 b93d 2d50 683c 3b1c 99be
00000290: 0cfa ffbd 008c 19bd fe81 c13c 78d0 163c
000002a0: e02e ff3d 912d 113e b100 653d aee0 a13d
000002b0: 70aa f33d e814 a93d aae3 c03c 4836 09be
000002c0: 99d7 8cbd 0867 e5bd d1e6 c0bd 1852 7dbc
000002d0: 30d9 0dbe 0772 02bd 3697 44bd 7c25 ebbc
000002e0: d683 f4bd 12b3 4a3c 5cb2 49bd 75aa c2bc
000002f0: bf5b 20bd ec5a 08be 8e75 c7bd 4f70 74bb
00000300: 30be 04be b9a2 c3bc 687e 41bd c93a 02be
00000310: 23b5 b2bc b6ad 0fbe 4a6d 83bc 97a5 c53c
00000320: 2160 023d 9495 65bd 5e34 883d c334 fbbd
00000330: 1cbe 9cbc 25ee 6fbd 228b e73d fd25 83bc
00000340: 3521 d63a 1393 a03d e775 953d 46c4 563d
00000350: 2e97 b63d 4653 ef3d e11c de3d d405 623d
00000360: 4683 373d e0a0 053e 6416 4cbc 5e9d 26bd
00000370: 579c c6bd 4612 abbd 780b 90bd 3002 3bbd
00000380: e56d c0bd 5bb4 373d ad04 d0bd a753 82bd
00000390: f6cc 4ebd 0bf5 fcbc 7efc 9c3d d87f 6a3d
000003a0: 4e7d 93bd 450d 9a3c 8f01 09bc e6ac 8d3d
000003b0: ebbc a5bd f8a3 b93d 62a5 053e 780a 473d
000003c0: b899 dfbc 6706 763d 7473 4bbc 9fdb d03c
000003d0: e764 cbbc 950f 783b 33c8 853d 2c41 81bd
000003e0: 013c 7a3a cc39 ff3c 0d71 a6bd 0afb bfbc
000003f0: 55bf f6bc f6ca febc f59c ac3d 7116 91bd

fc_numerical.0.bias f4 [256]
-0.03385703 0.05533159 -0.066303134 -0.13125843 0.28461438 0.09100633 0.13978387 0.10980457
-0.0320926 -0.11162388 -0.025451565 -0.20402934 -0.018228132 -0.09391137 -0.13129596 0.00567486
-0.051381085 -0.21724088 0.17533469 -0.032084193 -0.03423475 -0.22959279 -0.011053974 -0.15014559
0.15641418 -0.068387285 -0.011056743 0.0682833 -0.1551953 0.02776434 -0.03736443 -0.010549563
0.038608637 -0.14102729 -0.101948865 0.027585343 0.09649355 0.11863695 -0.01271506 0.14552721
-0.24521258 -0.028092511 -0.002368629 -0.55420536 0.012316953 0.11727775 0.1330646 -0.07085035
-0.00037167576 0.015808761 0.18203829 0.21002197 0.026423218 0.03606818 0.0526526 0.025788197
-0.017444266 0.16510986 0.048016556 -0.039221708 0.123228475 0.057208337 -0.09720324 0.01905482
-0.030495401 -0.010665232 0.06699887 0.17148326 -0.18560818 0.017256636 0.049248513 -0.13431816
0.08309432 0.053750623 -0.031219212 0.047399834 -0.0064380686 0.017529352 -0.182969 -0.064554065
0.12358793 0.09324647 -0.07356595 -0.008958996 -0.012018471 -0.31849888 -0.06422199 0.061482295
-0.13779804 0.05926793 0.06384213 -0.10164287 -0.05587779 -0.13930897 0.036570724 0.07379295
-0.03833965 -0.034625344 -0.101142846 0.0700024 -0.022116318 0.092620544 0.080608025 0.06970064
-0.14353268 -0.14089087 -0.088781096 -0.01575709 -0.3413815 0.06351496 0.075694464 -0.14434707
0.08518499 -0.035586216 -0.16091692 -0.25897896 0.0064171283 -0.12104109 0.052234516 -0.008836029
0.10668558 0.00441123 -0.16854057 0.05616208 0.162518 0.10032152 0.021977542 0.004204801
-0.18253143 -0.019660393 -0.17990436 -0.031374242 -0.15301074 -0.1681799 -0.005136456 0.01769647
0.26483956 0.20759745 -0.09218747 -0.016316514 -0.05335365 0.036375858 0.065820895 -0.11662335
-0.11308083 0.0663005 0.031482603 -0.12461826 -0.035998162 0.118065454 0.103429034 -0.07097787
-0.015554704 0.17910536 -0.17295595 -0.14851823 0.06940245 -0.18181081 0.006684614 0.07294117
-0.027444534 -0.015580194 0.13984895 -0.030753179 -0.06826367 -0.08036993 -0.12067165 -0.062269114
-0.03102111 -0.04021748 0.0991705 -0.24417683 -0.06883989 -0.048295137 0.0184456 -0.14242673
0.03700329 -0.11460621 -0.23242024 -0.0371198 -0.051217902 0.114952214 -0.050705045 -0.23730545
-0.0005696537 0.18916139 -0.0309941 0.0008556895 -0.0133467745 -0.101187654 -0.104388095 -0.1420528
0.017560812 0.01657964 -0.20754741 0.11100035 -0.082924135 -0.18625295 0.14915079 -0.040689137
0.15246224 -0.04779658 -0.33957037 0.05820305 -0.24006376 -0.038363583 0.050380975 0.12620583
0.045690678 0.008827214 -0.0725651 -0.10555662 -0.039008413 0.1289929 0.12674293 -0.062793694
-0.31809944 0.08844912 -0.12661193 -0.049740158 -0.11934684 0.030837547 -0.003537909 -0.074097395
0.06049428 0.09259683 -0.10198977 0.07378842 -0.04486062 -0.3711268 0.091170006 -0.12268197
-0.043589264 -0.1227878 -0.1420495 -0.16956228 -0.07255432 0.037799347 0.0061728186 0.004897262
-0.0700184 0.035009466 -0.034870233 -0.0727976 0.060765028 0.036436703 -0.048332345 0.06258842
-0.05051549 -0.28933418 -0.047094595 0.14299469 0.024691708 -0.3698711 -0.15412368 -0.042741023
00000000: abad 0abd 61a3 623d f0c9 87bd 9c68 06be
00000010: fab8 913e 8761 ba3d 8123 0f3e 38e1 e03d
00000020: 8873 03bd 109b e4bd cd7f d0bc 11ed 50be
00000030: 2a53 95bc 9b54 c0bd 7372 06be 2df4 b93b
00000040: f974 52bd 6574 5ebe f08a 333e b76a 03bd
00000050: bd39 0cbd 5f1a 6bbe ba1b 35bc c4bf 19be
00000060: 0a2b 203e a20e 8cbd 5727 35bc 1dd8 8b3d
00000070: 84eb 1ebe 0b72 e33c 720b 19bd 13d8 2cbc
00000080: 1724 1e3d 7569 10be 91ca d0bd a8fa e13c
00000090: 699e c53d eef7 f23d d452 50bc 1605 153e
000000a0: 0219 7bbe 4422 e6bc 003b 1bbb 67e0 0dbf
000000b0: 0ccd 493c 512f f03d 1642 083e fd19 91bd
000000c0: 7add c2b9 6081 813c 3f68 3a3e 0010 573e
000000d0: 8175 d83c 3abc 133d 41aa 573d c541 d33c
000000e0: 47e7 8ebc 8f12 293e 02ad 443d f1a6 20bd
000000f0: 365f fc3d 4a53 6a3d 7e12 c7bd db18 9c3c
00000100: 7ed1 f9bc 3abd 2ebc b436 893d 4f99 2f3e
00000110: 1210 3ebe ca5d 8d3c cfb8 493d b38a 09be
00000120: 5b2d aa3d 9d29 5c3d 6fbf ffbc 5426 423d
00000130: 6ff6 d2bb b799 8f3c 3a5c 3bbe ec34 84bd
00000140: ab1b fd3d 01f8 be3d bfa9 96bd c1c8 12bc
00000150: 1fe9 44bc 4912 a3be d286 83bd dcd4 7b3d
00000160: ee1a 0dbe eec2 723d aabf 823d 232a d0bd
00000170: 1ce0 64bd 03a7 0ebe 2fcb 153d c220 973d
00000180: 090a 1dbd 4ed3 0dbd fb23 cfbd 6b5d 8f3d
00000190: 482d b5bc d7af bd3d d215 a53d 36bf 8e3d
000001a0: 3bfa 12be b245 10be ddd2 b5bd 0315 81bc
000001b0: 8ec9 aebe 2214 823d b305 9b3d b8cf 13be
000001c0: 7875 ae3d dac2 11bd 68c7 24be e498 84be
000001d0: c646 d23b 64e4 f7bd dcf3 553d fec4 10bc
000001e0: f87d da3d 148c 903b e695 2cbe 360a 663d
000001f0: 1e6b 263e 5e75 cd3d 3f0a b43c 6dc8 893b
00000200: 85e9 3abe d50e a1bc d938 38be 4782 00bd
00000210: d9ae 1cbe 5a37 2cbe b74f a8bb 30f8 903c
00000220: 0d99 873e 6d94 543e c9cc bcbd 36aa 85bc
00000230: 5b89 5abd dafe 143d 1bcd 863d 39d8 eebd
00000240: ec96 e7bd 8ec8 873d e7f3 003d dc37 ffbd
00000250: cf72 13bd 4dcc f13d 9ad2 d33d d85c 91bd
00000260: 28d9 7ebc 6567 373e 5d1b 31be 2a15 18be
00000270: df22 8e3d 9d2c 3abe 9b0a db3b 2e62 953d
00000280: 5cd3 e0bc 1244 7fbc 9034 0f3e 17ee fbbc
00000290: d3cd 8bbd fd98 a4bd b322 f7bd e60d 7fbd
000002a0: fc1f febc 16bb 24bd e719 cb3d 7e09 7abe
000002b0: eefb 8cbd 1fd1 45bd 3a1b 973c 50d8 11be
000002c0: c390 173d a9b6 eabd 92ff 6dbe ee0a 18bd
000002d0: ddc9 51bd 116c eb3d 18b0 4fbd 3300 73be
000002e0: d054 15ba 86b3 413e 57e7 fdbc 5a50 603a
000002f0: 6eac 5abc 793b cfbd 6dc9 d5bd 4a76 11be
00000300: b1db 8f3c 06d2 873c 4f87 54be 2754 e33d
00000310: 21d4 a9bd 18b9 3ebe fcba 183e a7a9 26bd
00000320: 101f 1c3e 59c6 43bd 2bdc adbe 5266 6e3d
00000330: 46d3 75be 2223 1dbd 485c 4e3d 1a3c 013e
00000340: 2626 3b3d 05a0 103c 039d 94bd 122e d8bd
00000350: 49c7 1fbd b716 043e e6c8 013e fb99 80bd
00000360: eedd a2be d024 b53d 8fa6 01be 56bc 4bbd
00000370: 1e6c f4bd 069f fc3c 43dc 67bb 60c0 97bd
00000380: dac8 773d 68a3 bd3d 03e0 d0bd 621e 973d
00000390: c5bf 37bd 5504 bebe 57b7 ba3d af40 fbbd
000003a0: a88a 32bd 2c78 fbbd 6d75 11be bca1 2dbe
000003b0: 5c97 94bd 7dd3 1a3d 5b45 ca3b 3679 a03b
000003c0: cf65 8fbd 1666 0f3d 17d4 0ebd e816 95bd
000003d0: c0e4 783d a73e 153d 23f8 45bd 5c2e 803d
000003e0: 55e9 4ebd 9c23 94be 43e6 40bd 336d 123e
000003f0: 4446 ca3c bf5f bdbe 99d2 1dbe 3611 2fbd

fc_numerical.2.weight f4 [256]
0.9608204 1.0467496 0.9282419 1.0244899 0.9324909 1.0251547 1.0606046 1.0239608
0.98745656 0.9715582 0.9305965 0.9769971 1.0258946 1.0572822 1.0118027 1.0008951
0.9751718 0.99277014 0.8300882 1.0331564 0.9985408 0.9482501 1.0217358 0.9568113
1.0113424 0.9839177 1.0068473 0.9279766 1.0654224 0.93259585 0.9753816 1.0514203
0.9597987 1.0936872 1.0361934 0.99390185 0.97958076 0.9862712 1.0839825 0.9659737
1.0081704 1.0095423 0.9975341 1.2099717 1.0144426 1.0305763 0.9859059 1.0066398
1.0420281 0.96621406 0.91388434 1.0642118 0.89573354 1.0263116 0.87788385 0.95929295
1.0302868 1.0008358 1.0380414 1.0164907 1.0068856 1.0364938 1.0907316 1.0076972
1.0439438 1.0214261 1.0541862 0.95886034 1.0073295 1.0295447 0.95653296 1.0722928
1.0548208 0.89074063 0.904292 1.0370245 1.0555118 1.0372725 0.88957757 0.9178487
0.9737537 0.9958359 0.9376028 1.0759534 1.0306255 1.0826054 0.99246025 0.93801534
1.0363922 0.98000044 1.0091647 0.96064 0.98734915 0.9808307 0.9625726 0.97273546
0.9423534 0.9569959 1.0121831 1.0463226 0.9564299 1.0199453 1.010501 1.0647283
0.9872723 1.057514 0.9437139 0.92368037 1.042188 0.87119985 1.0637302 0.990681
1.034875 1.1379848 1.1148771 1.0972029 0.9700439 1.0442108 0.92351806 0.9772198
1.0613773 0.98701024 1.0535697 0.9720286 0.8334401 0.98411715 0.967047 0.96554744
1.1006079 0.9250933 0.9789717 1.047962 1.0978338 0.9849265 0.99301976 1.0130125
0.98025525 0.97587794 0.9853088 0.9724068 0.98205596 1.0277857 1.0357507 1.0437146
0.9309208 1.032404 1.0690418 0.9784132 1.1137918 1.0783229 1.0360205 0.96954066
1.0900576 1.0138836 1.0703778 0.94653434 0.9263597 0.9755951 1.0580118 1.0347793
0.9595922 0.99789685 0.93509096 1.0009793 0.97587377 1.024841 1.1098256 0.9599003
0.9699575 0.9266397 1.0374453 1.0434424 1.0233973 1.0228171 1.0525393 0.9076195
1.0635912 1.0546868 1.0866047 0.93281084 0.9410455 1.032735 1.1167992 0.97786516
1.1044654 0.9999053 0.9515731 1.0222527 1.0226451 1.0625187 1.0989202 1.1826271
0.97084844 0.963957 0.9744254 0.96218145 1.0222645 1.01255 0.9113183 1.0265763
1.0010551 1.0316236 1.1735543 1.0891004 1.2641963 1.024743 1.0204676 0.9623404
0.95706576 1.031826 1.0416175 1.002879 0.92705536 1.0905303 0.94502395 1.0615877
0.9801665 1.0798177 1.0491357 1.0333029 0.9209661 1.016105 1.0179828 0.9780765
0.96116185 0.97787553 1.0137318 1.0715375 0.9594545 1.2023066 0.9742727 0.96605474
0.9576782 1.0686499 0.992635 0.98132056 0.9594788 1.0502899 1.0434728 1.0287045
0.9880126 0.9570279 1.0017633 1.0169253 1.0311872 0.92297316 0.98969233 0.9871527
1.0401056 0.996891 0.996947 1.0174273 1.0045588 1.1027356 1.0687543 0.8594822
00000000: 53f8 753f e4fb 853f 43a1 6d3f 7c22 833f
00000010: b9b7 6e3f 4538 833f e4c1 873f 2611 833f
00000020: f4c9 7c3f 0ab8 783f 923b 6e3f 7b1c 7a3f
00000030: 8450 833f 0655 873f c082 813f 551d 803f
00000040: dca4 793f 2f26 7e3f a980 543f 783e 843f
00000050: 5fa0 7f3f 85c0 723f 3dc8 823f 96f1 743f
00000060: ab73 813f 08e2 7b3f 5fe0 803f e08f 6d3f
00000070: c35f 883f 9abe 6e3f 9cb2 793f f194 863f
00000080: 5eb5 753f f1fd 8b3f fca1 843f 5a70 7e3f
00000090: cec5 7a3f 457c 7c3f f0bf 8a3f 0d4a 773f
000000a0: ba0b 813f af38 813f 655e 7f3f 5ae0 9a3f
000000b0: 41d9 813f ede9 833f 5464 7c3f 93d9 803f
000000c0: 2d61 853f ce59 773f 53f4 693f 1838 883f
000000d0: cb4e 653f 2e5e 833f ffbc 603f 3994 753f
000000e0: 70e0 833f 631b 803f 8ade 843f 5e1c 823f
000000f0: a1e1 803f d4ab 843f 189d 8b3f 39fc 803f
00000100: f39f 853f 17be 823f 93ef 863f df77 753f
00000110: 2cf0 803f 1fc8 833f 58df 743f e440 893f
00000120: 5e04 873f 9407 643f ae7f 673f 38bd 843f
00000130: 031b 873f 58c5 843f 5bbb 633f 22f8 6a3f
00000140: ec47 793f 1aef 7e3f bd06 703f d7b8 893f
00000150: 89eb 833f d092 8a3f e011 7e3f c621 703f
00000160: 80a8 843f 4fe1 7a3f 4f2c 813f 81ec 753f
00000170: eac2 7c3f b917 7b3f 286b 763f 3105 793f
00000180: 133e 713f affd 743f 378f 813f e6ed 853f
00000190: 97d8 743f 918d 823f 1958 813f 0449 883f
000001a0: e1bd 7c3f 9e5c 873f 3c97 713f 5176 6c3f
000001b0: 6b66 853f f406 5f3f 5028 883f 459d 7d3f
000001c0: c976 843f 7ca9 913f 4bb4 8e3f 2571 8c3f
000001d0: cc54 783f b3a8 853f ae6b 6c3f 142b 7a3f
000001e0: 36db 873f b4ac 7c3f 5fdb 863f ded6 783f
000001f0: 555c 553f 1aef 7b3f 6490 773f 1e2e 773f
00000200: b8e0 8c3f ead2 6c3f e49d 7a3f 9e23 863f
00000210: d185 8c3f 2524 7c3f 8b36 7e3f 65aa 813f
00000220: 02f2 7a3f 23d3 793f 333d 7c3f a7ef 783f
00000230: 0568 7b3f 7b8e 833f 7b93 843f 7198 853f
00000240: d350 6e3f d025 843f 5dd6 883f 4a79 7a3f
00000250: bb90 8e3f 7c06 8a3f 529c 843f d133 783f
00000260: 0287 8b3f f0c6 813f 2402 893f 1350 723f
00000270: e925 6d3f 9ac0 793f ee6c 873f a673 843f
00000280: d6a7 753f 2b76 7f3f 1f62 6f3f 1720 803f
00000290: ddd2 793f fd2d 833f c40e 8e3f 07bc 753f
000002a0: 224f 783f 4238 6d3f 02cb 843f 858f 853f
000002b0: affe 823f aceb 823f 9cb9 863f c059 683f
000002c0: c223 883f faff 863f dd15 8b3f b1cc 6e3f
000002d0: 5ce8 703f a930 843f 47f3 8e3f 5f55 7a3f
000002e0: 1f5f 8d3f cbf9 7f3f 4b9a 733f 2dd9 823f
000002f0: 09e6 823f 9d00 883f 6ba9 8c3f 5360 973f
00000300: 8689 783f e3c5 763f f173 793f 8651 763f
00000310: 90d9 823f 3d9b 813f 284c 693f da66 833f
00000320: 9322 803f 3e0c 843f 0737 963f a467 8b3f
00000330: 2fd1 a13f c72a 833f af9e 823f f15b 763f
00000340: 4302 753f e012 843f b953 853f 575e 803f
00000350: 8053 6d3f 7f96 8b3f 17ed 713f 1be2 873f
00000360: 31ec 7a3f 7737 8a3f 144a 863f 4543 843f
00000370: 6fc4 6b3f bb0f 823f 434d 823f 3963 7a3f
00000380: b40e 763f 0d56 7a3f f7c1 813f 2428 893f
00000390: cf9e 753f 2fe5 993f f069 793f 5d4f 773f
000003a0: 662a 753f 85c9 883f 541d 7e3f d337 7b3f
000003b0: 67a0 753f e66f 863f 8490 853f 97ac 833f
000003c0: 65ee 7c3f c8ff 743f c839 803f 9c2a 823f
000003d0: f1fd 833f f847 6c3f 7a5c 7d3f 0ab6 7c3f
000003e0: 2e22 853f 4034 7f3f eb37 7f3f 0f3b 823f
000003f0: 6295 803f 7126 8d3f f1cc 883f 0707 5c3f

fc_numerical.2.bias f4 [256]
-0.23544395 0.20402825 0.04052635 -0.10690511 0.30757424 0.33583862 0.07531982 0.19613421
0.20949802 -0.37573567 0.29816234 -0.113116615 0.035305336 -0.0029610437 -0.040659603 -0.07900141
0.21450612 0.12729809 0.17370269 -0.0047201444 0.42410645 -0.21118288 -0.21788667 0.042374033
0.0029594314 0.15562 0.015172886 -0.062382612 -0.19800578 -0.061768062 0.13640936 -0.06662837
0.09415086 -0.12809955 -0.16226737 0.4980764 0.21995632 0.062400963 -0.24733382 0.13319388
-0.3871037 -0.010868679 -0.19705324 -0.36193997 0.019819397 0.17756021 0.19156463 -0.10916559
-0.024164237 -0.052195497 0.006198791 0.0067361924 0.20734721 0.17545027 -0.045438662 0.040437654
0.22772846 0.02629779 0.20852977 0.15770918 0.15013792 0.12604281 -0.14077866 -0.20618874
-0.06278495 0.32214886 0.12945619 0.17253667 0.011197485 -0.12033642 0.033960834 0.12175543
0.04687411 0.20024706 -0.17566879 -0.21231377 -0.059088938 -0.056529906 0.055752277 -0.1809036
-0.06605324 0.16838521 -0.096991204 0.22016712 0.120907895 0.2959903 -0.44056955 0.1394743
0.04545349 -0.2411986 0.47879243 -0.10431767 -0.08645045 0.16031288 0.21547703 0.03483251
0.071175374 0.24431942 0.11273091 0.20747401 -0.06420709 0.29443657 0.020759758 0.27069518
-0.26211616 0.17005204 -0.29937172 -0.05017636 0.29337895 0.14258188 -0.19176582 0.18221916
-0.13138208 0.04605946 0.105393544 -0.17170191 -0.31177422 -0.113461085 0.29267424 -0.24147056
0.04863073 -0.16245769 -0.5276047 -0.028625159 0.09737451 0.0867158 0.10227898 0.17032799
-0.1425559 -0.07527048 -0.18062297 -0.22122534 0.06063677 -0.14470148 0.4063334 -0.050244246
0.19345044 0.23651616 -0.054113213 0.25145426 0.1772557 0.19846544 -0.057731908 0.08601437
-0.032760806 0.10474096 -0.02749847 -0.23833615 0.051658545 0.076668955 0.017182669 0.3585154
0.19741869 0.044778172 -0.15254246 0.19012049 0.05924828 0.2474549 0.015193356 0.1303946
0.05302729 -0.2292129 0.08394262 -0.21104272 0.12657729 -0.053094424 -0.0127797555 -0.18837474
0.056577507 0.0039143343 0.13635992 -0.21896587 -0.028664296 -0.12461211 -0.009722077 -0.20983678
-0.39129394 0.02461773 -0.08709962 0.040277064 -0.21165562 0.2357682 0.46526802 -0.22764497
0.16854547 0.14877903 -0.02162611 0.20165725 0.0007319646 -0.19151028 0.040950816 -0.29879886
-0.31867248 0.066633895 -0.37817034 0.10402777 -0.15195855 0.04634679 -0.03064507 -0.27450877
-0.066998996 0.036189333 -0.15633364 0.1079317 -0.2456173 0.11047155 -0.1354795 0.18442604
0.045513425 -0.006515844 -0.20386696 0.05291732 0.1117406 0.3252593 -0.14365019 0.21687181
-0.16108268 0.028307261 -0.318223 -0.05776235 -0.19133094 0.17475522 -0.21383445 -0.10595807
0.16892841 0.48691377 -0.15039824 -0.009796124 0.03542263 -0.16038494 0.2669924 -0.1391781
-0.16059592 -0.25909677 -0.086832 -0.22585113 -0.025200006 -0.120977886 -0.21603203 0.36569607
0.18678612 0.14172763 0.16519716 -0.004680288 -0.2726961 -0.16968098 0.23563327 0.11693468
-0.14190665 -0.15904237 0.023193302 0.13091254 -0.05124383 -0.109872416 0.09319084 -0.31061345
00000000: 3818 71be c8ec 503e f5fe 253d 11f1 dabd
00000010: 5f7a 9d3e 0af3 ab3e 4741 9a3d 68d7 483e
00000020: a686 563e 6d60 c0be bca8 983e afa9 e7bd
00000030: 549c 103d 120e 42bb af8a 26bd 7ecb a1bd
00000040: 7ea7 5b3e 6e5a 023e 1edf 313e 71ab 9abb
00000050: 7b24 d93e 5340 58be af1d 5fbe 6590 2d3d
00000060: 05f3 413b d95a 1f3e b297 783c e984 7fbd
00000070: 07c2 4abe 8200 7dbd e5ae 0b3e 7474 88bd
00000080: 2bd2 c03d 872c 03be 6b29 26be df03 ff3e
00000090: 3b3c 613e 2798 7f3d 1445 7dbe fa63 083e
000000a0: 7532 c6be 8b12 32bc 53c8 49be 3250 b9be
000000b0: 4a5c a23c 58d2 353e 8529 443e 3592 dfbd
000000c0: 14f4 c5bc f2ca 55bd 3a1f cb3b 47bb dc3b
000000d0: d452 543e 3ca9 333e e41d 3abd f4a1 253d
000000e0: a631 693e 776e d73c d488 553e 847e 213e
000000f0: c1bd 193e 5e11 013e 4828 10be 2423 53be
00000100: 6595 80bd b2f0 a43e 2a90 043e 74ad 303e
00000110: a875 373c f172 f6bd 841a 0b3d e95a f93d
00000120: 11ff 3f3d 910d 4d3e 85e2 33be c868 59be
00000130: 3e07 72bd e78b 67bd 805c 643d cb3e 39be
00000140: ec46 87bd 2c6d 2c3e 53a3 c6bd 7d73 613e
00000150: 8f9e f73d 0a8c 973e 5592 e1be 5ad2 0e3e
00000160: 702d 3a3d c4fc 76be 4824 f53e 81a4 d5bd
00000170: ef0c b1bd 0f29 243e 03a6 5c3e 89ac 0e3d
00000180: 65c4 913d df2e 7a3e 77df e63d 1174 543e
00000190: 027f 83bd 64c0 963e 5e10 aa3c 8f98 8a3e
000001a0: 1734 86be 1f22 2e3e 4047 99be ba85 4dbd
000001b0: c435 963e fc00 123e 425e 44be a997 3a3e
000001c0: 0689 06be d8a8 3c3d 92d8 d73d a0d2 2fbe
000001d0: dfa0 9fbe 495e e8bd 66d9 953e 0f44 77be
000001e0: 0431 473d 4f5b 26be 1a11 07bf 4f7f eabc
000001f0: 496c c73d 0e98 b13d a477 d13d 766a 2e3e
00000200: 2dfa 11be 6927 9abd 3af5 38be e588 62be
00000210: 435e 783d a02c 14be ee0a d03e e9cc 4dbd
00000220: df17 463e 4b31 723e d1a5 5dbd 9dbe 803e
00000230: 8582 353e 863a 4b3e 4b78 6cbd 4d28 b03d
00000240: 3230 06bd 6e82 d63d 7944 e1bc 640e 74be
00000250: e997 533d 9d04 9d3d abc2 8c3c 558f b73e
00000260: 2028 4a3e 5169 373d 1734 1cbe f2ae 423e
00000270: 53ae 723d d164 7d3e 8eed 783c 2986 053e
00000280: 2533 593d c9b6 6abe 1cea ab3d 951b 58be
00000290: 7a9d 013e 8a79 59bd 2e62 51bc 4fe5 40be
000002a0: d1bd 673d d143 803b efa1 0b3e 9738 60be
000002b0: 63d1 eabc a234 ffbd 5949 1fbc 74df 56be
000002c0: ae57 c8be 1fab c93c 4961 b2bd 90f9 243d
000002d0: 40bc 58be 386d 713e 9c37 ee3e c31b 69be
000002e0: 2f97 2c3e 8859 183e 3d29 b1bc 3d7f 4e3e
000002f0: 50e1 3f3a 451b 44be 0bbc 273d 2afc 98be
00000300: 0a29 a3be 5a77 883d 8b9f c1be 830c d53d
00000310: 069b 1bbe 22d6 3d3d 5f0b fbbc 6a8c 8cbe
00000320: c536 89bd 443b 143d ed15 20be 4c0b dd3d
00000330: 1a83 7bbe e83e e23d 23bb 0abe 2eda 3c3e
00000340: 496c 3a3d dc82 d5bb 80c2 50be d5bf 583d
00000350: 41d8 e43d 6388 a63e 0919 13be a513 5e3e
00000360: dcf2 24be a1e4 e73c 20ee a2be 3798 6cbd
00000370: 42ec 43be 08f3 323e 6bf7 5abe 8b00 d9bd
00000380: 92fb 2c3e c34c f93e ff01 1abe ec7f 20bc
00000390: 5217 113d f33b 24be 3ab3 883e b484 0ebe
000003a0: 4273 24be 55a8 84be fad4 b1bd 8545 67be
000003b0: 3e70 cebc 41c3 f7bd 8037 5dbe 843c bb3e
000003c0: dc44 3f3e 0c21 113e 7229 293e 1a5d 99bb
000003d0: d39e 8bbe dac0 2dbe d949 713e 737b ef3d
000003e0: fa4f 11be 01dc 22be e1ff bd3c f00d 063e
000003f0: 0de5 51bd ca04 e1bd d7da be3d ba08 9fbe

fc_numerical.2.running_mean f4 [256]
0.44372767 1.186505 0.7936659 1.1163979 0.596474 1.4211866 0.9013954 1.5849553
0.63102055 0.96123445 0.6627173 0.672869 0.9917969 0.48683444 1.2259767 0.8872306
0.8583418 0.4615907 1.2376968 1.1195761 0.4965538 0.7856923 0.9471887 0.90542376
1.2376022 0.7433669 1.0302775 1.0067272 1.0342702 0.616709 0.49674776 1.0019809
1.0850329 0.83867097 1.2283565 0.4777488 1.018114 1.4104455 1.208941 0.1803479
0.4864955 0.7191862 1.1201462 0.6208896 0.4672088 1.2671955 1.0403652 1.3069711
0.31565145 0.44079456 0.65995824 1.260924 0.984368 0.7157493 0.39087707 0.5962141
1.0399903 0.7336158 0.9792638 0.57699525 1.383425 1.4244738 0.87494224 0.6159418
1.144597 0.6491548 1.3898321 0.597897 0.6440816 0.99115175 0.9475897 1.0977187
1.0882062 0.93905574 0.43798676 1.1596168 1.3033727 0.7141371 0.32216555 0.3709128
1.0695974 1.2419524 0.32945552 0.6161114 1.1869835 0.2679635 0.2786917 0.61581874
0.56085765 0.25908017 0.4553072 0.8965139 0.8797829 0.4787307 0.51098126 0.43320197
0.7043534 0.3618606 1.073222 0.9741886 0.9389848 1.3322284 1.0581034 1.0321538
0.5660316 0.6969646 0.982006 0.66900885 0.8725647 0.8230277 1.1971911 0.3658221
1.2984816 0.6228101 0.5951813 0.6829158 0.40251002 0.5423175 0.81598634 0.7563552
0.6389121 0.98385596 0.3856514 1.0855381 1.1002312 0.38181832 0.38583562 0.10868064
1.3206724 1.1808298 0.41526657 0.9907125 0.8851264 0.9358887 0.7335271 1.1064657
0.5534193 1.0201243 0.5644831 0.7108637 0.97097605 1.2194514 0.8731628 1.0258145
0.4766131 0.7924654 1.0550387 0.9251539 0.6562685 0.6581764 1.2818437 0.40821907
0.4720137 0.61277765 0.34916893 0.42620882 0.67153025 -0.018743563 0.8994921 1.1995945
0.28658244 0.7442277 0.3430218 0.76491106 0.6760659 0.587828 1.033746 0.82892364
0.7376168 0.51344377 1.0798874 0.46636537 1.5773185 0.7693988 0.88667685 0.73100996
1.0194908 0.749878 0.38998735 0.92217696 1.2117323 1.3839532 0.49434018 0.23002182
1.0461012 0.758295 0.8557063 1.2683722 1.1008098 0.7248938 0.27276927 0.9308263
0.97398 0.10860414 0.65354526 0.868993 1.4268441 0.9180179 0.75086623 1.0680552
0.49413595 1.3907211 1.0341879 1.0834208 0.7610359 0.9977651 1.3193161 0.24878722
0.75828534 0.91863006 0.7781385 0.8277018 0.97988707 0.718647 0.9593528 0.9715308
0.5658394 0.91927904 0.4575061 0.71261996 0.3664194 0.8641389 0.7028146 1.0007433
0.56120837 0.5537463 1.2702631 1.3415142 0.68563205 0.580281 0.5918922 0.7335395
1.036763 1.0517689 0.91107714 0.58865035 0.8491409 1.1564801 0.32552943 1.434516
0.40507707 0.55624163 0.85606503 0.9384222 1.498842 0.45712692 0.4905215 0.95952886
1.0085083 0.8914163 0.80161256 1.2214688 1.0643098 0.49631512 0.6793113 0.5799299
00000000: 4630 e33e 65df 973f b02d 4b3f 20e6 8e3f
00000010: 85b2 183f 71e9 b53f d9c1 663f d1df ca3f
00000020: 908a 213f 7613 763f d7a7 293f 2541 2c3f
00000030: 67e6 7d3f 5d42 f93e ceec 9c3f 8b21 633f
00000040: 4abc 5b3f 9e55 ec3e d96c 9e3f 454e 8f3f
00000050: 4d3c fe3e 2123 493f f57a 723f dac9 673f
00000060: c069 9e3f 4b4d 3e3f 22e0 833f 70dc 803f
00000070: f762 843f a4e0 1d3f b955 fe3e e940 803f
00000080: 5ce2 8a3f 24b3 563f c93a 9d3f 7e9b f43e
00000090: 8f51 823f 7a89 b43f 94be 9a3f 1fad 383e
000000a0: f015 f93e 961c 383f f360 8f3f 9ff2 1e3f
000000b0: fe35 ef3e 7633 a23f b02a 853f d44a a73f
000000c0: 119d a13e d3af e13e 06f3 283f f565 a13f
000000d0: 8bff 7b3f 593b 373f 0a21 c83e 7da1 183f
000000e0: 671e 853f 3fce 3b3f 08b1 7a3f f6b5 133f
000000f0: 1214 b13f 2855 b63f 37fc 5f3f 5dae 1d3f
00000100: 2882 923f 022f 263f 05e6 b13f c70f 193f
00000110: 88e2 243f 1fbc 7d3f 3d95 723f 0c82 8c3f
00000120: 574a 8b3f f565 703f cd3f e03e 536e 943f
00000130: ebd4 a63f b0d1 363f e2f2 a43e 48e8 bd3e
00000140: 91e8 883f 4cf8 9e3f 65ae a83e 7ab9 1d3f
00000150: 13ef 973f 8332 893e aeb0 8e3e 4ca6 1d3f
00000160: 5e94 0f3f 28a6 843e 061e e93e ef81 653f
00000170: 7439 613f 311c f53e abcf 023f a6cc dd3e
00000180: 8150 343f cb45 b93e 575f 893f 6d64 793f
00000190: 4f61 703f 7686 aa3f ef6f 873f 9e1d 843f
000001a0: 72e7 103f 466c 323f bf64 7b3f 2a44 2b3f
000001b0: 6660 5f3f f1b1 523f 8f3d 993f 094d bb3e
000001c0: a534 a63f 7c70 1f3f cd5d 183f 92d3 2e3f
000001d0: cb15 ce3e 52d5 0a3f 7be4 503f 7fa0 413f
000001e0: be8f 233f fcdd 7b3f 1a74 c53e eaf2 8a3f
000001f0: 60d4 8c3f b17d c33e 3f8c c53e f593 de3d
00000200: cb0b a93f 6e25 973f d29d d43e 569f 7d3f
00000210: a597 623f 6796 6f3f 6fc8 3b3f aba0 8d3f
00000220: e3ac 0d3f 6f93 823f f781 103f 2afb 353f
00000230: e391 783f fc16 9c3f 9987 5f3f e44d 833f
00000240: a206 f43e 03df 4a3f 820b 873f e3d6 6c3f
00000250: 3601 283f 407e 283f 7413 a43f 1702 d13e
00000260: c8ab f13e ffde 1c3f 45c6 b23e 0b38 da3e
00000270: 68e9 2b3f 1a8c 99bc 1d45 663f 508c 993f
00000280: efba 923e b585 3e3f 8ea0 af3e 36d1 433f
00000290: a812 2d3f e57b 163f ca51 843f 5734 543f
000002a0: 74d4 3c3f 0d71 033f c039 8a3f 71c7 ee3e
000002b0: 93e5 c93f 52f7 443f 41fd 623f 7823 3b3f
000002c0: ad7e 823f 01f8 3f3f 6cac c73e ca13 6c3f
000002d0: 0b1a 9b3f 6125 b13f 281a fd3e d78a 6b3e
000002e0: a5e6 853f 9f1f 423f 910f 5b3f 055a a23f
000002f0: 56e7 8c3f a492 393f 6aa8 8b3e a24a 6e3f
00000300: c156 793f d96b de3d be4e 273f 5376 5e3f
00000310: d4a2 b63f 3903 6b3f c538 403f 08b6 883f
00000320: 63ff fc3e 2603 b23f 4560 843f 88ad 8a3f
00000330: 40d3 423f 896d 7f3f 5adf a83f 14c2 7e3e
00000340: fd1e 423f 572b 6b3f 1634 473f 44e4 533f
00000350: e1d9 7a3f 40f9 373f 2598 753f 3eb6 783f
00000360: dada 103f df55 6b3f 3d3e ea3e 436e 363f
00000370: 539b bb3e 3538 5d3f a8eb 333f 5b18 803f
00000380: 5aab 0f3f 51c2 0d3f fb97 a23f bdb6 ab3f
00000390: 9585 2f3f 4c8d 143f 3f86 173f 3fc9 3b3f
000003a0: a6b4 843f 5da0 863f 5a3c 693f cab1 163f
000003b0: 4c61 593f 8a07 943f cbab a63e 389e b73f
000003c0: 4366 cf3e da65 0e3f 1427 5b3f 703c 703f
000003d0: 0eda bf3f 8a0c ea3e a225 fb3e afa3 753f
000003e0: cd16 813f dc33 643f 7b36 4d3f 1759 9c3f
000003f0: 4e3b 883f 041d fe3e 58e7 2d3f 4976 143f

fc_numerical.2.running_var f4 [256]
5.7115664 10.84718 5.6230855 15.476262 4.857592 10.993982 10.337484 12.16559
8.222162 15.159721 6.934167 5.9163623 15.912188 4.0792394 13.987907 5.204948
10.024399 4.9206014 7.1129165 13.039921 5.0369453 5.255141 9.368559 9.922613
12.755402 11.393756 15.2832 8.437505 4.7998614 4.333722 7.0524874 9.52371
10.117773 5.7720523 12.318299 4.141603 6.79382 13.946677 8.550264 2.35197
7.3083935 5.826918 11.672237 5.7692122 5.6263576 10.765365 11.883619 17.270525
3.2969081 3.0117755 3.9982164 8.609619 6.12034 7.1325774 2.8287544 5.933745
12.358293 3.692494 6.685511 5.4842625 10.466179 11.697882 9.138161 7.667167
13.22936 7.729577 10.501028 4.7325654 16.299978 10.17614 7.576134 11.029106
7.4882226 8.735188 12.203172 9.65359 9.879312 7.882771 6.878274 5.002771
7.1850924 9.839664 5.419149 7.2731433 9.87135 4.383528 2.7178843 5.452425
7.836041 2.5897765 3.8884518 8.46345 10.370467 10.235816 3.9696372 4.3440685
10.35576 11.114271 8.873201 8.354452 9.682192 13.01187 8.827634 9.80192
9.851301 7.487964 8.604975 7.810441 10.297222 7.714627 8.365572 4.541627
10.8357525 7.9364924 7.5188975 5.3301783 3.4713392 4.7610645 4.871221 5.2741046
5.3781295 9.107717 5.880324 8.253437 8.736338 5.7729774 3.929575 2.2593422
8.386547 10.997049 4.7828426 7.2608905 11.815658 13.454281 9.531719 11.957918
3.2588902 7.087482 3.1196895 9.245619 9.246044 8.432794 5.2648287 9.988918
5.9913154 6.2469964 7.3021255 9.512882 3.8618286 5.82751 10.5723715 8.294923
5.862953 5.3744106 4.007339 3.98344 3.6560905 1.7332915 13.2052555 12.877851
5.6930876 7.619097 4.461431 4.6775365 9.458277 3.786437 8.274464 6.5030303
8.077245 8.674144 8.429606 5.0670967 17.58725 10.776102 10.563943 12.266477
9.004625 11.124839 5.0754657 10.865535 8.196365 10.957128 4.9404016 3.320336
12.087128 4.14089 14.023319 9.383663 8.10681 8.984149 3.7211041 6.1572633
9.304397 2.6398225 6.6123967 7.4812 18.931936 9.571778 4.0618787 16.899189
6.1499496 15.8247 6.734949 13.954033 5.036083 11.371106 15.147787 5.398114
3.7339454 8.350989 9.845485 8.72298 11.1061125 6.1514606 9.064313 13.203494
6.8526697 8.074913 4.6167583 8.833145 6.699973 8.694132 6.4163117 11.150199
3.474026 4.562879 15.160534 7.126261 8.264311 4.4425893 5.1911473 6.648187
11.577768 12.63057 9.747433 4.992455 17.404102 15.248582 2.254503 11.969642
3.4293735 7.2424135 6.4597526 10.435437 15.581464 8.625637 7.11908 7.1707306
7.7326884 7.0465364 5.859454 8.386094 7.6518464 5.6528907 6.838788 4.4312024
00000000: 27c5 b640 0d8e 2d41 51f0 b340 c59e 7741
00000010: 6571 9b40 5ae7 2f41 5666 2541 42a6 4241
00000020: fa8d 0341 388e 7241 b2e4 dd40 d752 bd40
00000030: 5298 7e41 2189 8240 78ce 5f41 ef8e a640
00000040: f063 2041 9175 9d40 039d e340 84a3 5041
00000050: a82e a140 1d2a a840 9ee5 1541 06c3 1e41
00000060: 2016 4c41 d34c 3641 fd87 7441 0500 0741
00000070: 7798 9940 daad 8a40 faad e140 1e61 1841
00000080: 66e2 2141 a7b4 b840 c117 4541 0388 8440
00000090: f966 d940 9725 5f41 e2cd 0841 ad86 1640
000000a0: 5cde e940 1d76 ba40 7cc1 3a41 639d b840
000000b0: 1f0b b440 ef3e 2c41 4e23 3e41 092a 8a41
000000c0: 8b00 5340 eec0 4040 c7e2 7f40 00c1 0941
000000d0: d3d9 c340 133e e440 500a 3540 3de1 bd40
000000e0: 91bb 4541 d251 6c40 b5ef d540 147f af40
000000f0: 7875 2741 862a 3b41 e835 1241 6f59 f540
00000100: 75ab 5341 b258 f740 3604 2841 2d71 9740
00000110: 5b66 8241 78d1 2241 b16f f240 3877 3041
00000120: 859f ef40 54c3 0b41 3140 4341 1b75 1a41
00000130: a911 1e41 a93f fc40 d21a dc40 b316 a040
00000140: 47ec e540 446f 1d41 ab69 ad40 97bd e840
00000150: 0df1 1d41 dd45 8c40 d1f1 2d40 447a ae40
00000160: d9c0 fa40 e6be 2540 65dc 7840 4b6a 0741
00000170: 6fed 2541 e7c5 2341 890e 7e40 9c02 8b40
00000180: 31b1 2541 0ed4 3141 a2f8 0d41 d6ab 0541
00000190: 42ea 1a41 9f30 5041 fd3d 0d41 aad4 1c41
000001a0: ee9e 1d41 679d ef40 faad 0941 22ef f940
000001b0: 6cc1 2441 39de f640 62d9 0541 0255 9140
000001c0: 3e5f 2d41 bff7 fd40 cf9a f040 d290 aa40
000001d0: 6c2a 5e40 a45a 9840 0be1 9b40 77c5 a840
000001e0: a319 ac40 35b9 1141 9d2b bc40 140e 0441
000001f0: 0ac8 0b41 3bbc b840 287e 7b40 1099 1040
00000200: 4c2f 0641 eaf3 2f41 0c0d 9940 3759 e840
00000210: ef0c 3d41 bc44 5741 ec81 1841 a253 3f41
00000220: a891 5040 a7cc e240 fea8 4740 0eee 1341
00000230: ccef 1341 b9ec 0641 7a79 a840 9cd2 1f41
00000240: dbb8 bf40 65e7 c740 03ab e940 c434 1841
00000250: 3328 7740 f67a ba40 6f28 2941 01b8 0441
00000260: 509d bb40 2cfb ab40 1f3c 8040 aef0 7e40
00000270: 63fd 6940 7fdc dd3f ba48 5341 ad0b 4e41
00000280: c62d b640 a5cf f340 0bc4 8e40 61ae 9540
00000290: 1a55 1741 fc54 7240 3464 0441 d318 d040
000002a0: 653c 0141 4bc9 0a41 abdf 0641 a825 a240
000002b0: b0b2 8c41 ea6a 2c41 e905 2941 7d43 4441
000002c0: f212 1041 57ff 3141 376a a240 3bd9 2d41
000002d0: 5024 0341 6550 2f41 c517 9e40 6380 5440
000002e0: e064 4141 2c82 8440 845f 6041 7c23 1641
000002f0: 7eb5 0141 13bf 0f41 9226 6e40 4d08 c540
00000300: cfde 1441 daf2 2840 c198 d340 fe65 ef40
00000310: 9b74 9741 0126 1941 e9fa 8140 8a31 8741
00000320: 63cc c440 f931 7d41 b484 d740 b843 5f41
00000330: 9827 a140 0df0 3541 565d 7241 5abd ac40
00000340: f6f8 6e40 a79d 0541 1b87 1d41 5391 0b41
00000350: a3b2 3141 c4d8 c440 6d07 1141 8341 5341
00000360: 1249 db40 d832 0141 7cbc 9340 9054 0d41
00000370: 2e66 d640 2a1b 0b41 6d52 cd40 3767 3241
00000380: 7156 5e40 1b03 9240 8c91 7241 550a e440
00000390: 9e3a 0441 b129 8e40 e11d a640 f3bd d440
000003a0: 8a3e 3941 d116 4a41 7cf5 1b41 31c2 9f40
000003b0: 9a3b 8b41 31fa 7341 c749 1040 a783 3f41
000003c0: db7a 5b40 dac1 e740 4bb6 ce40 8df7 2641
000003d0: ad4d 7941 9c02 0a41 81cf e340 a076 e540
000003e0: 2f72 f740 3a7d e140 a680 bb40 712d 0641
000003f0: eddb f440 7be4 b440 5ad7 da40 69cc 8d40

fc_numerical.3.weight f4 [64, 256]
-0.049909793 -0.07325334 0.056193206 0.013323468 -0.008539186 -0.065793864 0.12299502 -0.085211486
0.031910833 -0.13687077 0.07394291 -0.077247865 -0.034389146 -0.0022635257 0.012587798 0.056402832
0.035901576 0.0811217 0.027867002 -0.07342827 -0.015026185 -0.03486274 0.028019562 -0.053410344
-0.03327699 -0.010190871 -0.062496573 0.044222012 -0.07408026 -0.08530778 0.037712075 0.040437564
-0.08398775 -0.08868956 0.122537285 -0.015542471 0.09806763 0.0015053693 0.037270978 0.030057315
0.024749026 0.0052420436 0.07310688 0.06560665 -0.03927185 -0.09013096 0.066835456 0.065355256
0.02047485 -0.030692333 0.013621268 -0.026846474 0.09229765 0.11154215 0.041983962 0.04133295
0.081991054 0.074674726 -0.012182487 0.023598494 -0.03931141 -0.08320893 -0.108239606 0.013693768
0.04621905 0.09139044 -0.11965236 0.09374518 -0.011420687 0.055084165 -0.025563003 0.10372099
-0.044173766 -0.042240616 -0.016740596 0.057516504 0.10049746 -0.00381691 0.04607294 -0.036203764
-0.12032946 -0.004220172 0.021911552 0.07458998 -0.05784638 -0.006410682 -0.048522294 -0.011052456
0.002207638 -0.05598585 0.026112186 0.03934013 -0.05669427 -0.0025399223 0.095449015 0.061308518
-0.07218646 -0.011063249 -0.03104287 -0.118549846 -0.0866209 -0.1015539 0.04670953 -0.050294243
-0.124608114 0.11707124 0.043093216 -0.0037519028 0.070762455 0.075504266 -0.0063229795 0.035918586
-0.022586469 0.016396655 0.046837773 -0.027163511 -0.091087505 -0.0653789 0.0411483 0.013693571
0.06431491 0.08236489 -0.119191185 0.0799135 0.15366693 0.08791772 0.06373984 0.048525095
-0.04063025 0.09473421 0.017661646 0.052669615 -0.003971095 0.038141243 -0.012431784 0.051338073
0.08490149 -0.00465478 0.022516489 0.011297894 -0.027125595 -0.069016606 -0.030378904 -0.12564965
0.10030237 0.098623104 -0.08127446 0.028107474 0.018392898 0.057678252 -0.06922019 0.034578092
-0.023711681 0.10984587 -0.0031357398 0.012550526 0.023416791 0.016390791 0.08286741 0.062696226
-0.014068069 0.06352266 -0.06509154 0.0025320018 0.0486759 0.024192268 -0.07135385 0.018976044
0.07847183 -0.008543814 0.000888899 -0.10620255 0.0770501 0.08746946 -0.0028178492 -0.11172998
-0.1055153 0.08762183 -0.07428277 -0.0016306504 -0.066826515 -0.010802146 -0.011712078 0.0033469726
0.041581172 -0.09282102 -0.034325857 -0.057174172 -0.053487863 -0.08897023 0.016740208 0.0072232313
-0.015583984 0.023638532 -0.008296969 0.07886906 0.04028796 -0.08604627 -0.03405371 0.12304748
-0.06842952 0.042021915 -0.014543689 0.08145362 -0.07692409 -0.03962415 0.002417974 0.082051605
0.045581475 0.06451081 -0.03993376 0.060902607 0.09618132 -0.15417595 0.059779227 0.039857153
-0.11792562 0.031364277 -0.108096935 0.15094805 -0.042917725 -0.03564318 0.056001853 0.08403
0.07548673 0.02931155 0.110046536 -0.12696666 0.04564811 0.0032995634 -0.021197358 -0.04938285
0.007030345 -0.098355226 0.049240436 0.008990961 0.07863093 0.071952775 -0.101427555 -0.09357724
0.058827937 0.026878022 -0.016372409 0.09691512 -0.011896395 -0.096366026 0.05956258 -0.08710194
-0.031987388 -0.0076502333 -0.013655798 -0.07632944 -0.07175844 0.11086265 0.09952001 -0.061087664
00000000: 366e 4cbd d905 96bd d92a 663d ad4a 5a3c
00000010: f1e7 0bbc efbe 86bd d0e4 fb3d 5c83 aebd
00000020: efb4 023d da27 0cbe 616f 973d 2134 9ebd
00000030: a2db 0cbd a957 14bb 0d3d 4e3c a806 673d
00000040: 880d 133d 2223 a63d 5749 e43c 9061 96bd
00000050: 6330 76bc 3ccc 0ebd 4889 e53c cec4 5abd
00000060: 744d 08bd 9cf7 26bc 68fc 7fbd 2422 353d
00000070: 64b7 97bd d8b5 aebd fa77 1a3d dca1 253d
00000080: c501 acbd dfa2 b5bd d4f4 fa3d d9a5 7ebc
00000090: aed7 c83d d04f c53a 74a9 183d c23a f63c
000000a0: 78be ca3c 73c5 ab3b 0fb9 953d c85c 863d
000000b0: 85db 20bd 9596 b8bd 07e1 883d fad8 853d
000000c0: dfba a73c 7d6e fbbc bd2b 5f3c 23ed dbbc
000000d0: 8d06 bd3d 3670 e43d 60f7 2b3d bd4c 293d
000000e0: edea a73d 10ef 983d 0e99 47bc a151 c13c
000000f0: 0005 21bd 7269 aabd baac ddbd d35b 603c
00000100: 3050 3d3d e92a bb3d 4c0c f5bd 79fd bf3d
00000110: d51d 3bbc ef9f 613d 8169 d1bc ac6b d43d
00000120: 8def 34bd 7f04 2dbd 9323 89bc 6d96 6b3d
00000130: 9dd1 cd3d 2025 7abb fbb6 3c3d 664a 14bd
00000140: 4b6f f6bd 5e49 8abb db7f b33c a2c2 983d
00000150: 53f0 6cbd b310 d2bb 50bf 46bd 5c15 35bc
00000160: 05ae 103b 6b51 65bd 39e9 d53c 1e23 213d
00000170: 4038 68bd d374 26bb c67a c33d a41e 7b3d
00000180: 7fd6 93bd a142 35bc 9e4d febc 43ca f2bd
00000190: 4c66 b1bd 7efb cfbd 7e52 3f3d 5601 4ebd
000001a0: 8a32 ffbd 0cc3 ef3d 8382 303d 7ce2 75bb
000001b0: e8eb 903d fba1 9a3d ff30 cfbb 5e1f 133d
000001c0: 4207 b9bc 4752 863c f7d8 3f3d 0386 debc
000001d0: 168c babd 5fe5 85bd 1f8b 283d 005b 603c
000001e0: 89b7 833d ecae a83d 821a f4bd b0a9 a33d
000001f0: dd5a 1d3e 350e b43d 098a 823d 40c2 463d
00000200: e86b 26bd 0204 c23d 28af 903c 18bc 573d
00000210: f61f 82bb fe39 1c3d aeae 4bbc df47 523d
00000220: d5e0 ad3d 2087 98bb 8074 b83c cd1a 393c
00000230: 7f36 debc 9458 8dbd 2edd f8bc 4daa 00be
00000240: 546b cd3d e9fa c93d 3973 a6bd a541 e63c
00000250: b4ac 963c 0840 6c3d 51c3 8dbd c2a1 0d3d
00000260: 003f c2bc dff6 e03d fc80 4dbb b9a0 4d3c
00000270: 92d4 bf3c fb45 863c 63b6 a93d e166 803d
00000280: c27d 66bc 2b18 823d b74e 85bd f1ef 253b
00000290: 6160 473d dd2e c63c f821 92bd a673 9b3c
000002a0: d7b5 a03d 5afb 0bbc 0105 693a b980 d9bd
000002b0: 71cc 9d3d 3023 b33d aaab 38bb b0d2 e4bd
000002c0: 6818 d8bd 1373 b33d 9121 98bd 8cbb d5ba
000002d0: 57dc 88bd 7cfb 30bc 04e4 3fbc e258 5b3b
000002e0: 0551 2a3d f218 bebd 4599 0cbd 772f 6abd
000002f0: 1716 5bbd 0636 b6bd c322 893c dbb0 ec3b
00000300: f753 7fbc 98a5 c13c 03f0 07bc 1a86 a13d
00000310: fd04 253d 0739 b0bd e77b 0bbd 5100 fc3d
00000320: c724 8cbd 2c1f 2c3d a748 6ebc 28d1 a63d
00000330: 618a 9dbd ef4c 22bd df76 1e3b ac0a a83d
00000340: a4b3 3a3d 3e1e 843d 9591 23bd 0375 793d
00000350: b6fa c43d 4de0 1dbe 10db 743d 4141 233d
00000360: fd82 f1bd d477 003d ed61 ddbd 2092 1a3e
00000370: 7fca 2fbd 95fe 11bd 3362 653d ec17 ac3d
00000380: c998 9a3d c71e f03c 1460 e13d 8c03 02be
00000390: 83f9 3a3d 7d3d 583b 15a6 adbc ac45 4abd
000003a0: cf5e e63b 776e c9bd 57b0 493d d34e 133c
000003b0: 4109 a13d fa5b 933d 40b9 cfbd 6da5 bfbd
000003c0: 90f5 703d 4c2f dc3c 6e1f 86bc 6f7b c63d
000003d0: 19e9 42bc 8d5b c5bd e4f7 733d 8062 b2bd
000003e0: 3505 03bd cfae fabb 91bc 5fbc 9c52 9cbd
000003f0: 17f6 92bd f50b e33d 26d1 cb3d 0f37 7abd

fc_numerical.3.bias f4 [64]
-0.10545153 -0.001508088 0.099292114 -0.007637983 -0.112308174 -0.17767668 0.06502669 0.0068366635
-0.31973672 -0.15051332 -0.0851048 -0.02532092 -0.17195389 -0.04764638 -0.099155076 -0.34303397
0.1455465 0.086436905 -0.111502685 0.020389479 -0.21881032 -0.0552988 0.011607894 -0.15343302
-0.0032389981 -0.060817756 0.09403518 -0.018811988 -0.02479418 0.012683031 0.0063225976 -0.16279878
0.050745394 -0.041351397 -0.050517768 0.072147205 -0.08788828 0.038087893 0.06331539 -0.017227031
-0.03177856 0.061305832 -0.043849505 -0.07061098 0.11421431 -0.0619408 -0.03359793 0.022702651
0.1406006 -0.06735134 -0.09689027 -0.095350996 -0.0005256712 -0.035256445 -0.10472777 -0.103605755
-0.10702571 0.12626535 0.018633328 -0.14466216 0.101524524 0.00819669 -0.10066156 -0.07483402
00000000: f9f6 d7bd 09ab c5ba aa59 cb3d 0c48 fabb
00000010: d401 e6bd e0f0 35be b72c 853d 1706 e03b
00000020: 88b4 a3be 2a20 1abe 6d4b aebd d16d cfbc
00000030: ae14 30be da28 43bd d111 cbbd 26a2 afbe
00000040: 240a 153e d505 b13d 855b e4bd d607 a73c
00000050: d00f 60be ff80 62bd 092f 3e3c 8c1d 1dbe
00000060: 5f45 54bb 0a1c 79bd 8495 c03d 991b 9abc
00000070: 2a1d cbbc 7dcc 4f3c cb2d cf3b b9b4 26be
00000080: 67da 4f3d 1560 29bd b8eb 4ebd eac1 933d
00000090: c5fe b3bd 0d02 1c3d 80ab 813d b41f 8dbc
000000a0: 3c2a 02bd d31b 7b3d 8a9b 33bd 7d9c 90bd
000000b0: 31e9 e93d a3b5 7dbd fc9d 09bd e9fa b93c
000000c0: 9bf9 0f3e 80ef 89bd 686e c6bd 6247 c3bd
000000d0: 32cd 09ba 1069 10bd 837b d6bd 412f d4bd
000000e0: 4c30 dbbd b44b 013e eca4 983c 5122 14be
000000f0: 17ec cf3d 694b 063c a627 cebd 9442 99bd

fc_numerical.5.weight f4 [64]
0.8911819 0.925423 0.86039025 0.9186065 0.9134722 0.90291893 0.91432655 0.7642878
0.8972156 0.8304352 0.91065645 0.882762 0.91486925 0.9307661 0.8913518 0.981502
0.90011716 0.8576289 0.94458866 0.91489303 0.9486084 0.9005515 0.9442789 0.94012207
0.91304666 0.9467593 0.9161835 0.7951435 0.941948 0.9111594 0.94761395 0.94721836
0.87489504 0.94397277 0.9424698 0.90914446 0.9132587 0.90485847 0.86099637 0.9501305
0.941855 0.8096968 0.90706384 0.89013016 0.9418788 0.9373947 0.9377303 0.8873498
0.88309824 0.88748366 0.9322149 0.94275135 0.944525 0.79457694 0.9409266 0.8539466
0.9389381 0.90201443 0.9501164 0.8966024 0.90749705 0.9285648 0.9167932 0.9182563
00000000: 7f24 643f 86e8 6c3f 8942 5c3f cc29 6b3f
00000010: 50d9 693f b225 673f 4e11 6a3f 5ea8 433f
00000020: ecaf 653f 6797 543f c820 693f b1fc 613f
00000030: df34 6a3f b046 6e3f a22f 643f b743 7b3f
00000040: 146e 663f 918d 5b3f 90d0 713f 6e36 6a3f
00000050: 00d8 723f 8b8a 663f 43bc 713f d7ab 703f
00000060: 6dbd 693f d15e 723f 008b 6a3f 868e 4b3f
00000070: 8123 713f be41 693f d496 723f e77c 723f
00000080: 1ff9 5f3f 33a8 713f b345 713f b1bd 683f
00000090: 52cb 693f cea4 673f 426a 5c3f c13b 733f
000000a0: 691d 713f 4a48 4f3f 5635 683f 92df 633f
000000b0: f81e 713f 19f9 6f3f 180f 703f 5b29 633f
000000c0: ba12 623f 2132 633f a3a5 6e3f 2758 713f
000000d0: 64cc 713f 6569 4b3f 91e0 703f 3f9c 5a3f
000000e0: 3f5e 703f 6bea 663f d43a 733f bc87 653f
000000f0: ba51 683f 6cb6 6d3f f6b2 6a3f d812 6b3f

fc_numerical.5.bias f4 [64]
0.063272 0.024550017 -0.064651884 -0.051434614 -0.002807757 -0.012498041 0.03689729 -0.08605702
0.073788576 0.07705205 -0.032982994 0.061150555 0.02237187 0.01722022 -0.068368964 0.008125704
-0.06396206 -0.046146378 -0.02062169 -0.013592135 0.008800278 0.00949003 0.026117224 -0.021371936
-0.016413432 -0.010205047 -0.016216278 0.07401024 -0.021485733 0.029506277 0.019736886 0.02835976
-0.07183316 0.013278165 0.046967372 -0.062873006 -0.016016513 -0.07271114 0.06281744 0.027942348
0.0022320708 0.06356946 -0.081601456 0.06926836 -0.034880266 0.08684947 0.04459368 -0.07573931
0.056516487 -0.0684049 -0.035575278 -0.016394524 -0.017696284 -0.08476721 -0.05297281 -0.04626582
-0.02589432 -0.039816394 -0.01962389 0.07431156 0.00012762728 0.04222146 -0.020116718 -0.027761688
00000000: c094 813d 1e1d c93c 3568 84bd 1aad 52bd
00000010: 5802 38bb 95c4 4cbc 9d21 173d aa3e b0bd
00000020: 771e 973d 77cd 9d3d 2d19 07bd 0179 7a3d
00000030: 3645 b73c 6b11 8d3c 0705 8cbd ac21 053c
00000040: 8afe 82bd fc03 3dbd d2ee a8bc 8cb1 5ebc
00000050: 0b2f 103c 127c 1b3c caf3 d53c 3314 afbc
00000060: 7675 86bc 1233 27bc 00d8 84bc ae92 973d
00000070: d902 b0bc 26b7 f13c 40af a13c ba52 e83c
00000080: 441d 93bd a98c 593c dc60 403d 90c3 80bd
00000090: 1035 83bc 94e9 94bd 6ea6 803d 5ae7 e43c
000000a0: ef47 123b b430 823d aa1e a7bd 92dc 8d3d
000000b0: 9cde 0ebd 23de b13d dda7 363d 361d 9bbd
000000c0: d57d 673d de17 8cbd 62b7 11bd cf4d 86bc
000000d0: ccf7 90bc 6e9a adbd 04fa 58bd 3a81 3dbd
000000e0: 5320 d4bc 8416 23bd 48c2 a0bc a930 983d
000000f0: b0d3 0539 69f0 2c3d d1cb a4bc 7b6c e3bc

fc_numerical.5.running_mean f4 [64]
1.9209253 2.0186465 1.9619809 2.465939 -0.20706145 2.2548711 2.2885966 2.074074
0.959531 2.0503886 0.9264587 1.411552 -0.3448776 -0.32178366 2.1477163 -0.6484264
1.5523772 2.4774358 2.9003823 1.9132351 0.25930488 1.1111879 2.3315468 1.8588456
0.4822923 1.8962483 2.198325 2.4215038 2.4623375 1.7055091 0.604727 1.9120278
2.12781 1.6897024 1.3063445 1.5345795 1.3717624 2.1081975 1.8389832 2.50352
1.7666311 1.5024052 1.987173 2.8098726 3.024573 0.7305954 1.2966319 0.9100527
1.8152305 2.1368165 2.3021019 1.8374581 2.2474394 1.7824078 2.4794872 2.4733477
1.5776505 2.6282108 2.350087 1.286868 2.3480697 2.640507 1.5664275 2.7396162
00000000: e1e0 f53f 8131 0140 3122 fb3f f2d1 1d40
00000010: eb07 54be cf4f 1040 5e78 1240 a1bd 0440
00000020: d3a3 753f 9139 0340 662c 6d3f bcad b43f
00000030: cc93 b0be d4c0 a4be 2f74 0940 46ff 25bf
00000040: 4cb4 c63f 4f8e 1e40 dd9f 3940 e3e4 f43f
00000050: 9cc3 843e 683b 8e3f 1038 1540 a7ee ed3f
00000060: 04ef f63e 44b8 f23f 5bb1 0c40 ebf9 1a40
00000070: f096 1d40 1f4e da3f 64cf 1a3f 54bd f43f
00000080: 0a2e 0840 2b48 d83f 4c36 a73f 1a6d c43f
00000090: e995 af3f b5ec 0640 cd63 eb3f ac39 2040
000000a0: f820 e23f d04e c03f af5b fe3f f4d4 3340
000000b0: 9b92 4140 4d08 3b3f 09f8 a53f 37f9 683f
000000c0: 7959 e83f 9ac1 0840 a355 1340 d431 eb3f
000000d0: 0cd6 0f40 f025 e43f ebaf 1e40 544b 1e40
000000e0: 74f0 c93f 9b34 2840 d367 1640 17b8 a43f
000000f0: c646 1640 11fe 2840 b280 c83f df55 2f40

fc_numerical.5.running_var f4 [64]
17.057243 17.422205 14.385651 20.61228 3.7202728 19.069817 25.609222 18.247112
23.527088 27.994465 5.99451 14.52679 4.351735 4.2046165 23.494095 3.889935
11.806271 22.158295 32.504433 11.840828 6.038727 6.1119947 25.819592 19.657995
6.0533395 13.949915 10.289693 36.333874 27.689808 14.516614 7.6207757 23.886284
19.028997 13.470022 16.158426 12.902745 17.82768 18.563517 23.557825 27.251087
17.639431 13.8094225 18.773863 39.11787 25.412 16.181116 14.58834 7.0180635
17.354517 19.625183 21.4324 16.00955 18.434948 16.317907 23.678953 29.227476
13.976693 22.68956 22.404886 17.733475 22.802475 31.768303 13.496095 36.466263
00000000: 3c75 8841 ad60 8b41 a02b 6641 f3e5 a441
00000010: f318 6e40 fc8e 9841 b0df cc41 16fa 9141
00000020: 7a37 bc41 aaf4 df41 07d3 bf40 bb6d 6841
00000030: 6a41 8b40 388c 8640 e8f3 bb41 b2f4 7840
00000040: 7ce6 3c41 3044 b141 8a04 0242 0874 3d41
00000050: 403d c140 7695 c340 868e ce41 9343 9d41
00000060: f5b4 c140 da32 5f41 95a2 2441 e355 1142
00000070: ba84 dd41 0d44 6841 65dd f340 1c17 bf41
00000080: 633b 9841 3685 5741 7544 8141 a571 4e41
00000090: 179f 8e41 1582 9441 6d76 bc41 3a02 da41
000000a0: 8e1d 8d41 65f3 5c41 df30 9641 b378 1c42
000000b0: c74b cb41 ed72 8141 d769 6941 fa93 e040
000000c0: 0dd6 8a41 6000 9d41 8e75 ab41 8f13 8041
000000d0: c67a 9341 138b 8241 7f6e bd41 dfd1 e941
000000e0: 89a0 5f41 3884 b541 353d b341 28de 8d41
000000f0: 786b b641 7c25 fe41 01f0 5741 74dd 1142
